results2/mixture_mlp.pt (torch, 587248 bytes, 7 tensors)

net.0.weight f4 [512, 21]
66.69162 -793.58124 811.61017 -5.7923727 -0.20865166 -194.27417 768.68506 -315.80524
-6.0112276 -0.06151391 -94.296234 37.79036 583.3989 0.075509585 -0.17789717 32.394104
-513.3253 -237.26007 6.031795 0.11564109 -0.0018187622 -112.33413 47.907276 288.24847
0.62056416 1.3441395 89.87852 -3.8033884 29.268156 -7.9895396 6.1553698 -85.80709
38.11744 273.99878 -1.69684 0.38684535 -34.1091 -60.373142 -42.77802 -0.15919992
-0.47527954 0.3090016 1813.2443 -1329.2219 732.46674 -13.238024 -2.8247654 -72.218834
-182.09935 -341.25995 -2.9899223 0.0784236 1268.543 -1225.3712 518.24445 -0.3554817
0.30229744 -367.89932 -252.45209 -325.6208 3.2032695 -0.24400832 -0.0018024388 437.30182
119.623924 383.18604 6.5741806 -2.6812365 -706.843 -607.69037 -479.12082 5.945818
-2.1533027 -464.1218 -368.56122 -159.22398 0.7665157 -0.678335 -92.641 287.6891
-0.53273654 -6.3400335 2.5154216 -0.0008019717 15.327803 11.410968 -18.08983 -6.1752567
4.3793716 236.82996 102.77941 -89.09563 -2.3250067 0.5776532 232.7223 102.01077
-55.488503 -4.367115 -0.6875958 34.025936 -16.369576 -108.61125 0.052613497 -1.3347067
-0.33701047 0.13500315 0.07449562 0.121724956 0.07498771 0.20550083 0.15570742 -0.049116313
0.15561678 -0.12771392 0.0038868736 0.14881119 0.06757893 0.06234711 0.10361053 0.012629537
0.19415963 -0.094588414 -0.07035863 0.18141392 -0.07197608 0.04188963 -0.023578644 0.15694143
-0.14437413 -0.05871512 -0.17393678 -0.0046628565 0.053171977 0.011940688 0.17158978 -0.034343883
0.03933738 -0.19342063 0.03118305 0.17600225 0.032374278 0.034945056 0.08468993 -0.051540017
-0.13889273 0.047048554 0.02420938 -1638.1769 1549.4535 -656.9526 3.6070695 2.854824
55.489998 288.60876 196.88667 4.9708548 1.9688268 -1225.6483 1495.6328 -497.6371
-0.426643 -0.85660815 -60.112923 385.46423 381.6013 -3.745459 -2.4992795 0.00646664
-9.157819 3.8636696 3.5205925 -0.2964408 0.39211586 -6.695879 -1.5912158 2.8767314
-0.5502041 0.37306446 -10.297459 1.549985 4.7273207 -0.783472 0.84788805 -1.0601742
0.34617922 0.14895828 0.89295024 -0.71635544 -0.036381517 -0.0859582 0.09326954 -0.0045175552
0.09236328 0.19036229 -0.008165747 0.032910332 0.016801745 -0.15088367 -0.17117667 0.122755066
-0.1840592 -0.18267174 0.14597546 -0.19922541 -0.14413497 0.18134709 0.038527444 -0.15391012
-0.0943263 -0.061562777 -133.28105 510.4552 -18.781387 1.2891359 -1.2809411 -241.97758
457.8995 -825.6471 -9.385988 1.0271105 -324.2069 689.9335 -546.00824 -3.5564218
0.8809551 -116.196754 -224.15909 -228.55853 -0.3641264 -0.83399737 -0.053690746 454.20032
812.5639 751.9222 -5.7026634 2.7426236 272.31924 831.7256 304.5756 -5.847399
2.8297033 664.64844 1332.1018 855.26056 -0.17265022 0.11571205 -47.35284 -258.41812
-367.83856 5.960243 -2.8885293 0.0013570944 52.530197 -8.576285 -32.396374 -1.5131673
00000000: 1c62 8542 3365 46c4 0de7 4a44 1e5b b9c0
00000010: c8a8 55be 3046 42c3 d82b 4044 12e7 9dc3
00000020: fa5b c0c0 02f6 7bbd ac97 bcc2 5429 1742
00000030: 88d9 1144 c5a4 9a3d ad2a 36be 9093 0142
00000040: d254 00c4 9442 6dc3 7704 c140 3cd5 ec3d
00000050: 8863 eeba 13ab e0c2 0da1 3f42 ce1f 9043
00000060: 4bdd 1e3f c30c ac3f cdc1 b342 b76a 73c0
00000070: 2f25 ea41 4faa ffc0 caf8 c440 3b9d abc2
00000080: 4278 1842 d8ff 8843 0e32 d9bf 9810 c63e
00000090: b86f 08c2 197e 71c2 b11c 2bc2 4e05 23be
000000a0: d757 f3be 7535 9e3e d1a7 e244 1a27 a6c4
000000b0: df1d 3744 f2ce 53c1 f5c8 34c0 0b70 90c2
000000c0: 6f19 36c3 46a1 aac3 e35a 3fc0 8d9c a03d
000000d0: 6091 9e44 e12b 99c4 a58f 0144 b301 b6be
000000e0: bbc6 9a3e 1df3 b7c3 bc73 7cc3 76cf a2c3
000000f0: 5e02 4d40 51dd 79be cf3f ecba a2a6 da43
00000100: 733f ef42 d097 bf43 b05f d240 6199 2bc0
00000110: f4b5 30c4 2fec 17c4 778f efc3 2444 be40
00000120: b6cf 09c0 970f e8c3 d647 b8c3 5739 1fc3
00000130: 5f3a 443f 5da7 2dbf 3148 b9c2 34d8 8f43
00000140: 6c61 08bf 8ee1 cac0 abfc 2040 693b 52ba
00000150: ae3e 7541 5393 3641 f9b7 90c1 b49b c5c0
00000160: d023 8c40 78d4 6c43 0f8f cd42 f630 b2c2
00000170: e9cc 14c0 15e1 133f e9b8 6843 8405 cc42
00000180: 3af4 5dc2 68bf 8bc0 4706 30bf 8f1a 0842
00000190: e4f4 82c1 f638 d9c2 4081 573d abd7 aabf
000001a0: a38c acbe 443e 0a3e 2991 983d ef4a f93d
000001b0: 2893 993d cf6e 523e c471 1f3e 302e 49bd
000001c0: 015a 1f3e 70c7 02be ebba 7e3b f661 183e
000001d0: d266 8a3d af5f 7f3d c231 d43d 1eec 4e3c
000001e0: c8d1 463e 92b7 c1bd 2f18 90bd 92c4 393e
000001f0: 3268 93bd 7694 2b3d 0028 c1bc 41b5 203e
00000200: d0d6 13be 447f 70bd 7c1c 32be e0ca 98bb
00000210: dcca 593d e0a2 433c 3bb5 2f3e 2cac 0cbd
00000220: 3c20 213d 0f10 46be 9873 ff3c ef39 343e
00000230: e49a 043d 8c22 0f3d ea71 ad3d a01b 53bd
00000240: e539 0ebe fcb5 403d c052 c63c a9c5 ccc4
00000250: 83ae c144 f73c 24c4 3ada 6640 70b5 3640
00000260: c2f5 5d42 ec4d 9043 fde2 4443 3e11 9f40
00000270: 8402 fc3f bf34 99c4 40f4 ba44 8cd1 f8c3
00000280: f470 dabe ac4a 5bbf a273 70c2 6cbb c043
00000290: f7cc be43 9ab5 6fc0 32f4 1fc0 1ce6 d33b
000002a0: 6d86 12c1 5d46 7740 6351 6140 17c7 97be
000002b0: 69c3 c83e a444 d6c0 f6ac cbbf 5e1c 3840
000002c0: 2dda 0cbf 4e02 bf3e 64c2 24c1 e965 c63f
000002d0: 3646 9740 9f91 48bf 310f 593f cab3 87bf
000002e0: 673e b13e 8588 183e 6398 643f 1263 37bf
000002f0: c904 15bd da0a b0bd 1a04 bf3d 0008 94bb
00000300: f628 bd3d 55ee 423e a0c9 05bc fccc 063d
00000310: d0a3 893c 4081 1abe f048 2fbe 0267 fb3d
00000320: 047a 3cbe 4d0e 3bbe 977a 153e bf01 4cbe
00000330: 1e98 13be 0db3 393e f4ce 1d3d 9d9a 1dbe
00000340: 262e c1bd 4029 7cbd f347 05c3 443a ff43
00000350: 4840 96c1 6802 a53f e1f5 a3bf 43fa 71c3
00000360: 23f3 e443 6a69 4ec4 022d 16c1 5b78 833f
00000370: 7c1a a2c3 be7b 2c44 8780 08c4 6a9c 63c0
00000380: 4686 613f bd64 e8c2 ba28 60c3 fc8e 64c3
00000390: c76e babe da80 55bf d4ea 5bbd a419 e343
000003a0: 1724 4b44 05fb 3b44 387c b6c0 2587 2f40
000003b0: dd28 8843 70ee 4f44 ad49 9843 e51d bbc0
000003c0: dc19 3540 8029 2644 4283 a644 add0 5544
000003d0: 38cb 30be 70fa ec3d 4f69 3dc2 8535 81c3
000003e0: 56eb b7c3 50ba be40 aadd 38c0 88e0 b13a
000003f0: ec1e 5242 7738 09c1 e395 01c2 77af c1bf

net.0.bias f4 [512]
0.6493452 0.7347196 0.66287184 -1.0639291 1.0139462 -0.10402825 -0.08827008 -0.09215068
0.1037715 -0.14822924 0.9100898 1.020455 0.0282863 -0.21632208 1.0652382 -0.089035556
-0.39430255 -0.4521491 -0.15758698 -0.10462437 0.43365702 -0.2016767 -0.026698131 0.00093461573
0.001058206 0.9346681 -0.20770854 -0.13141795 -0.099299796 -0.21441643 0.098574296 0.6157407
0.8035621 -0.05118446 -0.07878494 -0.04849769 -0.5576295 -0.81074816 0.15829885 -1.3451171
-0.20388354 -0.7362699 -0.044651568 1.0001408 -0.1828045 -0.41645956 1.1644508 0.9074448
-0.8169758 -0.1304988 1.1054404 -0.13564315 -0.17652324 -0.15134346 1.2817086 0.099809155
-0.23258719 -0.68628424 -0.6754281 0.011037961 -0.13386491 -0.19117421 -0.032967675 -0.71977186
0.6648682 -1.044258 1.2392814 -0.06850596 0.27745876 -0.08246591 -0.24177054 -0.06859786
-0.03997234 -0.036591068 0.6134259 -0.14081356 -0.0823941 -0.07345587 0.7704511 -0.110787734
0.73242337 0.7658543 1.1536831 1.2540138 -0.074388444 -0.08197944 0.9306257 0.56820524
1.0206649 1.2121509 -0.014895961 0.95832825 -0.670473 -1.2645433 0.8962958 0.121129215
-1.2336696 -1.1162311 -0.12121349 -0.09258163 -0.081846625 -0.81034195 -0.1747306 -0.47474074
-0.49278304 -1.1005479 0.772445 -0.13866356 1.0192021 -0.18335566 -0.15784535 -0.16663894
0.47678456 -0.14574982 -1.1557677 0.34539592 -0.18154398 -0.12058512 -1.2964666 -0.038161658
0.5360473 -0.053500146 0.650763 -0.19549702 -0.28338388 1.4342431 0.032891847 -0.4443737
-0.10367491 -0.2351431 -0.20056525 -0.7110641 -1.4181623 -0.311407 0.77369404 -0.16249791
-0.04503271 -0.112665236 -0.11960314 -0.095878534 0.14155991 -0.19878875 0.058332983 -0.18615054
0.35698164 -1.0428246 -0.20345564 -0.033869237 -0.7133737 1.0140065 -0.17968479 1.1124336
0.13836862 0.18608773 0.8220711 0.79602045 -1.0775347 -0.15207815 -0.8471449 -0.12954347
1.1143692 -0.13444474 -0.16607824 -0.35541221 -1.2541436 -0.023594182 -0.06805384 -0.733501
0.74733764 -0.15073246 -0.19335122 0.42133507 -0.65789956 -1.2709069 -0.3775394 -0.049588863
-1.1918799 -0.116138734 -0.6307406 -0.12330678 -0.1485979 -0.1260176 -0.18647054 -0.07172191
-0.121493295 -0.077702045 0.986512 0.254661 0.76985604 1.1749943 1.0297024 1.1395373
0.2266031 -1.422953 0.9757957 -0.6724855 -0.18207486 -0.21627718 -0.07532324 -0.0907488
0.013767712 0.8847939 0.33320203 0.52178615 -0.39676654 0.22478978 0.9733368 0.56696963
-0.17562845 -0.12929682 1.1540864 -0.21024917 -0.06535208 -0.070887014 -0.74712014 -1.1207161
-0.7230509 -0.09320015 0.08100786 0.32386068 -0.06844501 -0.49629596 0.018466353 -0.09544023
-0.18272173 -0.106633335 0.4331908 -0.18691625 1.0247593 -0.110037714 0.94328606 -0.18046317
-0.077296905 0.85857284 -0.15368593 -0.078998104 0.9460557 -0.2192866 -0.09302911 0.46738887
0.1469942 -0.0043868273 0.8399743 -0.16820237 -0.15781751 0.7808 -0.054921776 0.75394005
-0.07463065 -0.11184152 0.055166803 -0.024035532 -0.57557935 -0.18242107 -1.077701 1.2386204
00000000: 7d3b 263f 9516 3c3f f8b1 293f d42e 88bf
00000010: fdc8 813f c30c d5bd f2c6 b4bd 7fb9 bcbd
00000020: 2786 d43d 68c9 17be a5fb 683f 459e 823f
00000030: acb8 e73c 8983 5dbe ba59 883f 4658 b6bd
00000040: 06e2 c9be 1680 e7be 7b5e 21be 4d45 d6bd
00000050: 4b08 de3e 5684 4ebe 0ab6 dabc 0001 753a
00000060: 80b3 8a3a 6946 6f3f 8cb1 54be 6d92 06be
00000070: b15d cbbd fb8f 5bbe 52e1 c93d 2fa1 1d3f
00000080: 3fb6 4d3f cca6 51bd 005a a1bd 84a5 46bd
00000090: cfc0 0ebf 318d 4fbf 1819 223e cc2c acbf
000000a0: d9c6 50be 2f7c 3cbf 90e4 36bd 9d04 803f
000000b0: 1a31 3bbe 303a d5be b90c 953f 4d4e 683f
000000c0: 5325 51bf 7aa1 05be 127f 8d3f 0ae6 0abe
000000d0: 82c2 34be c8f9 1abe 070f a43f be68 cc3d
000000e0: 562b 6ebe 53b0 2fbf dbe8 2cbf 90d8 343c
000000f0: e213 09be 2cc3 43be 1d09 07bd f842 38bf
00000100: cd34 2a3f 3faa 85bf c6a0 9e3f da4c 8cbd
00000110: 130f 8e3e e3e3 a8bd b292 77be 097d 8cbd
00000120: 09ba 23bd 84e0 15bd 7b09 1d3f 6e31 10be
00000130: 3dbe a8bd 0870 96bd 493c 453f aee4 e2bd
00000140: 1980 3b3f 070f 443f e3ab 933f 8683 a03f
00000150: f858 98bd d6e4 a7bd 7c3d 6e3f e675 113f
00000160: 26a5 823f c327 9b3f 300e 74bc 0055 753f
00000170: 1ea4 2bbf 8edc a1bf a473 653f 9812 f83d
00000180: e3e8 9dbf a9e0 8ebf c73e f8bd 709b bdbd
00000190: 349f a7bd 9272 4fbf 94ec 32be 3811 f3be
000001a0: 0f4e fcbe c1de 8cbf f5be 453f d2fd 0dbe
000001b0: 3775 823f 96c1 3bbe 36a2 21be 66a3 2abe
000001c0: 1b1d f43e 713f 15be 32f0 93bf bcd7 b03e
000001d0: aae6 39be 55f5 f6bd 9ef2 a5bf 664f 1cbd
000001e0: 653a 093f f822 5bbd 6798 263f 5f30 48be
000001f0: b117 91be 4795 b73f 9ab9 063d f384 e3be
00000200: 8353 d4bd 5ac9 70be fa60 4dbe 4c08 36bf
00000210: 5886 b5bf bd70 9fbe d010 463f da65 26be
00000220: 3874 38bd 08bd e6bd 7ef2 f4bd f75b c4bd
00000230: 15f5 103e 478f 4bbe 91ee 6e3d 3f9e 3ebe
00000240: 4cc6 b63e 477b 85bf ad56 50be 78ba 0abd
00000250: a99f 36bf f7ca 813f 4aff 37be 3964 8e3f
00000260: 81b0 0d3e c88d 3e3e 4073 523f ffc7 4b3f
00000270: a8ec 89bf 60ba 1bbe 7dde 58bf 0ba7 04be
00000280: a6a3 8e3f e2ab 09be 6a10 2abe 97f8 b5be
00000290: c787 a0bf 9648 c1bc d05f 8bbd b9c6 3bbf
000002a0: 8551 3f3f 9c59 1abe ddfd 45be 3bb9 d73e
000002b0: 1b6c 28bf 14ad a2bf d84c c1be b11d 4bbd
000002c0: 858f 98bf 25da edbd 3778 21bf 4488 fcbd
000002d0: 0c2a 18be c20a 01be 22f2 3ebe f0e2 92bd
000002e0: 7ad1 f8bd 4022 9fbd 0d8c 7c3f ed62 823e
000002f0: 4915 453f 3766 963f 4acd 833f 5cdc 913f
00000300: a50a 683e 5323 b6bf bfcd 793f 0228 2cbf
00000310: d571 3abe c477 5dbe 1243 9abd 82da b9bd
00000320: f891 613c da81 623f 7599 aa3e c793 053f
00000330: fc24 cbbe 4b2f 663e 9a2c 793f ec24 113f
00000340: f2d7 33be 6366 04be 1ab9 933f 8f4b 57be
00000350: 50d7 85bd 362d 91bd 4443 3fbf a073 8fbf
00000360: dd19 39bf b8df bebd 73e7 a53d 11d1 a53e
00000370: e62c 8cbd 811a febe c046 973c 2b76 c3bd
00000380: 681b 3bbe 9462 dabd 2fcb dd3e f966 3fbe
00000390: 502b 833f 745b e1bd 327b 713f 56cb 38be
000003a0: d74d 9ebd 6ecb 5b3f d85f 1dbe c2c9 a1bd
000003b0: b530 723f ab8c 60be 0c86 bebd 984d ef3e
000003c0: a685 163e 60bf 8fbb 8e08 573f 3e3d 2cbe
000003d0: ea9a 21be 82e2 473f a8f5 60bd 3702 413f
000003e0: f4d7 98bd 2b0d e5bd 96f6 613d 2ae6 c4bc
000003f0: 2b59 13bf 97cc 3abe 1bf2 89bf 1d8b 9e3f

net.2.weight f4 [256, 512]
-0.016235003 -0.05746776 -0.038923442 -0.00939752 -0.07584715 0.037343163 0.042809036 -0.07049677
-0.054797936 0.02627245 -0.0361387 -0.0005476339 0.03382935 -0.008677091 -0.041085433 -0.018139228
0.0050328863 0.0053551197 -0.0772479 -0.030129597 -0.071065746 -0.036741704 -0.015409074 -0.012786459
0.038268987 0.008717701 0.010862939 -0.053837217 -0.019587828 0.011966687 -0.06615625 -0.05592645
-0.03653933 -0.04284361 -0.039321177 0.0017417686 -0.019568665 -0.0500101 -0.057122823 -0.07254827
-0.030353501 -0.060797103 -0.06730683 -0.0012600947 -0.009630486 -0.06890281 -0.053901784 0.03971036
-0.057436515 -0.012947306 -0.06843939 0.035991903 0.030301329 0.011658225 -0.035958342 -0.06195233
-0.07527274 0.02069578 -0.055553585 -0.03356732 0.0035635792 0.0025634542 -0.06462718 -0.040279236
-0.04001043 -0.007499665 -0.05139076 -0.018894173 0.009116601 0.019407708 -0.06412496 0.025397394
0.024053548 -0.035830963 -0.03466734 -0.03392751 -0.037170965 -0.04338048 -0.022516027 0.010366693
-0.03777278 -0.07649379 -0.0016812952 -0.020024208 0.020369086 0.012093548 -0.06773934 -0.015367223
-0.034903236 -0.044031788 -0.017634742 -0.0623499 -0.07237049 -0.048710678 -0.07788198 -0.06270662
-0.03653231 -0.0080151325 -0.031898968 0.0017601805 -0.050893046 -0.019071871 -0.06338863 -0.06265131
-0.07163092 -0.05396243 0.0044804513 -0.0141324755 -0.061589874 -0.072998784 0.026454236 -0.027893143
-0.07383435 -0.0413022 -0.022183428 -0.043448985 0.020518158 -0.0019782146 -0.054091435 0.009716469
-0.043435093 -0.039656855 -0.066673584 -0.00024904683 -0.07526283 -0.002941867 0.035140593 -0.052454438
0.032339875 0.0020745895 0.015374254 0.015347688 -0.016507128 -0.02195758 -0.055867348 -0.0312106
-0.016044425 -0.015397692 0.037600834 -0.044030935 -0.05528975 -0.005063053 -0.06649629 -0.035296313
0.0057871942 -0.04074869 0.010744832 0.023568276 -0.0020666765 -0.03758679 -0.0053018653 -0.0065499167
-0.00025374672 0.0064324513 -0.06958937 -0.05251944 -0.014902693 0.006962031 0.036916327 -0.004877951
-0.037953395 0.0072615966 0.031504747 -0.009322088 -0.02237759 -0.017663935 0.010480985 -0.07402729
-0.027780822 0.0047832914 -0.020795634 -0.03949958 -0.026308361 -0.048888862 -0.033725996 -0.057811517
0.006895298 -0.02473217 0.0045796204 -0.01694308 0.014592815 0.0150462575 -0.018525852 0.027650427
-0.012166832 -0.02945905 -0.027304871 -0.07458503 0.003628746 -0.035204656 -0.046023134 -0.007813572
-0.06542095 -0.039441593 -0.041271057 -0.06837151 0.027582321 0.0066135935 -0.017105319 -0.05153708
0.0034905851 -0.07421656 -0.029173 -0.012231397 -0.009714921 -0.054329813 -0.014263329 0.040173683
0.023198295 0.0170377 -0.07085843 -0.014466794 -0.06841205 -5.5924058e-05 -0.018239217 -0.0049935277
-0.034931514 -0.042236026 -0.048520755 -0.0057226224 -0.03474155 -0.022690045 0.041204568 -0.0059847943
-0.027505422 -0.019884715 -0.026314318 -0.037655197 -0.027384799 -0.0036072955 -0.035217583 0.035469305
-0.06496234 -0.023686793 0.021390047 0.025762137 -0.059006814 -0.019757839 -0.04040277 -0.04966835
-0.035446234 -0.0012969337 0.015613477 -0.0022205822 -0.03664397 -0.07350097 -0.014412099 0.0011594334
0.0017703101 -0.0007982366 0.00216094 0.008543453 -0.02982478 0.0009670481 0.007995637 -0.015054801
00000000: 45ff 84bc 5063 6bbd 306e 1fbd 0ef8 19bc
00000010: c055 9bbd 25f5 183d 8758 2f3d 9c60 90bd
00000020: cd73 60bd 5239 d73c 2c06 14bd 178f 0fba
00000030: a590 0a3d 5c2a 0ebc 3349 28bd b898 94bc
00000040: e9ea a43b 007a af3b 2634 9ebd 58d2 f6bc
00000050: eb8a 91bd 787e 16bd 5776 7cbc 4c7e 51bc
00000060: f1bf 1c3d b0d4 0e3c 78fa 313c 6a84 5cbd
00000070: a776 a0bc ec0f 443c ee7c 87bd 2213 65bd
00000080: 44aa 15bd c87c 2fbd 3e0f 21bd 0e4c e43a
00000090: 774e a0bc 64d7 4cbd 9ff9 69bd 3094 94bd
000000a0: e8a7 f8bc 6206 79bd 2ad8 89bd c329 a5ba
000000b0: 30c9 1dbc eb1c 8dbd 1ec8 5cbd 55a7 223d
000000c0: 8d42 6bbd f020 54bc f329 8cbd 3f6c 133d
000000d0: 7e3a f83c 2402 3f3c 0e49 13bd bac1 7dbd
000000e0: 9828 9abd 328a a93c 288c 63bd e37d 09bd
000000f0: f08a 693b a0ff 273b 415b 84bd d7fb 24bd
00000100: fae1 23bd c0bf f5bb 1e7f 52bd f4c7 9abc
00000110: cc5d 153c eafc 9e3c f253 83bd 320e d03c
00000120: f20b c53c 7dc3 12bd 57ff 0dbd 93f7 0abd
00000130: 9540 18bd bbaf 31bd 8873 b8bc 10d9 293c
00000140: a1b7 1abd c7a8 9cbd e85e dcba cf09 a4bc
00000150: 12dd a63c 0424 463c ecba 8abd cec6 7bbc
00000160: b2f6 0ebd ad5a 34bd bc76 90bc 9c62 7fbd
00000170: fb36 94bd d984 47bd 9680 9fbd 546c 80bd
00000180: e7a2 15bd e751 03bc 7ea8 02bd dbb5 e63a
00000190: 3a75 50bd 9d3c 9cbc e6d1 81bd 544f 80bd
000001a0: 3bb3 92bd b607 5dbd c0d0 923b e68b 67bc
000001b0: aa45 7cbd 6380 95bd 8eb6 d83c 2980 e4bc
000001c0: 7736 97bd 7f2c 29bd 05ba b5bc 90f7 31bd
000001d0: b215 a83c efa4 01bb fb8e 5dbd d331 1f3c
000001e0: ffe8 31bd 3a6f 22bd 298c 88bd 8092 82b9
000001f0: 6623 9abd 57cc 40bb 95ef 0f3d 77da 56bd
00000200: d176 043d d6f5 073b 4ce4 7b3c df74 7b3c
00000210: f539 87bc 62e0 b3bc 29d5 64bd 5fad ffbc
00000220: 996f 83bc 9a46 7cbc 5503 1a3d c859 34bd
00000230: 8177 62bd f8e7 a5bb 352f 88bd de92 10bd
00000240: 81a2 bd3b 19e8 26bd 180b 303c 4212 c13c
00000250: 1471 07bb 9bf4 19bd 45bb adbb afa0 d6bb
00000260: 4f09 85b9 50c7 d23b df84 8ebd a01e 57bd
00000270: 6d2a 74bc c021 e43b 9335 173d 38d7 9fbb
00000280: 0575 1bbd b0f2 ed3b 1f0b 013d acbb 18bc
00000290: 3551 b7bc f5b3 90bc 70b8 2b3c 9f9b 97bd
000002a0: 9b94 e3bc 28bd 9c3b 9b5b aabc 50ca 21bd
000002b0: a284 d7bc b03f 48bd 4524 0abd c5cb 6cbd
000002c0: f4f1 e13b 1f9b cabc a410 963b 37cc 8abc
000002d0: b416 6f3c 9484 763c 87c3 97bc 2683 e23c
000002e0: 6457 47bc 1b54 f1bc 77ae dfbc 09c0 98bd
000002f0: 41d0 6d3b c232 10bd c182 3cbd 7f04 00bc
00000300: 6bfb 85bd 828d 21bd d70b 29bd 5d06 8cbd
00000310: 52f4 e13c d8b6 d83b 7420 8cbc 8c18 53bd
00000320: 4dc2 643b dafe 97bd 37fc eebc 3366 48bc
00000330: 552b 1fbc f088 5ebd bdb0 69bc 298d 243d
00000340: 5a0a be3c a692 8b3c 391e 91bd 2206 6dbc
00000350: 9e1b 8cbd 0090 6ab8 696a 95bc bfa0 a3bb
00000360: 5914 0fbd afff 2cbd b3bd 46bd d684 bbbb
00000370: 284d 0ebd 79e0 b9bc 1fc6 283d 181c c4bb
00000380: 0d53 e1bc 45e5 a2bc 2091 d7bc 563c 1abd
00000390: 1656 e0bc 6068 6cbb 5040 10bd 4348 113d
000003a0: fa0a 85bd ce0a c2bc 2e3a af3c 1e0b d33c
000003b0: 21b1 71bd 31db a1bc 607d 25bd 0a71 4bbd
000003c0: 1230 11bd e0fd a9ba abcf 7f3c 3087 11bb
000003d0: fd17 16bd ad87 96bd b920 6cbc 21f8 973a
000003e0: c009 e83a c040 51ba 8f9e 0d3b d7f9 0b3c
000003f0: 1953 f4bc 8081 7d3a 2200 033c 69a8 76bc

net.2.bias f4 [256]
-0.058167245 0.008993916 -0.04608016 -1.213916 -0.05551473 -0.04328046 -2.7215195 1.0133586
-0.05560882 -0.06269325 -0.647181 -0.054335773 1.1029515 -0.061878767 -0.060677677 -0.03823559
-0.013097402 -0.44801566 0.64077246 -0.04159244 0.06986191 -0.049419515 -0.047593933 -1.8704726
-0.00090367824 -0.052103236 1.0409504 -0.04477532 -0.056752093 -0.064899705 -1.1743871 -0.02003371
-1.5862325 0.16826817 -0.04871846 -0.02140817 -0.07191021 -0.04548965 -0.006565197 -0.11209134
2.0503163 1.165336 0.25831106 0.21959017 0.0048290906 -0.06948403 0.5615547 -0.027935494
0.413138 -0.16283184 -1.5682032 -0.061687008 -0.79621327 2.374915 -1.5551116 -0.1272228
-0.059719354 0.0013958956 -1.1602302 0.5954077 0.23821594 -0.018380765 -1.3875041 -0.05548363
-0.26164925 0.9302157 0.25635442 0.12768729 -0.017843083 0.000892916 0.005470553 0.45144257
-0.0068744733 -0.49994764 -0.05913004 -1.6860431 -0.022687329 1.1220942 0.27851212 -0.047852896
1.9476184 -0.06099364 -0.049461305 -0.031230047 -0.049312904 0.7013677 -0.04380228 0.91028583
1.1423295 -0.06159959 -0.03949823 -0.042301558 -0.016656073 -0.044602722 -0.06566491 -0.00417296
-0.05220855 0.57123697 -0.5462337 -0.008841984 -0.05547469 -1.2642552 -0.004793053 -0.06270951
-1.6414616 -0.053056482 -1.3746523 -0.032066327 -0.0010077215 -2.315123 -1.4820696 0.29761302
-0.008987859 -0.21275489 -2.0142586 0.0050105006 -0.0011922624 -0.009478136 -0.016692536 -0.048911307
0.15393886 -0.016575374 -0.013307684 -0.29154953 -0.017297272 0.48304084 -0.04017181 -0.877678
-0.8801749 -0.055716664 -0.025452986 -0.02027208 0.87056786 0.40131038 0.0061935503 0.730765
-1.7683285 -0.050661087 0.81080985 0.0021784864 -0.11444051 -0.009374861 -0.048526533 0.27018458
-0.016234005 -0.53410053 -0.056755856 -0.05856712 -0.08609333 -0.027628627 -0.04166265 -0.0039321156
-0.7839024 -0.041291453 -0.04412766 -0.04400488 -0.009042055 -0.33448723 0.11176947 -0.08123197
0.3737187 -0.049606785 -0.0665837 -0.042054538 -0.4566502 -0.5461473 -0.034479376 -0.044223893
1.4792093 -0.06244415 0.5671345 -0.0072380183 -0.013665405 -0.5983952 1.19818 -0.0024371005
-0.44510198 0.06851487 -0.033993736 -0.060153816 -1.9188629 -0.34027717 -0.022746684 -0.059245985
0.02175408 -1.3319999 0.85491157 -0.054986022 0.80078447 -0.06492345 -0.06789308 -0.032782998
-0.045255195 0.24306335 -1.2937173 -0.04101024 -0.007843546 -2.2067196 -0.3958513 -0.040651977
-1.2188184 -0.047499154 -0.061162416 -1.5297565 0.006581567 -0.043573108 -0.024502404 -0.02342265
0.51216733 -0.05576865 -0.02194424 -1.4499792 -0.02836477 -0.05140416 -0.044426367 -0.06887475
-1.6012976 -0.9869259 -0.057415135 -0.006448277 -0.009168251 1.4754211 -0.01689381 -0.5072765
-0.031195851 -1.220552 -0.05362921 -0.062528394 -0.04789355 -0.061762247 -0.032814723 -0.0053860513
1.2164164 0.014258893 -2.1082225 -0.64445853 -0.021468932 -0.02751549 -0.018415812 -0.03735117
-2.2610264 -0.021260016 0.04937118 -0.04688635 0.56504494 1.1557984 -0.17730592 -0.059187423
-0.04219773 -0.014219471 -0.082794935 -2.46215 -0.033412773 -0.33953488 -0.060381513 -0.05379945
00000000: c740 6ebd 385b 133c 8dbe 3cbd 9961 9bbf
00000010: 6a63 63bd da46 31bd 602d 2ec0 bcb5 813f
00000020: 13c6 63bd 5265 80bd a7ad 25bf 308f 5ebd
00000030: 842d 8d3f 9774 7dbd 2889 78bd ec9c 1cbd
00000040: 7c96 56bc 4f62 e5be aa09 243f d65c 2abd
00000050: c313 8f3d 1e6c 4abd dbf1 42bd a56b efbf
00000060: d2e4 6cba 346a 55bd dd3d 853f 5366 37bd
00000070: e274 68bd 23ea 84bd 5152 96bf bc1d a4bc
00000080: ab09 cbbf 7e4e 2c3e 028d 47bd 3060 afbc
00000090: a945 93bd 5b53 3abd dd20 d7bb 2590 e5bd
000000a0: 6238 0340 bb29 953f 5941 843e 3fdc 603e
000000b0: 593d 9e3b a54d 8ebd 0cc2 0f3f fad8 e4bc
000000c0: d386 d33e 64bd 26be e2ba c8bf 84ab 7cbd
000000d0: a2d4 4bbf 9bfe 1740 e60d c7bf b246 02be
000000e0: 489c 74bd 7cf6 b63a 6c82 94bf a46c 183f
000000f0: e1ee 733e 4293 96bc bc99 b1bf ce42 63bd
00000100: e4f6 85be 9e22 6e3f e340 833e 75c0 023e
00000110: a82b 92bc 9412 6a3a 5342 b33b 7b23 e73e
00000120: 4343 e1bb 23f9 ffbe 5732 72bd 43d0 d7bf
00000130: c7da b9bc c8a0 8f3f 2499 8e3e 6601 44bd
00000140: 8f4b f93f 78d4 79bd f097 4abd 28d6 ffbc
00000150: 54fc 49bd d58c 333f 056a 33bd 7e08 693f
00000160: da37 923f da4f 7cbd e5c8 21bd 6644 2dbd
00000170: 5172 88bc 58b1 36bd 537b 86bd 53bd 88bb
00000180: a2d8 55bd 963c 123f f9d5 0bbf f8dd 10bc
00000190: 6e39 63bd 1dd3 a1bf 0b0f 9dbb d86d 80bd
000001a0: 6a1b d2bf c151 59bd 9bf4 afbf fb57 03bd
000001b0: 8615 84ba fa2a 14c0 75b4 bdbf bc60 983e
000001c0: d041 13bc 6bdc 59be 9de9 00c0 202f a43b
000001d0: b045 9cba 2f4a 1bbc c9be 88bc 3957 48bd
000001e0: 26a2 1d3e 14c9 87bc 7908 5abc fb45 95be
000001f0: 02b3 8dbc 2151 f73e 328b 24bd 81af 60bf
00000200: 2453 61bf 2837 64bd c882 d0bc a211 a6bc
00000210: 89dd 5e3f 8e78 cd3e 44f3 ca3b 6a13 3b3f
00000220: 9758 e2bf 0082 4fbd 3c91 4f3f f0c4 0e3b
00000230: c95f eabd 0499 19bc c2c3 46bd a255 8a3e
00000240: 2dfd 84bc d0ba 08bf d478 68bd 14e4 6fbd
00000250: b351 b0bd 6e55 e2bc 74a6 2abd fad8 80bb
00000260: d4ad 48bf 3a21 29bd 35bf 34bd 763e 34bd
00000270: 2125 14bc e941 abbe 64e7 e43d f25c a6bd
00000280: 0f58 bf3e 7c30 4bbd 095d 88bd 6141 2cbd
00000290: 0ece e9be 4fd0 0bbf 3f3a 0dbd 1d24 35bd
000002a0: bb56 bd3f 70c5 7fbd ba2f 113f e62c edbb
000002b0: dde4 5fbc 6e30 19bf f65d 993f c3b7 1fbb
000002c0: 68e4 e3be 8651 8c3d 043d 0bbd d963 76bd
000002d0: 4d9d f5bf cf38 aebe 4157 babc ebab 72bd
000002e0: 9d35 b23c f97e aabf 7cdb 5a3f 0639 61bd
000002f0: 3600 4d3f 96f6 84bd 870b 8bbd 7747 06bd
00000300: 835d 39bd 99e5 783e 8798 a5bf 5afa 27bd
00000310: 3782 00bc e53a 0dc0 06ad cabe b082 26bd
00000320: 3e02 9cbf 798e 42bd 7185 7abd 10cf c3bf
00000330: 30aa d73b b779 32bd 44b9 c8bc dbe0 bfbc
00000340: 661d 033f ab6d 64bd 68c4 b3bc eb98 b9bf
00000350: 3c5d e8bc 2b8d 52bd 6cf8 35bd 340e 8dbd
00000360: 52f7 ccbf 2da7 7cbf 222c 6bbd 114c d3bb
00000370: 6f36 16bc 99da bc3f e364 8abc dfdc 01bf
00000380: 718e ffbc 0c3b 9cbf 4daa 5bbd e30e 80bd
00000390: 072c 44bd 69fa 7cbd bb68 06bd 797d b0bb
000003a0: 88b3 9b3f 229e 693c 1eed 06c0 3cfb 24bf
000003b0: 9ddf afbc 2a68 e1bc c2dc 96bc 8afd 18bd
000003c0: a8b4 10c0 7c29 aebc 6f39 4a3d e70b 40bd
000003d0: c9a6 103f 34f1 933f af8f 35be 836e 72bd
000003e0: 87d7 2cbd c9f8 68bc 6490 a9bd de93 1dc0
000003f0: d5db 08bd 84d7 adbe 9b52 77bd d05c 5cbd

net.4.weight f4 [13, 256]
0.011689903 0.07814389 0.061501753 3.4961908 -0.04328196 -0.007814184 2.057635 -1.2070498
0.03686911 0.018230228 0.82003284 0.037155528 -0.34624305 -0.013036009 -0.0036144827 -0.0054758014
-0.061049722 -1.7931112 1.3013686 -0.029945446 1.1676657 -0.034115456 -0.03930957 -0.73887986
0.40594894 0.009200237 0.7082941 -0.03879679 0.006994369 -0.023253134 0.23437761 -0.048138406
-1.3841176 0.8775362 0.040555656 0.090566635 -0.0706126 0.0020424435 -0.0011041582 0.040200107
-0.8080826 -1.2178527 1.3926245 0.4781003 0.0402191 0.028951677 0.9186998 0.044140946
0.562498 0.494502 1.6616486 0.04264013 -0.2033596 1.0117805 -2.053371 0.10071508
-0.06946422 0.0025201973 -1.884331 -1.3946925 1.7561841 -0.04141542 0.28102294 -0.01582795
-0.5797316 0.21664278 -0.9972854 -1.3099008 -0.025010865 -0.019024357 -0.054330148 -2.2522779
0.018983196 -1.5352823 0.017603748 1.0499673 -0.035727408 0.12737231 -0.30524305 0.018495472
-0.40669158 0.00088646077 -0.058988832 0.008531515 -0.016942592 -0.63384825 -0.028469734 -1.0721059
0.13381648 0.014206488 0.010444937 -0.036988772 0.013507141 0.0396744 0.019343339 0.03723412
0.0554596 1.4006176 -0.114913665 -0.022073979 0.018846478 1.6581864 -0.0016777227 0.015540929
2.7993042 -0.023539593 -0.8838023 -0.64355826 -0.0071199387 -0.54393655 -0.81500286 0.027675342
0.013741904 0.4997025 1.0948884 0.007827876 0.020894125 -0.00060362474 -0.059293482 0.043649692
-0.039542954 0.03973854 -0.08475061 -0.12056812 -0.0042004413 -0.2855994 0.050141826 -1.4654425
-2.0299788 0.036554374 -0.005797218 -0.0024233204 0.5055917 0.86934954 0.025241587 -0.6536058
0.42598113 0.05172439 0.2674093 5.9713777e-05 -0.056727555 -0.014067889 -0.010303202 0.027256738
0.061660767 -1.1339464 0.04713886 -0.039514214 0.021434633 -0.028060129 -0.0334496 0.040367413
-0.41557866 0.025291061 -0.047195885 0.042336475 -0.027019083 -1.2321483 -0.059203707 -0.124172546
-0.048805635 0.0002063439 -0.024791688 -0.17437898 0.72719675 1.7553709 0.04606206 0.04653463
1.0766858 0.051162902 -0.05655679 0.046488445 0.047380213 -2.7858524 -0.40093753 -0.057706304
-0.583725 -0.3427171 0.04104662 -0.020447189 1.1593235 0.32659048 -0.026894785 -0.026070552
0.021063518 -1.4464521 -0.99825084 -0.016770212 0.15394902 0.0012668385 0.045185354 -0.014760886
-0.002814151 0.077624656 -0.9925646 -0.059387736 0.045324467 -1.0840956 1.8208263 0.016663037
0.72577083 0.055097606 0.02226841 -0.059907105 0.020799449 -0.035063993 -0.047094285 -0.04729915
2.2991886 -0.01480703 -0.04544211 2.0394983 0.026765848 0.03730844 0.058908008 -0.025513638
-1.6285913 0.11518693 -0.050584123 0.018411119 0.010930275 -0.3425267 0.024601812 -1.0157717
0.0494864 -0.72139376 0.02708646 0.035486795 -0.002937653 0.0032556828 0.7616639 0.03226572
-0.67707914 -0.055808134 -1.2545497 0.23038994 -0.0082877 0.017023476 0.08404964 0.010584467
0.28184837 -0.027423047 0.2089481 -0.013894369 0.49057966 0.94140697 -0.6364277 0.03987903
-0.044662166 0.008513509 -0.009951141 -1.7928597 0.0018999267 -0.77240336 -0.04173142 0.0052732187
00000000: 0287 3f3c e709 a03d 43e9 7b3d 97c1 5f40
00000010: 6d48 31bd 1007 00bc 4bb0 0340 9c80 9abf
00000020: 1004 173d 8f57 953c aced 513f 6530 183d
00000030: c546 b1be fc94 55bc f5e0 6cbb 5a6e b3bb
00000040: 460f 7abd ab84 e5bf 3f93 a63f 2750 f5bc
00000050: 1276 953f a6bc 0bbd 1203 21bd 3b27 3dbf
00000060: 8ad8 cf3e 97bc 163c c352 353f 62e9 1ebd
00000070: 0531 e53b 5b7d bebc af00 703e c72c 45bd
00000080: c42a b1bf 36a6 603f b01d 263d 007b b93d
00000090: 579d 90bd 84da 053b 67b9 90ba dea8 243d
000000a0: 80de 4ebf 99e2 9bbf 8541 b23f 90c9 f43e
000000b0: c8bc 243d 112c ed3c e92f 6b3f 23cd 343d
000000c0: deff 0f3f 5e2f fd3e e7b0 d43f 6ba7 2e3d
000000d0: 803d 50be 0682 813f 6e6a 03c0 b543 ce3d
000000e0: 4243 8ebd e529 253b c231 f1bf 4985 b2bf
000000f0: a4ca e03f 37a3 29bd 3de2 8f3e 9ea9 81bc
00000100: 4a69 14bf 9bd7 5d3e 194e 7fbf d4aa a7bf
00000110: 96e3 ccbc f8d8 9bbc 4a89 5ebd 5225 10c0
00000120: a682 9b3c 2184 c4bf bc35 903c 5465 863f
00000130: e756 12bd e36d 023e d148 9cbe d183 973c
00000140: e139 d0be 6061 683a 469e 71bd c4c7 0b3c
00000150: 31cb 8abc e143 22bf 5c39 e9bc c43a 89bf
00000160: 3007 093e 54c2 683c 3e21 2b3c 8a81 17bd
00000170: 0e4d 5d3c a081 223d ec75 9e3c ce82 183d
00000180: 9b29 633d 7047 b33f db57 ebbd 7dd4 b4bc
00000190: ee63 9a3c 743f d43f 08e7 dbba 619f 7e3c
000001a0: cd27 3340 1bd6 c0bc de40 62bf 3cc0 24bf
000001b0: 604e e9bb 6d3f 0bbf 07a4 50bf 66b7 e23c
000001c0: b925 613c 02d9 ff3e 4e25 8c3f 7e40 003c
000001d0: 282a ab3c 923c 1eba b9dd 72bd 05ca 323d
000001e0: cbf7 21bd e1c4 223d ba91 adbd 6bec f6bd
000001f0: dba3 89bb 163a 92be 8461 4d3d 9f93 bbbf
00000200: 2ceb 01c0 0aba 153d 97f6 bdbb 92d0 1ebb
00000210: 756e 013f b18d 5e3f 72c7 ce3c b652 27bf
00000220: 331a da3e f4dc 533d dfe9 883e 2e75 7a38
00000230: 275b 68bd 017d 66bc c3ce 28bc 8649 df3c
00000240: 0090 7c3d 2825 91bf ad14 413d a8d9 21bd
00000250: af97 af3c 5bde e5bc 7302 09bd 4d58 253d
00000260: bac6 d4be 332f cf3c 7950 41bd 0369 2d3d
00000270: 2057 ddbc 09b7 9dbf 967f 72bd 2d4e febd
00000280: 6be8 47bd 055e 5839 f017 cbbc 6790 32be
00000290: 9129 3a3f feaf e03f 92ab 3c3d 199b 3e3d
000002a0: d7d0 893f 3190 513d 18a8 67bd ab6a 3e3d
000002b0: c111 423d 684b 32c0 af47 cdbe 725d 6cbd
000002c0: 006f 15bf 9e78 afbe 8020 283d dd80 a7bc
000002d0: b664 943f de36 a73e 7452 dcbc e991 d5bc
000002e0: 668d ac3c 5825 b9bf 5e8d 7fbf af61 89bc
000002f0: d0a4 1d3e 0c0c a63a 4714 393d a5d7 71bc
00000300: 9f6d 38bb adf9 9e3d b718 7ebf 8e40 73bd
00000310: 26a6 393d a5c3 8abf d610 e93f ec80 883c
00000320: 1ecc 393f 07ae 613d 3e6c b63c 2761 75bd
00000330: 9b63 aa3c 439f 0fbd f0e5 40bd c1bc 41bd
00000340: e825 1340 2f99 72bc 8221 3abd 2487 0240
00000350: 0d44 db3c bcd0 183d 8649 713d fa01 d1bc
00000360: ae75 d0bf 20e7 eb3d 4c31 4fbd ead2 963c
00000370: e514 333c a95f afbe bd89 c93c cf04 82bf
00000380: 40b2 4a3d 43ad 38bf 6ce4 dd3c 9a5a 113d
00000390: a485 40bb 4b5d 553b 68fc 423f 0f29 043d
000003a0: 0f55 2dbf 1297 64bd 1695 a0bf 57eb 6b3e
000003b0: 22c9 07bc d174 8b3c 3822 ac3d 796a 2d3c
000003c0: 6e4e 903e 4ca6 e0bc 7ef6 553e 35a5 63bc
000003d0: 422d fb3e 0c00 713f edec 22bf 3258 233d
000003e0: adef 36bd 3f7c 0b3c 1c0a 23bc 6d7c e5bf
000003f0: f606 f93a 3abc 45bf 91ee 2abd f7ca ac3b

net.4.bias f4 [13]
-0.02868 -0.21517618 0.83078444 -0.25098178 -0.33593512 -0.14964382 0.40294623 0.038855318
-0.09828458 -0.03332011 0.15523967 0.18136391 -0.014998382
00000000: 52f2 eabc 2557 5cbe 4aae 543f af80 80be
00000010: b0ff abbe 3b3c 19be f84e ce3e c126 1f3d
00000020: 6d49 c9bd ab7a 08bd 26f7 1e3e 76b7 393e
00000030: c6bb 75bc

log_vars f4 [13]
-1.2037425 -1.2246244 -0.93355334 -1.1348561 -1.1281462 -1.0226251 -0.7955455 -2.1390972
-1.6461321 -1.4515564 -1.9025457 -1.9151139 -1.6292356
00000000: 3c14 9abf 7ec0 9cbf 5afd 6ebf f742 91bf
00000010: 1867 90bf 61e5 82bf dfa8 4bbf f8e6 08c0
00000020: 75b4 d2bf 9acc b9bf 9e86 f3bf 7422 f5bf
00000030: cb8a d0bf
