mixture_mlp.pt (torch, 587248 bytes, 7 tensors)

net.0.weight f4 [512, 21]
0	0x42b0e226	88.441696
1	0xc44dc101	-823.0157
2	0x4453c7d6	847.12244
3	0xc0bc7b3e	-5.890044
4	0xbe7f336b	-0.24921958
5	0xc35bf685	-219.96297
6	0x4444650d	785.5789
7	0xc39cad45	-313.35367
8	0xc0cbde5c	-6.3708935
9	0x3ca4d8ae	0.020122852
10	0xc2c87247	-100.2232
11	0x41dc9c7f	27.576414
12	0x441a81a5	618.0257
13	0xbe2c209b	-0.16809313
14	0xbee4fe10	-0.44725084
15	0x42142bc6	37.042747
16	0xc4054b7e	-533.17957
17	0xc38227b5	-260.3102
18	0x40d48a88	6.6419106
19	0xbd119540	-0.035542727
20	0xbaa000af	-0.0012207235
21	0xc2e0132d	-112.03745
22	0x423d80eb	47.375896
23	0x439011f9	288.1404
24	0x3f0b7b7b	0.5448529
25	0x3fc56d93	1.5424064
26	0x42b47306	90.224655
27	0xc05cfe6a	-3.4530282
28	0x41e9e008	29.23439
29	0xc10401e0	-8.250458
30	0x40c54e50	6.1658096
31	0xc2aae64b	-85.44979
32	0x4216cf73	37.702587
33	0x4388e9b6	273.82587
34	0xbfe52389	-1.790147
35	0x3f0fc02d	0.5615261
36	0xc2083d63	-34.059948
37	0xc271e5b4	-60.47432
38	0xc22bb0c9	-42.92264
39	0xbf252dfe	-0.64523304
40	0xbf76cbfa	-0.96404994
41	0x3e632a71	0.22184159
42	0x44e31cef	1816.9042
43	0xc4a66b09	-1331.3448
44	0x44372d86	732.7113
45	0xc1554555	-13.329427
46	0xc0319c5a	-2.775168
47	0xc291fa47	-72.98882
48	0xc3364937	-182.286
49	0xc3aadb89	-341.71512
50	0xc0465a82	-3.0992742
51	0x3ddd19f4	0.10795966
52	0x449ed475	1270.6393
53	0xc4997265	-1227.5748
54	0x4401998f	518.39935
55	0xbef07c6e	-0.46969932
56	0x3ea4fdca	0.32224876
57	0xc3b801b7	-368.0134
58	0xc37cc509	-252.76967
59	0xc3a30e38	-326.11108
60	0x404584d3	3.086232
61	0xbe976461	-0.2956877
62	0xbd960b20	-0.07326341
63	0x43dea0b3	445.25546
64	0x42d6897b	107.26852
65	0x43bb4c81	374.5977
66	0x40e26143	7.074373
67	0xc02e20a6	-2.7207427
68	0xc4347dee	-721.96765
69	0xc418a0f2	-610.5148
70	0xc3fbc7db	-503.56137
71	0x40cc9364	6.392992
72	0xc00adbbf	-2.1696622
73	0xc3ee71c8	-476.88892
74	0xc3be0f7f	-380.12106
75	0xc33bc812	-187.78152
76	0x3f5abeb9	0.8544727
77	0xbf57300f	-0.84057707
78	0xc2b07479	-88.227486
79	0x4397434e	302.52582
80	0x3fc7c524	1.5607038
81	0xc0dc8c1c	-6.892103
82	0x403511f1	2.82922
83	0x3b0c7a55	0.002143522
84	0x41750aca	15.315134
85	0x4135cbdd	11.362271
86	0xc1902bac	-18.021324
87	0xc0cac702	-6.336793
88	0x40900562	4.500657
89	0x436cc5cc	236.77264
90	0x42cd21ce	102.566025
91	0xc2b273ae	-89.22594
92	0xc01ccbd3	-2.4499404
93	0x3f30ca10	0.6905832
94	0x4368a98e	232.66232
95	0x42cba007	101.81255
96	0xc25e5bfd	-55.589832
97	0xc08fe54f	-4.496742
98	0xbf138290	-0.576211
99	0x420725f5	33.787067
100	0xc183f371	-16.493868
101	0xc2d95737	-108.67034
102	0xbea0f597	-0.3143737
103	0xbfb5e1b5	-1.4209505
104	0xbf146b6f	-0.5797643
105	0x3e0a3e44	0.13500315
106	0x3d989129	0.07449562
107	0x3df94aef	0.121724956
108	0x3d999328	0.07498771
109	0x3e526ecf	0.20550083
110	0x3e1f71c4	0.15570742
111	0xbd492e30	-0.049116313
112	0x3e1f5a01	0.15561678
113	0xbe02c770	-0.12771392
114	0x3b7ebaeb	0.0038868736
115	0x3e1861f6	0.14881119
116	0x3d8a66d2	0.06757893
117	0x3d7f5faf	0.06234711
118	0x3dd431c2	0.10361053
119	0x3c4eec1e	0.012629537
120	0x3e46d1c8	0.19415963
121	0xbdc1b792	-0.094588414
122	0xbd90182f	-0.07035863
123	0x3e39c492	0.18141392
124	0xbd936832	-0.07197608
125	0x3d2b9476	0.04188963
126	0xbcc12800	-0.023578644
127	0x3e20b541	0.15694143
128	0xbe13d6d0	-0.14437413
129	0xbd707f44	-0.05871512
130	0xbe321c7c	-0.17393678
131	0xbb98cae0	-0.0046628565
132	0x3d59cadc	0.053171977
133	0x3c43a2e0	0.011940688
134	0x3e2fb53b	0.17158978
135	0xbd0cac2c	-0.034343883
136	0x3d21203c	0.03933738
137	0xbe46100f	-0.19342063
138	0x3cff7398	0.03118305
139	0x3e3439ef	0.17600225
140	0x3d049ae4	0.032374278
141	0x3d0f228c	0.034945056
142	0x3dad71ea	0.08468993
143	0xbd531ba0	-0.051540017
144	0xbe0e39e5	-0.13889273
145	0x3d40b5fc	0.047048554
146	0x3cc652c0	0.02420938
147	0xc4d173a7	-1675.6141
148	0x44c52db4	1577.4282
149	0xc427ea3b	-671.65985
150	0x405093c1	3.2590182
151	0x4056c7dd	3.3559487
152	0x4285fff7	66.99993
153	0x438f38b4	286.443
154	0x4347161c	199.08636
155	0x409315e7	4.5964236
156	0x3ff27633	1.8942322
157	0xc49be27a	-1247.0774
158	0x44bd98db	1516.7767
159	0xc3fdc3b5	-507.52896
160	0xbfbd6996	-1.4797847
161	0xbf7da852	-0.9908496
162	0xc27d4e95	-63.32674
163	0x43c397c8	391.1858
164	0x43bf47db	382.56137
165	0xc07d4a3f	-3.9576566
166	0xc0163770	-2.3471336
167	0xbeb153c6	-0.34634227
168	0xc112866d	-9.157819
169	0x4077465d	3.8636696
170	0x40615163	3.5205925
171	0xbe97c717	-0.2964408
172	0x3ec8c369	0.39211586
173	0xc0d644a4	-6.695879
174	0xbfcbacf6	-1.5912158
175	0x40381c5e	2.8767314
176	0xbf0cda2d	-0.5502041
177	0x3ebf024e	0.37306446
178	0xc124c264	-10.297459
179	0x3fc665e9	1.549985
180	0x40974636	4.7273207
181	0xbf48919f	-0.783472
182	0x3f590f31	0.84788805
183	0xbf87b3ca	-1.0601742
184	0x3eb13e67	0.34617922
185	0x3e188885	0.14895828
186	0x3f649863	0.89295024
187	0xbf376312	-0.71635544
188	0xbd1504c9	-0.036381517
189	0xbdb00ada	-0.0859582
190	0x3dbf041a	0.09326954
191	0xbb940800	-0.0045175552
192	0x3dbd28f6	0.09236328
193	0x3e42ee55	0.19036229
194	0xbc05c9a0	-0.008165747
195	0x3d06ccfc	0.032910332
196	0x3c89a3d0	0.016801745
197	0xbe1a8140	-0.15088367
198	0xbe2f48f0	-0.17117667
199	0x3dfb6702	0.122755066
200	0xbe3c7a04	-0.1840592
201	0xbe3b0e4d	-0.18267174
202	0x3e157a97	0.14597546
203	0xbe4c01bf	-0.19922541
204	0xbe13981e	-0.14413497
205	0x3e39b30d	0.18134709
206	0x3d1dcef4	0.038527444
207	0xbe1d9a9d	-0.15391012
208	0xbdc12e26	-0.0943263
209	0xbd7c2940	-0.061562777
210	0xc3093b70	-137.23218
211	0x4401933e	518.30066
212	0xc0831b42	-4.0970774
213	0x3feea3ea	1.8643773
214	0xbf8329a3	-1.0247082
215	0xc393a5c5	-295.29507
216	0x43ea7b7c	468.96472
217	0xc45299c2	-842.40247
218	0xc1149618	-9.286644
219	0x40060a5b	2.094382
220	0xc3bb8aa9	-375.08328
221	0x442ee5ad	699.5887
222	0xc407c798	-543.11865
223	0xc0613691	-3.5189555
224	0x3f7197ee	0.9437245
225	0xc2e8cc40	-116.398926
226	0xc3678cb2	-231.54959
227	0xc372cfce	-242.81174
228	0xbd19f137	-0.037583556
229	0xbf05e47b	-0.5230176
230	0xbdbc4408	-0.091926634
231	0x43e90af5	466.0856
232	0x444a7dd6	809.9662
233	0x443bade9	750.71735
234	0xc0c1cc87	-6.0562167
235	0x404137cc	3.0190306
236	0x4383446a	262.5345
237	0x44515f4b	837.48895
238	0x439c13bf	312.15427
239	0xc0c3f3d3	-6.1235137
240	0x403a6182	2.9122014
241	0x44260e26	664.22107
242	0x44a6c203	1334.0629
243	0x44581a27	864.4086
244	0xbed022dd	-0.406516
245	0x3e4afc9b	0.19822924
246	0xc2391006	-46.265648
247	0xc38039f0	-256.45264
248	0xc3b7cba6	-367.591
249	0x40cc4e04	6.3845234
250	0xc0577908	-3.3667622
251	0xbe42cd6b	-0.19023673
252	0x42534074	52.812943
253	0xc1065140	-8.394836
254	0xc200fd99	-32.247654
255	0xbfd46405	-1.6593024

net.0.bias f4 [512]
0	0x3f2ee48d	0.6831749
1	0x3f166262	0.5874387
2	0x3f161dc1	0.5863915
3	0xbf915d24	-1.1356549
4	0x3f644abe	0.8917655
5	0xbdd50cc3	-0.10402825
6	0xbdb4c6f2	-0.08827008
7	0xbf1b3eeb	-0.6064288
8	0x3dd48627	0.1037715
9	0xbe17c968	-0.14822924
10	0x3f6d1d34	0.92622685
11	0x3f719adb	0.94376916
12	0xbd98b37b	-0.07456108
13	0xbe5d8389	-0.21632208
14	0x3f93926b	1.1529058
15	0xbdb65846	-0.089035556
16	0xbf0660e7	-0.5249161
17	0xbf01a3e8	-0.50640726
18	0xbf56149a	-0.83625185
19	0xbf16b325	-0.588671
20	0x3e743f1d	0.23852201
21	0xbe4e8456	-0.2016767
22	0xbeede950	-0.46467066
23	0x3a750100	0.00093461573
24	0x3a8ab380	0.001058206
25	0x3f49819b	0.7871339
26	0xbe54b18c	-0.20770854
27	0xbe06926d	-0.13141795
28	0xba665953	-0.0008787114
29	0xbe5b8ffb	-0.21441643
30	0xbddc309f	-0.10751461
31	0x3f1d37ae	0.61413085
32	0x3f1cb350	0.6121111
33	0xbd51a6cc	-0.05118446
34	0xbda15a00	-0.07878494
35	0x3caf76e2	0.021418992
36	0xbf31942e	-0.6936673
37	0xbf813721	-1.0094949
38	0x3d9d1de2	0.07671715
39	0xbff2c21e	-1.896549
40	0xbe50c6d9	-0.20388354
41	0xbf85bafb	-1.0447687
42	0xbe80c856	-0.25152844
43	0x3f64fef5	0.89451534
44	0xbe3b311a	-0.1828045
45	0xbf93d66c	-1.1549811
46	0x3f7e56d0	0.99351215
47	0x3f70ce51	0.94064814
48	0xbf6a7ff1	-0.91601473
49	0xbe05a17a	-0.1304988
50	0x3f9e1fe1	1.2353479
51	0xbe0ae60a	-0.13564315
52	0xbe34c282	-0.17652324
53	0xbe1af9c8	-0.15134346
54	0x3f8c337d	1.0953213
55	0xbe60522b	-0.21906345
56	0xbf45e49d	-0.7730196
57	0xbfa89c3c	-1.3172679
58	0xbf450f9c	-0.76976943
59	0x3c34d890	0.011037961
60	0xbe0913e2	-0.13386491
61	0xbe43c32c	-0.19117421
62	0xbd07091d	-0.032967675
63	0xbf990085	-1.1953284
64	0x3f037dea	0.51364005
65	0xbfb1d606	-1.389344
66	0x3f995d3b	1.1981577
67	0xbd8c4cda	-0.06850596
68	0x3e409aaa	0.18809
69	0xbda8e3e3	-0.08246591
70	0xbf05b2a6	-0.5222572
71	0xbd8c7d09	-0.06859786
72	0xbd23ba09	-0.03997234
73	0xbd15e084	-0.036591068
74	0x3ef86575	0.48514906
75	0xbe10316e	-0.14081356
76	0xbecbd999	-0.3981445
77	0xbd967008	-0.07345587
78	0x3f1fc788	0.62413836
79	0xbde2e4ae	-0.110787734
80	0x3f45ed7c	0.773155
81	0x3f566efd	0.83763105
82	0x3f84ff41	1.0390397
83	0x3fb27dd5	1.3944651
84	0xbd9858f8	-0.074388444
85	0xbde86199	-0.1134674
86	0x3f850ec3	1.039513
87	0x3f17d2cd	0.5930603
88	0x3f8df696	1.1090877
89	0x3fa17fdb	1.2617143
90	0xbc740e30	-0.014895961
91	0x3f4ef9b9	0.80849797
92	0xbf4bce4f	-0.79611677
93	0xbfd4c35d	-1.662212
94	0x3f0b77e2	0.544798
95	0x3df2d320	0.11856675
96	0xbfbb42ec	-1.4629798
97	0xbf9e4189	-1.236375
98	0xbdf83ec7	-0.12121349
99	0xbdbd9b70	-0.09258163
100	0xbe5afbc5	-0.21385105
101	0xbf925fc1	-1.1435472
102	0xbe9fd3ba	-0.31216222
103	0xbf08f771	-0.53502566
104	0xbf33216d	-0.6997288
105	0xbf988ee4	-1.1918607
106	0x3f55498b	0.8331534
107	0xbe0dfdd2	-0.13866356
108	0x3f624bc6	0.8839687
109	0xbe3bc196	-0.18335566
110	0xbe21a236	-0.15784535
111	0xbe2aa366	-0.16663894
112	0x3ebfb9bb	0.3744639
113	0xbe03894f	-0.12845348
114	0xbfaca8f5	-1.3489062
115	0x3e4e12c8	0.20124352
116	0xbe39e6aa	-0.18154398
117	0xbdf6f555	-0.12058512
118	0xbfb2e3ef	-1.397581
119	0xbd1c4f66	-0.038161658
120	0x3f1cd2ba	0.61259043
121	0xbd5b22f8	-0.053500146
122	0x3ed0d890	0.40790224
123	0xbe48305f	-0.19549702
124	0xbf4957d5	-0.78649646
125	0x3fb75ef7	1.4325856
126	0xbe94acb7	-0.2903802
127	0xbecdbcf9	-0.40183237
128	0xbdd45383	-0.10367491
129	0xbeba6c24	-0.3641063
130	0xbe4d60fa	-0.20056525
131	0xbf434562	-0.76277745
132	0xbfbc0369	-1.4688541
133	0xbe9f70bd	-0.311407
134	0x3ee50d9e	0.44736952
135	0xbe2665da	-0.16249791
136	0xbd387438	-0.04503271
137	0xbde6bd08	-0.112665236
138	0xbdf4f27e	-0.11960314
139	0xbdc45bf7	-0.095878534
140	0xbeac9d7d	-0.33713904
141	0xbe4b8f47	-0.19878875
142	0x3d6eee91	0.058332983
143	0xbe3e9e3f	-0.18615054
144	0x3dcabdc7	0.098994784
145	0xbf857b47	-1.0428246
146	0xbe5056ad	-0.20345564
147	0xbd0aba78	-0.033869237
148	0xbf6b7a65	-0.91983634
149	0x3f895e70	1.0731945
150	0xbf0a77be	-0.5408896
151	0x3f998469	1.1993533
152	0x3e0db081	0.13836862
153	0x3e3e8dc8	0.18608773
154	0x3f711a95	0.94181186
155	0x3f4d1897	0.80115646
156	0xbfb43817	-1.4079617
157	0xbe1bba60	-0.15207815
158	0xbf92a28e	-1.1455858
159	0xbe3fd285	-0.1873265
160	0x3f8327f2	1.0246565
161	0xbe09abe2	-0.13444474
162	0xbe2a106a	-0.16607824
163	0xbebf7e7e	-0.37401193
164	0xbfaf4a62	-1.3694575
165	0xbd9a7dac	-0.07543501
166	0xbd8b5fd0	-0.06805384
167	0xbf62150a	-0.88313353
168	0x3f171adf	0.5902538
169	0xbe1a599c	-0.15073246
170	0xbe45fddd	-0.19335122
171	0x3ee77d70	0.4521289
172	0xbf38587e	-0.7201003
173	0xbfa975cc	-1.3239074
174	0xbeebbf5c	-0.46044433
175	0xbd4b1db1	-0.049588863
176	0xbfa890ff	-1.3169249
177	0xbdedda25	-0.116138734
178	0xbf414cbf	-0.7550773
179	0xbdfc8844	-0.12330678
180	0xbe182a0c	-0.1485979
181	0xbe010ac2	-0.1260176
182	0xbe3ef222	-0.18647054
183	0xbd92e2f0	-0.07172191
184	0xbdf8d17a	-0.121493295
185	0xbd9f2240	-0.077702045
186	0x3f46f16d	0.77712137
187	0x3e8262ed	0.254661
188	0x3eec5456	0.46158093
189	0x3f89585c	1.073009
190	0x3f8d2a5f	1.1028556
191	0x3f99a770	1.2004223
192	0x3e680aa5	0.2266031
193	0xbfbe846f	-1.4884166
194	0x3f5d558f	0.8645868
195	0xbf81e4e5	-1.0147978
196	0xbe3a71d5	-0.18207486
197	0xbe5d77c4	-0.21627718
198	0xbd9a4312	-0.07532324
199	0xbe1079eb	-0.14109008
200	0x3c6191f8	0.013767712
201	0x3f295ce7	0.6615738
202	0xbe7e3a82	-0.24827006
203	0x3f144b32	0.5792724
204	0xbf2f0c28	-0.68377924
205	0x3db9d42f	0.09073674
206	0x3f691092	0.9104091
207	0x3f1ae7f7	0.605102
208	0xbe33d7f2	-0.17562845
209	0xbe046663	-0.12929682
210	0x3f7c829b	0.9863679
211	0xbe574b8f	-0.21024917
212	0xbed5b143	-0.41736802
213	0xbd912d36	-0.070887014
214	0xbf3cec16	-0.7379774
215	0xbfc3768a	-1.527055
216	0xbf424584	-0.7588732
217	0xbdbedfb8	-0.09320015
218	0x3da5e773	0.08100786
219	0x3ea5d111	0.32386068
220	0xbd8c2ce6	-0.06844501
221	0xbf4af961	-0.7928677
222	0x3c9746c0	0.018466353
223	0xbdc3762b	-0.09544023
224	0xbe3b1b68	-0.18272173
225	0xbdda6294	-0.106633335
226	0x3edced2b	0.43149695
227	0xbe3f66f9	-0.18691625
228	0x3f263eeb	0.64939755
229	0xbde15b74	-0.110037714
230	0x3f35cae3	0.71012706
231	0xbe38cb56	-0.18046317
232	0xbd9e4dd7	-0.077296905
233	0x3f4e1549	0.8050123
234	0xbe1d5fd8	-0.15368593
235	0xbda1c9c2	-0.078998104
236	0x3f591d77	0.84810585
237	0xbf152acf	-0.58268446
238	0xbdbe860c	-0.09302911
239	0x3ed4443a	0.41458303
240	0x3e1685a6	0.1469942
241	0xbb8fbf60	-0.0043868273
242	0x3f160851	0.5860644
243	0xbe2c3d3e	-0.16820237
244	0xbe219aea	-0.15781751
245	0x3f568e67	0.8381104
246	0xbddf0494	-0.10889545
247	0x3f3fc4c6	0.7490963
248	0xbd98d7f4	-0.07463065
249	0xbde50d2b	-0.11184152
250	0x3d61f696	0.055166803
251	0xbcc4e62a	-0.024035532
252	0xbf13592b	-0.57557935
253	0xbe3acc97	-0.18242107
254	0xbfcddfe2	-1.6083949
255	0x3fa82027	1.3134812

net.2.weight f4 [256, 512]
0	0xbc84ff45	-0.016235003
1	0xbd6b6350	-0.05746776
2	0xbd1f6e30	-0.038923442
3	0xbc19f80e	-0.00939752
4	0xbd9b55c0	-0.07584715
5	0x3d18f525	0.037343163
6	0x3d2f5887	0.042809036
7	0xbd90609c	-0.07049677
8	0xbd6073cd	-0.054797936
9	0x3cd73952	0.02627245
10	0xbd14062c	-0.0361387
11	0xba0f8f17	-0.0005476339
12	0x3d0a90a5	0.03382935
13	0xbc0e2a5c	-0.008677091
14	0xbd284933	-0.041085433
15	0xbc9498b8	-0.018139228
16	0x3ba4eae9	0.0050328863
17	0x3baf7a00	0.0053551197
18	0xbd9e3426	-0.0772479
19	0xbcf6d258	-0.030129597
20	0xbd918aeb	-0.071065746
21	0xbd167e78	-0.036741704
22	0xbc7c7657	-0.015409074
23	0xbc517e4c	-0.012786459
24	0x3d1cbff1	0.038268987
25	0x3c0ed4b0	0.008717701
26	0x3c31fa78	0.010862939
27	0xbd5c846a	-0.053837217
28	0xbca076a7	-0.019587828
29	0x3c440fec	0.011966687
30	0xbd877cee	-0.06615625
31	0xbd651322	-0.05592645
32	0xbd15aa44	-0.03653933
33	0xbd2f7cc8	-0.04284361
34	0xbd210f3e	-0.039321177
35	0x3ae44c0e	0.0017417686
36	0xbca04e77	-0.019568665
37	0xbd4cd764	-0.0500101
38	0xbd69f99f	-0.057122823
39	0xbd949430	-0.07254827
40	0xbcf8a7e8	-0.030353501
41	0xbd790662	-0.060797103
42	0xbd89d82a	-0.06730683
43	0xbaa529c3	-0.0012600947
44	0xbc1dc930	-0.009630486
45	0xbd8d1ceb	-0.06890281
46	0xbd5cc81e	-0.053901784
47	0x3d22a755	0.03971036
48	0xbd6b428d	-0.057436515
49	0xbc5420f0	-0.012947306
50	0xbd8c29f3	-0.06843939
51	0x3d136c3f	0.035991903
52	0x3cf83a7e	0.030301329
53	0x3c3f0224	0.011658225
54	0xbd13490e	-0.035958342
55	0xbd7dc1ba	-0.06195233
56	0xbd9a2898	-0.07527274
57	0x3ca98a32	0.02069578
58	0xbd638c28	-0.055553585
59	0xbd097de3	-0.03356732
60	0x3b698af0	0.0035635792
61	0x3b27ffa0	0.0025634542
62	0xbd845b41	-0.06462718
63	0xbd24fbd7	-0.040279236
64	0xbd23e1fa	-0.04001043
65	0xbbf5bfc0	-0.007499665
66	0xbd527f1e	-0.05139076
67	0xbc9ac7f4	-0.018894173
68	0x3c155dcc	0.009116601
69	0x3c9efcea	0.019407708
70	0xbd8353f2	-0.06412496
71	0x3cd00e32	0.025397394
72	0x3cc50bf2	0.024053548
73	0xbd12c37d	-0.035830963
74	0xbd0dff57	-0.03466734
75	0xbd0af793	-0.03392751
76	0xbd184095	-0.037170965
77	0xbd31afbb	-0.04338048
78	0xbcb87388	-0.022516027
79	0x3c29d910	0.010366693
80	0xbd1ab7a1	-0.03777278
81	0xbd9ca8c7	-0.07649379
82	0xbadc5ee8	-0.0016812952
83	0xbca409cf	-0.020024208
84	0x3ca6dd12	0.020369086
85	0x3c462404	0.012093548
86	0xbd8abaec	-0.06773934
87	0xbc7bc6ce	-0.015367223
88	0xbd0ef6b2	-0.034903236
89	0xbd345aad	-0.044031788
90	0xbc9076bc	-0.017634742
91	0xbd7f629c	-0.0623499
92	0xbd9436fb	-0.07237049
93	0xbd4784d9	-0.048710678
94	0xbd9f8096	-0.07788198
95	0xbd806c54	-0.06270662
96	0xbd15a2e7	-0.03653231
97	0xbc0351e7	-0.0080151325
98	0xbd02a87e	-0.031898968
99	0x3ae6b5db	0.0017601805
100	0xbd50753a	-0.050893046
101	0xbc9c3c9d	-0.019071871
102	0xbd81d1e6	-0.06338863
103	0xbd804f54	-0.06265131
104	0xbd92b33b	-0.07163092
105	0xbd5d07b6	-0.05396243
106	0x3b92d0c0	0.0044804513
107	0xbc678be6	-0.0141324755
108	0xbd7c45aa	-0.061589874
109	0xbd958063	-0.072998784
110	0x3cd8b68e	0.026454236
111	0xbce48029	-0.027893143
112	0xbd973677	-0.07383435
113	0xbd292c7f	-0.0413022
114	0xbcb5ba05	-0.022183428
115	0xbd31f790	-0.043448985
116	0x3ca815b2	0.020518158
117	0xbb01a4ef	-0.0019782146
118	0xbd5d8efb	-0.054091435
119	0x3c1f31d3	0.009716469
120	0xbd31e8ff	-0.043435093
121	0xbd226f3a	-0.039656855
122	0xbd888c29	-0.066673584
123	0xb9829280	-0.00024904683
124	0xbd9a2366	-0.07526283
125	0xbb40cc57	-0.002941867
126	0x3d0fef95	0.035140593
127	0xbd56da77	-0.052454438
128	0x3d0476d1	0.032339875
129	0x3b07f5d6	0.0020745895
130	0x3c7be44c	0.015374254
131	0x3c7b74df	0.015347688
132	0xbc8739f5	-0.016507128
133	0xbcb3e062	-0.02195758
134	0xbd64d529	-0.055867348
135	0xbcffad5f	-0.0312106
136	0xbc836f99	-0.016044425
137	0xbc7c469a	-0.015397692
138	0x3d1a0355	0.037600834
139	0xbd3459c8	-0.044030935
140	0xbd627781	-0.05528975
141	0xbba5e7f8	-0.005063053
142	0xbd882f35	-0.06649629
143	0xbd1092de	-0.035296313
144	0x3bbda281	0.0057871942
145	0xbd26e819	-0.04074869
146	0x3c300b18	0.010744832
147	0x3cc11242	0.023568276
148	0xbb077114	-0.0020666765
149	0xbd19f49b	-0.03758679
150	0xbbadbb45	-0.0053018653
151	0xbbd6a0af	-0.0065499167
152	0xb985094f	-0.00025374672
153	0x3bd2c750	0.0064324513
154	0xbd8e84df	-0.06958937
155	0xbd571ea0	-0.05251944
156	0xbc742a6d	-0.014902693
157	0x3be421c0	0.006962031
158	0x3d173593	0.036916327
159	0xbb9fd738	-0.004877951
160	0xbd1b7505	-0.037953395
161	0x3bedf2b0	0.0072615966
162	0x3d010b1f	0.031504747
163	0xbc18bbac	-0.009322088
164	0xbcb75135	-0.02237759
165	0xbc90b3f5	-0.017663935
166	0x3c2bb870	0.010480985
167	0xbd979b9f	-0.07402729
168	0xbce3949b	-0.027780822
169	0x3b9cbd28	0.0047832914
170	0xbcaa5b9b	-0.020795634
171	0xbd21ca50	-0.03949958
172	0xbcd784a2	-0.026308361
173	0xbd483fb0	-0.048888862
174	0xbd0a2445	-0.033725996
175	0xbd6ccbc5	-0.057811517
176	0x3be1f1f4	0.006895298
177	0xbcca9b1f	-0.02473217
178	0x3b9610a4	0.0045796204
179	0xbc8acc37	-0.01694308
180	0x3c6f16b4	0.014592815
181	0x3c768494	0.0150462575
182	0xbc97c387	-0.018525852
183	0x3ce28326	0.027650427
184	0xbc475764	-0.012166832
185	0xbcf1541b	-0.02945905
186	0xbcdfae77	-0.027304871
187	0xbd98c009	-0.07458503
188	0x3b6dd041	0.003628746
189	0xbd1032c2	-0.035204656
190	0xbd3c82c1	-0.046023134
191	0xbc00047f	-0.007813572
192	0xbd85fb6b	-0.06542095
193	0xbd218d82	-0.039441593
194	0xbd290bd7	-0.041271057
195	0xbd8c065d	-0.06837151
196	0x3ce1f452	0.027582321
197	0x3bd8b6d8	0.0066135935
198	0xbc8c2074	-0.017105319
199	0xbd53188c	-0.05153708
200	0x3b64c24d	0.0034905851
201	0xbd97feda	-0.07421656
202	0xbceefc37	-0.029173
203	0xbc486633	-0.012231397
204	0xbc1f2b55	-0.009714921
205	0xbd5e88f0	-0.054329813
206	0xbc69b0bd	-0.014263329
207	0x3d248d29	0.040173683
208	0x3cbe0a5a	0.023198295
209	0x3c8b92a6	0.0170377
210	0xbd911e39	-0.07085843
211	0xbc6d0622	-0.014466794
212	0xbd8c1b9e	-0.06841205
213	0xb86a9000	-5.5924058e-05
214	0xbc956a69	-0.018239217
215	0xbba3a0bf	-0.0049935277
216	0xbd0f1459	-0.034931514
217	0xbd2cffaf	-0.042236026
218	0xbd46bdb3	-0.048520755
219	0xbbbb84d6	-0.0057226224
220	0xbd0e4d28	-0.03474155
221	0xbcb9e079	-0.022690045
222	0x3d28c61f	0.041204568
223	0xbbc41c18	-0.0059847943
224	0xbce1530d	-0.027505422
225	0xbca2e545	-0.019884715
226	0xbcd79120	-0.026314318
227	0xbd1a3c56	-0.037655197
228	0xbce05616	-0.027384799
229	0xbb6c6860	-0.0036072955
230	0xbd104050	-0.035217583
231	0x3d114843	0.035469305
232	0xbd850afa	-0.06496234
233	0xbcc20ace	-0.023686793
234	0x3caf3a2e	0.021390047
235	0x3cd30b1e	0.025762137
236	0xbd71b121	-0.059006814
237	0xbca1db31	-0.019757839
238	0xbd257d60	-0.04040277
239	0xbd4b710a	-0.04966835
240	0xbd113012	-0.035446234
241	0xbaa9fde0	-0.0012969337
242	0x3c7fcfab	0.015613477
243	0xbb118730	-0.0022205822
244	0xbd1617fd	-0.03664397
245	0xbd9687ad	-0.07350097
246	0xbc6c20b9	-0.014412099
247	0x3a97f821	0.0011594334
248	0x3ae809c0	0.0017703101
249	0xba5140c0	-0.0007982366
250	0x3b0d9e8f	0.00216094
251	0x3c0bf9d7	0.008543453
252	0xbcf45319	-0.02982478
253	0x3a7d8180	0.0009670481
254	0x3c030022	0.007995637
255	0xbc76a869	-0.015054801

net.2.bias f4 [256]
0	0xbd6e40c7	-0.058167245
1	0x3c135b38	0.008993916
2	0xbd3cbe8d	-0.04608016
3	0xbf88e8f1	-1.0696088
4	0xbd63636a	-0.05551473
5	0xbd3146da	-0.04328046
6	0xc0259f03	-2.5878303
7	0x3f6beead	0.92161065
8	0xbd63c613	-0.05560882
9	0xbd806552	-0.06269325
10	0xbf13599a	-0.57558596
11	0xbd5e8f30	-0.054335773
12	0x3e347dd2	0.17626122
13	0xbd7d7497	-0.061878767
14	0xbd788928	-0.060677677
15	0xbd1c9cec	-0.03823559
16	0xbc56967c	-0.013097402
17	0xbe998cb4	-0.2999016
18	0x3eded81f	0.43524262
19	0xbe5edf8b	-0.21764962
20	0xbe89b98b	-0.2689937
21	0xbd4a6c1e	-0.049419515
22	0xbd42f1db	-0.047593933
23	0xbffe712c	-1.9878287
24	0x3ea97483	0.33096704
25	0xbe702dcc	-0.2345497
26	0x3f2a5b18	0.6654525
27	0xbd376653	-0.04477532
28	0xbd6874e2	-0.056752093
29	0xbd84ea23	-0.064899705
30	0xbf581a79	-0.84415394
31	0xbca41dbc	-0.02003371
32	0xbfea010d	-1.8281571
33	0xbd2a8634	-0.041631892
34	0xbd478d02	-0.04871846
35	0xbcaf6030	-0.02140817
36	0xbd9345a9	-0.07191021
37	0xbd3a535b	-0.04548965
38	0xbbd720dd	-0.006565197
39	0xbde59025	-0.11209134
40	0x3fb372a6	1.4019363
41	0x3f6cf3be	0.9255942
42	0x3eb77bf2	0.3583675
43	0x3c915b6c	0.017743789
44	0xbe1d94b8	-0.15388763
45	0xbe69c5a0	-0.22829294
46	0x3f16a4c3	0.58845156
47	0xbce4d8fa	-0.027935494
48	0x3f0712c4	0.5276301
49	0xbe4f0d63	-0.2021995
50	0xbfa75ee0	-1.3075829
51	0xbd7cab84	-0.061687008
52	0xbf615c63	-0.88031596
53	0x3faf4d45	1.3695456
54	0xbfac89fd	-1.3479611
55	0xbf3b313e	-0.7312201
56	0xbd749c48	-0.059719354
57	0x3ab6f67c	0.0013958956
58	0xbf756f65	-0.958731
59	0x3dda637b	0.10663506
60	0x3ee3836c	0.44436204
61	0xbc969342	-0.018380765
62	0xbfccb76c	-1.5993476
63	0xbd6342ce	-0.05548363
64	0xbea29fe5	-0.31762615
65	0x3f43eb65	0.7653106
66	0xbd69e481	-0.057102684
67	0xbc325b57	-0.010886035
68	0xbc922ba8	-0.017843083
69	0xbe041890	-0.12899995
70	0x3bb34253	0.005470553
71	0x3e82f62b	0.25578436
72	0xbbe14343	-0.0068744733
73	0xbf383b92	-0.719659
74	0xbd723257	-0.05913004
75	0xbfac7d67	-1.347577
76	0xbcb9dac7	-0.022687329
77	0x3f55a076	0.8344797
78	0x3f3a89d0	0.72866535
79	0xbd440166	-0.047852896
80	0x3fb26dfc	1.3939815
81	0xbd79d478	-0.06099364
82	0xbd4a97f0	-0.049461305
83	0xbe429bdd	-0.1900477
84	0xbd49fc54	-0.049312904
85	0x3f440f87	0.7658619
86	0xbd336a05	-0.04380228
87	0x3f634edc	0.88792205
88	0x3f1ac8bd	0.6046255
89	0xbd7c4fda	-0.06159959
90	0xbd21c8e5	-0.03949823
91	0xbd2d4466	-0.042301558
92	0xbc887251	-0.016656073
93	0xbd36b158	-0.044602722
94	0xbd867b53	-0.06566491
95	0xbb88bd53	-0.00417296
96	0xbd55d8a2	-0.05220855
97	0x3f2f1cb5	0.6840318
98	0xbeec4600	-0.46147156
99	0xbc10ddf8	-0.008841984
100	0xbd63396e	-0.05547469
101	0xbf8cf7f7	-1.1013173
102	0xbe0e2100	-0.13879776
103	0xbd806dd8	-0.06270951
104	0xbfbd3b15	-1.4783655
105	0xbd5951c1	-0.053056482
106	0xbfc8ab42	-1.5677264
107	0x3dabb473	0.08384027
108	0xba841586	-0.0010077215
109	0xc02bbe55	-2.683492
110	0xbfac7cfc	-1.3475642
111	0x3e0f98c0	0.14023113
112	0xbc1341d0	-0.008987859
113	0xbeaf92f6	-0.3429181
114	0xbfcf0846	-1.61744
115	0x3ba42f20	0.0050105006
116	0xba9c45b0	-0.0011922624
117	0xbc1b4a2f	-0.009478136
118	0xbc88bec9	-0.016692536
119	0xbd485739	-0.048911307
120	0xbdc578bb	-0.09642168
121	0xbc87c914	-0.016575374
122	0xbc5a0879	-0.013307684
123	0x3d7276ab	0.0591952
124	0xbe3456b1	-0.17611195
125	0x3dcacd58	0.099024475
126	0xbd248b32	-0.04017181
127	0xbf4e88f7	-0.8067774
128	0xbf2841ac	-0.6572521
129	0xbe3568b8	-0.17715728
130	0xbcd082c8	-0.025452986
131	0xbca611a2	-0.02027208
132	0x3f58ee55	0.84738666
133	0x3f0a692e	0.5406674
134	0xbe0662af	-0.13123582
135	0x3f3aade9	0.72921616
136	0xbff54637	-1.9162053
137	0xbd4f8200	-0.050661087
138	0x3f453337	0.7703127
139	0xbd5cb6fa	-0.053885438
140	0xbdea5fc9	-0.11444051
141	0xbc199904	-0.009374861
142	0xbe6aaf1e	-0.22918364
143	0x3e2b50e5	0.16730078
144	0xbe53278e	-0.20620558
145	0xbf1bc1d8	-0.6084266
146	0xbd6878d4	-0.056755856
147	0xbd6fe414	-0.05856712
148	0xbdb051b3	-0.08609333
149	0xbce2556e	-0.027628627
150	0xbd2aa674	-0.04166265
151	0xbb80d8fa	-0.0039321156
152	0xbf7d3fbf	-0.98925394
153	0xbd29213a	-0.041291453
154	0xbd34bf35	-0.04412766
155	0xbd343e76	-0.04400488
156	0xbc142521	-0.009042055
157	0xbe637007	-0.22210704
158	0x3e52a5b1	0.20571019
159	0xbda65cf2	-0.08123197
160	0x3f2db6d5	0.67857105
161	0xbd4b307c	-0.049606785
162	0xbd885d09	-0.0665837
163	0xbdf81bfd	-0.12114713
164	0xbeacbcd6	-0.3373782
165	0xbed7bca2	-0.42136103
166	0xbd0d3a3f	-0.034479376
167	0xbd35241d	-0.044223893
168	0x3f7962c9	0.9741636
169	0xbd7fc570	-0.06244415
170	0x3ecea990	0.4036374
171	0xbbed2ce6	-0.0072380183
172	0xbc5fe4dd	-0.013665405
173	0xbf438f5a	-0.7639061
174	0x3f4d1dc3	0.8012354
175	0xbb1fb7c3	-0.0024371005
176	0xbed593ce	-0.4171433
177	0x3d25d508	0.040486366
178	0xbd0b3d04	-0.033993736
179	0xbd7663d9	-0.060153816
180	0xc00b1831	-2.1733515
181	0xbe31a93e	-0.17349717
182	0xbcba5741	-0.022746684
183	0xbd72abeb	-0.059245985
184	0xbdd50902	-0.10402109
185	0xbfa8c8d5	-1.3186289
186	0x3f7540bc	0.958019
187	0xbd613906	-0.054986022
188	0x3ea08440	0.313509
189	0xbd84f696	-0.06492345
190	0xbd8b0b87	-0.06789308
191	0xbd064777	-0.032782998
192	0xbd395d83	-0.045255195
193	0x3eb5d425	0.35513416
194	0xbf3bdb55	-0.7338155
195	0xbd27fa5a	-0.04101024
196	0xbc008237	-0.007843546
197	0xc0264a0f	-2.5982702
198	0xbeb796a4	-0.35857117
199	0xbd2682b0	-0.040651977
200	0xbfd4b4c3	-1.6617664
201	0xbd428e79	-0.047499154
202	0xbd7a8571	-0.061162416
203	0xc00e54ef	-2.223934
204	0xbe1d0943	-0.15335564
205	0xbd3279b7	-0.043573108
206	0xbcc8b944	-0.024502404
207	0xbcbfe0db	-0.02342265
208	0x3f06b23b	0.5261571
209	0xbe5c85f7	-0.21535479
210	0xbcb3c468	-0.02194424
211	0xbf99b979	-1.2009727
212	0xbce85d3c	-0.02836477
213	0xbd528d2b	-0.05140416
214	0xbd35f86c	-0.044426367
215	0xbd8d0e34	-0.06887475
216	0xbfa984fb	-1.3243707
217	0xbf57f8a7	-0.8436379
218	0xbd6b2c22	-0.057415135
219	0xbbd34c11	-0.006448277
220	0xbc16366f	-0.009168251
221	0x3fa5e0ed	1.2959267
222	0xbe31417c	-0.17310137
223	0xbea8a5ee	-0.32939094
224	0xbcff8e71	-0.031195851
225	0xbf91ca07	-1.1389779
226	0xbd5baa4d	-0.05362921
227	0xbe6289a7	-0.22122823
228	0xbd442c07	-0.04789355
229	0xbd7cfa69	-0.061762247
230	0xbe31783a	-0.17331019
231	0xbbb07d79	-0.0053860513
232	0x3f4b14b1	0.7932845
233	0xbd2316cb	-0.03981666
234	0xc00388f6	-2.0552344
235	0xbf1ab527	-0.60432667
236	0xbe384f63	-0.17999034
237	0xbe2c8f30	-0.16851497
238	0xbc96dcc2	-0.018415812
239	0xbe319b8e	-0.17344496
240	0xc02645ee	-2.5980182
241	0xbcae297c	-0.021260016
242	0x3e81442a	0.25247318
243	0xbd400be7	-0.04688635
244	0x3f1a98e1	0.60389525
245	0x3ef965a3	0.48710355
246	0xbdcb7db2	-0.09936084
247	0xbd726e83	-0.059187423
248	0xbd2cd787	-0.04219773
249	0xbc68f8c9	-0.014219471
250	0xbda99064	-0.082794935
251	0xc0056928	-2.0845432
252	0xbd08dbd5	-0.033412773
253	0xbe74b799	-0.23898162
254	0xbd77529b	-0.060381513
255	0xbd5c5cd0	-0.05379945

net.4.weight f4 [13, 256]
0	0x3c3f8702	0.011689903
1	0x3da009e7	0.07814389
2	0x3d7be943	0.061501753
3	0x401b7cef	2.4295003
4	0xbd31486d	-0.04328196
5	0xbc000710	-0.007814184
6	0x3f8446ac	1.0334067
7	0xbf122961	-0.5709439
8	0x3d170410	0.03686911
9	0x3c95578f	0.018230228
10	0x3e234abc	0.15946478
11	0x3d183065	0.037155528
12	0xbdf438c5	-0.119248904
13	0xbc5594fc	-0.013036009
14	0xbb6ce0f5	-0.0036144827
15	0xbbb36e5a	-0.0054758014
16	0xbd7a0f46	-0.061049722
17	0xbee1dc77	-0.44113514
18	0x3d9c9dae	0.076472625
19	0xbdfdc688	-0.123913825
20	0x3f12be1f	0.5732135
21	0xbd0bbca6	-0.034115456
22	0xbd210312	-0.03930957
23	0xbcce9d07	-0.02522136
24	0x3e0dacd2	0.13835457
25	0xbdbcac21	-0.092125185
26	0xbc42fc5d	-0.011900988
27	0xbd1ee962	-0.03879679
28	0x3be53105	0.006994369
29	0xbcbe7d5b	-0.023253134
30	0x3b434a5c	0.002979896
31	0xbd452cc7	-0.048138406
32	0xbf4eecc0	-0.8083
33	0x3f074c64	0.5285094
34	0x3d261db0	0.040555656
35	0x3db97b00	0.090566635
36	0xbd909d57	-0.0706126
37	0x3b05da84	0.0020424435
38	0xba90b967	-0.0011041582
39	0x3d24a8de	0.040200107
40	0xbe380fe9	-0.17974819
41	0xbe7b90af	-0.24566911
42	0x3f2d882b	0.677859
43	0x3e427714	0.18990737
44	0xbda81c32	-0.08208503
45	0x3e2fa7e0	0.17153883
46	0x3e85cd25	0.26133075
47	0x3d34cd23	0.044140946
48	0x3e52564a	0.20540729
49	0x3e166803	0.14688115
50	0x3f9efa2f	1.24201
51	0x3d2ea76b	0.04264013
52	0xbcdf2500	-0.027239323
53	0x3e0492cd	0.12946625
54	0xbfdc8a3e	-1.7229688
55	0xbc40746e	-0.011746509
56	0xbd8e4342	-0.06946422
57	0x3b2529e5	0.0025201973
58	0xbf2cfc84	-0.6757281
59	0xbede2153	-0.433848
60	0x3f737255	0.9509633
61	0xbd29a337	-0.04141542
62	0xbe832b2c	-0.25618875
63	0xbc81a99e	-0.01582795
64	0xbf109ab0	-0.56486034
65	0x3c8f5d6f	0.017500607
66	0x3dac3aaa	0.08409627
67	0xbf44edb7	-0.76925224
68	0xbccce396	-0.025010865
69	0x3d3760f5	0.0447702
70	0xbd5e894a	-0.054330148
71	0xbfa6ab6c	-1.3021064
72	0x3c9b82a6	0.018983196
73	0xbf9d4e11	-1.2289449
74	0x3c9035bc	0.017603748
75	0x3f279d78	0.65474653
76	0xbd1256e7	-0.035727408
77	0x3c961853	0.018322146
78	0xbdace973	-0.084429644
79	0x3c9783d1	0.018495472
80	0xbda268f6	-0.07930176
81	0x3a686160	0.00088646077
82	0xbd719e46	-0.058988832
83	0xbe185900	-0.14877701
84	0xbc8acb31	-0.016942592
85	0xbeb387ec	-0.35064638
86	0xbce9395c	-0.028469734
87	0xbf40e291	-0.7534571
88	0xbd95b97e	-0.073107705
89	0x3c68c254	0.014206488
90	0x3c2b213e	0.010444937
91	0xbd17818a	-0.036988772
92	0x3c5d4d0e	0.013507141
93	0x3d2281a0	0.0396744
94	0x3c9e75ec	0.019343339
95	0x3d1882ce	0.03723412
96	0x3d63299b	0.0554596
97	0x3ecf1c95	0.40451494
98	0xbdd57222	-0.1042216
99	0xbcb4d47d	-0.022073979
100	0x3c9a63ee	0.018846478
101	0x3f99d755	1.2018839
102	0x3e71d682	0.23616984
103	0x3c7e9f61	0.015540929
104	0x3fa8d2e1	1.3189355
105	0xbcc0d61b	-0.023539593
106	0xbea6f6fe	-0.32610315
107	0xbe86b508	-0.2630999
108	0xbbe94e60	-0.0071199387
109	0xbeccdf36	-0.40014046
110	0xbd900030	-0.07031286
111	0x3daef023	0.08541896
112	0x3c6125b9	0.013741904
113	0x3ebbfabc	0.36714733
114	0x3f386e49	0.7204328
115	0x3c00407e	0.007827876
116	0x3cab2a28	0.020894125
117	0xba1e3c92	-0.00060362474
118	0xbd72ddb9	-0.059293482
119	0x3d32ca05	0.043649692
120	0x3cc04bfd	0.023473734
121	0x3d22c4e1	0.03973854
122	0xbdad91ba	-0.08475061
123	0xbda1fe47	-0.07909828
124	0x3e193836	0.14962849
125	0xbe0c3ac6	-0.13694295
126	0x3d4d6184	0.050141826
127	0xbf8b39fb	-1.0877069
128	0xbfa9da3f	-1.3269728
129	0xbe424ca6	-0.18974552
130	0xbbbdf697	-0.005797218
131	0xbb1ed092	-0.0024233204
132	0x3e67aa2e	0.22623512
133	0x3e8ad27f	0.2711372
134	0xbdbca1e5	-0.092105664
135	0xbe22d081	-0.1589985
136	0x3dded4a3	0.10880401
137	0x3d53dcf4	0.05172439
138	0x3d89ed31	0.06734694
139	0xbd2a09f3	-0.041513395
140	0xbd685b27	-0.056727555
141	0xbc667d01	-0.014067889
142	0xbdf8dd5e	-0.121515974
143	0xbe245909	-0.16049589
144	0x3bc3d11a	0.0059758546
145	0xbf2d7fcb	-0.6777312
146	0x3d4114ad	0.04713886
147	0xbd21d9a8	-0.039514214
148	0x3caf97af	0.021434633
149	0xbce5de5b	-0.028060129
150	0xbd090273	-0.0334496
151	0x3d25584d	0.040367413
152	0xbefb3f5e	-0.49071783
153	0x3ccf2f33	0.025291061
154	0xbd415079	-0.047195885
155	0x3d2d6903	0.042336475
156	0xbcdd5720	-0.027019083
157	0xbf62a4e5	-0.8853286
158	0xbe0df613	-0.13863401
159	0xbdfe4e2d	-0.124172546
160	0x3d3a551d	0.045491327
161	0x39585e05	0.0002063439
162	0xbccb17f0	-0.024791688
163	0xbc82c4ac	-0.015962921
164	0x3ebfbb33	0.3744751
165	0x3f1b1838	0.6058383
166	0x3d3cab92	0.04606206
167	0x3d3e9b19	0.04653463
168	0x3eeda8fe	0.46417993
169	0x3d519031	0.051162902
170	0xbc2faeaa	-0.0107227955
171	0x3d3e6aab	0.046488445
172	0x3d4211c1	0.047380213
173	0xbf83b5a1	-1.0289804
174	0xbda23297	-0.079198055
175	0xbd6c5d72	-0.057706304
176	0xbe88d90f	-0.26728103
177	0x3dac5377	0.08414357
178	0x3d282080	0.04104662
179	0xbca780dd	-0.020447189
180	0x3eee6d13	0.46567592
181	0x3d76e5bd	0.06027769
182	0xbcdc5274	-0.026894785
183	0xbcd591e9	-0.026070552
184	0x3dbd9a35	0.09257928
185	0xbf4b1d41	-0.7934151
186	0xbed05e40	-0.40696907
187	0xbc8961af	-0.016770212
188	0x3ed5bbd3	0.4174486
189	0x3aa60c0c	0.0012668385
190	0x3d391447	0.045185354
191	0xbc71d7a5	-0.014760886
192	0xbb386d9f	-0.002814151
193	0xbd1f154b	-0.038838666
194	0xbe3a079e	-0.18166968
195	0xbd73408e	-0.059387736
196	0x3d39a626	0.045324467
197	0xbed3e013	-0.41381893
198	0x3f9e805a	1.238292
199	0x3c8880ec	0.016663037
200	0x3f19b0e3	0.6003553
201	0x3d61ae07	0.055097606
202	0x3cb66c3e	0.02226841
203	0x3e344f2f	0.17608331
204	0xbe119cd4	-0.14219981
205	0xbd0f9f43	-0.035063993
206	0xbd40e5f0	-0.047094285
207	0xbd41bcc1	-0.04729915
208	0x3fc0942c	1.5045218
209	0xbe20edfe	-0.15715787
210	0xbd3a2182	-0.04544211
211	0x3f244d40	0.64180374
212	0x3cdb440d	0.026765848
213	0x3d18d0bc	0.03730844
214	0x3d714986	0.058908008
215	0xbcd101fa	-0.025513638
216	0xbee53712	-0.44768578
217	0xbce9ee81	-0.02855611
218	0xbd4f314c	-0.050584123
219	0x3c96d2ea	0.018411119
220	0x3c3314e5	0.010930275
221	0x3daab258	0.083347976
222	0x3ec6957d	0.38785926
223	0xbe000ec1	-0.12505628
224	0x3d4ab240	0.0494864
225	0xbe9caf47	-0.30602476
226	0x3cdde46c	0.02708646
227	0xbdfbd922	-0.12297274
228	0xbb4085a4	-0.002937653
229	0x3b555d4b	0.0032556828
230	0x3ea6728e	0.32509273
231	0x3d04290f	0.03226572
232	0xbd862a90	-0.06551087
233	0xba91bdfe	-0.0011119244
234	0xbe995483	-0.2994729
235	0x3eeff436	0.46866006
236	0x3d88c5ab	0.06678327
237	0x3e2befad	0.16790648
238	0x3dac2238	0.08404964
239	0xbddb82ad	-0.10718284
240	0xbd6883ec	-0.056766436
241	0xbce0a64c	-0.027423047
242	0x3ec51543	0.38492784
243	0xbc63a535	-0.013894369
244	0x3dbeb78c	0.093123525
245	0x3e423504	0.18965536
246	0xbf054519	-0.5205856
247	0x3d235832	0.03987903
248	0xbd36efad	-0.044662166
249	0x3c0b7c3f	0.008513509
250	0xbc230a1c	-0.009951141
251	0xbf478266	-0.7793335
252	0x3af906f6	0.0018999267
253	0xbed3f9e3	-0.41401586
254	0xbd2aee91	-0.04173142
255	0x3baccaf7	0.0052732187

net.4.bias f4 [13]
0	0xbdd7e6a5	-0.10542039
1	0xbea102c6	-0.31447428
2	0x3f12e66b	0.5738284
3	0xbd41ac59	-0.047283504
4	0xbd98da60	-0.07463527
5	0x3e276b7d	0.16349597
6	0x3ea86c7c	0.32895267
7	0xbc90860a	-0.01764204
8	0xbd9ce813	-0.07661452
9	0xbd1588fa	-0.036507584
10	0xbd8a8d8a	-0.06765278
11	0xbc625888	-0.013815053
12	0xbcaf0a3b	-0.021367183

log_vars f4 [13]
0	0xbf5d0fca	-0.8635222
1	0xbf5dc101	-0.86622626
2	0xbf3d348a	-0.73908293
3	0xbf3eb987	-0.7450184
4	0xbf38a887	-0.7213215
5	0xbf1ef924	-0.6209891
6	0xbf0eeaab	-0.55826825
7	0xbfe5a412	-1.7940695
8	0xbfa9158e	-1.3209703
9	0xbf8c5bce	-1.0965517
10	0xbfccf62d	-1.6012627
11	0xbfc9f07b	-1.5776514
12	0xbfa32aeb	-1.2747473
