mixture_mlp.pt (torch, 587248 bytes, 7 tensors)

net.0.weight f4 [512, 21]
177.77461 -230.88078 236.46489 -3.3138294 -0.30621618 -40.053776 133.92493 -109.62213
-3.5147128 -0.114037 110.23357 -72.39653 161.2832 -0.67474276 0.42572984 16.777617
-105.99979 -136.90111 3.8404403 -0.08777154 -0.008792344 -20.578787 76.177895 77.93531
-1.895031 1.445114 5.879566 1.7039874 -3.360914 -3.7031806 2.9298975 -17.669783
66.32514 74.34737 -2.142607 2.0707462 -13.947269 -28.23131 -9.030907 -0.47914645
0.29456425 0.20087 504.22903 -427.91177 223.55174 -6.4842696 -1.6367475 -0.30177572
-36.766464 -6.0058603 -1.9693295 -0.3622006 385.21127 -349.58563 208.33212 -0.98396516
0.69455177 -79.72472 -102.32701 -123.08852 2.3325827 0.09202865 -0.0069786566 80.37274
-14.471637 -86.99556 3.6799474 -1.2012223 -87.82405 -91.00496 -119.27439 2.9200664
-0.51168203 -55.517258 -85.792206 -180.826 1.2599399 -1.3295964 -5.115873 57.18212
43.80653 -3.8116183 1.4499754 -0.003160498 -30.623909 -3.5620186 30.711006 -2.6581638
1.9662843 44.089905 53.989033 59.967365 -1.9588268 1.4003103 33.587524 53.866447
85.9967 -3.4155555 0.07411551 16.665905 -14.309179 -39.61706 1.2361408 -0.75991845
-0.15032718 0.13500315 0.07449562 0.121724956 0.07498771 0.20550083 0.15570742 -0.049116313
0.15561678 -0.12771392 0.0038868736 0.14881119 0.06757893 0.06234711 0.10361053 0.012629537
0.19415963 -0.094588414 -0.07035863 0.18141392 -0.07197608 0.04188963 -0.023578644 0.15694143
-0.14437413 -0.05871512 -0.17393678 -0.0046628565 0.053171977 0.011940688 0.17158978 -0.034343883
0.03933738 -0.19342063 0.03118305 0.17600225 0.032374278 0.034945056 0.08468993 -0.051540017
-0.13889273 0.047048554 0.02420938 -544.7186 420.93854 -30.08557 2.347218 2.1018882
28.819777 -3.355649 -24.13298 3.2450051 1.2747966 -393.23114 341.21234 -79.8649
-0.25539064 -0.20974359 27.594519 107.23046 109.401794 -2.590901 -1.7290748 0.008003782
-9.157819 3.8636696 3.5205925 -0.2964408 0.39211586 -6.695879 -1.5912158 2.8767314
-0.5502041 0.37306446 -10.297459 1.549985 4.7273207 -0.783472 0.84788805 -1.0601742
0.34617922 0.14895828 0.89295024 -0.71635544 -0.036381517 -0.0859582 0.09326954 -0.0045175552
0.09236328 0.19036229 -0.008165747 0.032910332 0.016801745 -0.15088367 -0.17117667 0.122755066
-0.1840592 -0.18267174 0.14597546 -0.19922541 -0.14413497 0.18134709 0.038527444 -0.15391012
-0.0943263 -0.061562777 46.35013 137.49828 -18.365007 0.9154985 -0.53312194 -128.35986
123.60312 -278.55273 -5.1641135 1.5062889 -73.03432 187.88707 -232.64572 -2.7676983
0.3737567 -16.982122 -20.29936 -49.26979 -0.07837863 -0.45280877 -0.05856724 91.22805
161.76271 243.01001 -2.7864852 1.188296 -25.54975 177.52611 39.37267 -3.0169165
1.3575324 63.146114 265.5929 230.48566 -1.3538034 0.9686726 -47.067623 -51.851913
-81.2433 3.375609 -1.631737 -0.0022532283 8.109285 -2.2760532 -10.114384 -0.33457345
00000000: 4dc6 3143 7be1 66c3 0377 6c43 c815 54c0
00000010: 5ec8 9cbe 1137 20c2 c8ec 0543 883e dbc2
00000020: 0ef1 60c0 3b8c e9bd 9677 dc42 06cb 90c2
00000030: 8048 2143 f1bb 2cbf 43f9 d93e 8f38 8641
00000040: e4ff d3c2 afe6 08c3 c6c9 7540 91c1 b3bd
00000050: c30d 10bc 5ba1 a4c1 155b 9842 e1de 9b42
00000060: 6090 f2bf 7ff9 b83f 6825 bc40 421c da3f
00000070: 3719 57c0 e900 6dc0 7183 3b40 b75b 8dc1
00000080: 79a6 8442 dab1 9442 7920 09c0 1b87 0440
00000090: 0428 5fc1 b9d9 e1c1 987e 10c1 af52 f5be
000000a0: 20d1 963e deb0 4d3e 511d fc43 b5f4 d5c3
000000b0: 3f8d 5f43 237f cfc0 f180 d1bf 5982 9abe
000000c0: dc10 13c2 0230 c0c0 fd12 fcbf 5b72 b9be
000000d0: 0b9b c043 f6ca aec3 0655 5043 24e5 7bbf
000000e0: 25ce 313f 0e73 9fc2 6ea7 ccc2 522d f6c2
000000f0: 0949 1540 8479 bc3d 37ad e4bb d8be a042
00000100: d38b 67c1 bafd adc2 4284 6b40 a7c1 99bf
00000110: eaa5 afc2 8a02 b6c2 7d8c eec2 5ee2 3a40
00000120: 98fd 02bf ac11 5ec2 9c95 abc2 75d3 34c3
00000130: b645 a13f 3730 aabf 3bb5 a3c0 7eba 6442
00000140: e339 2f42 8ef1 73c0 cb98 b93f 5c20 4fbb
00000150: c4fd f4c1 1df8 63c0 24b0 f541 5b1f 2ac0
00000160: 34af fb3f 105c 3042 c5f4 5742 95de 6f42
00000170: d6ba fabf 5e3d b33f a059 0642 3e77 5742
00000180: 4ffe ab42 7698 5ac0 dfc9 973d c653 8541
00000190: 66f2 64c1 df77 1ec2 dd39 9e3f 048a 42bf
000001a0: 5eef 19be 443e 0a3e 2991 983d ef4a f93d
000001b0: 2893 993d cf6e 523e c471 1f3e 302e 49bd
000001c0: 015a 1f3e 70c7 02be ebba 7e3b f661 183e
000001d0: d266 8a3d af5f 7f3d c231 d43d 1eec 4e3c
000001e0: c8d1 463e 92b7 c1bd 2f18 90bd 92c4 393e
000001f0: 3268 93bd 7694 2b3d 0028 c1bc 41b5 203e
00000200: d0d6 13be 447f 70bd 7c1c 32be e0ca 98bb
00000210: dcca 593d e0a2 433c 3bb5 2f3e 2cac 0cbd
00000220: 3c20 213d 0f10 46be 9873 ff3c ef39 343e
00000230: e49a 043d 8c22 0f3d ea71 ad3d a01b 53bd
00000240: e539 0ebe fcb5 403d c052 c63c fe2d 08c4
00000250: 2278 d243 3faf f0c1 d238 1640 5685 0640
00000260: e78e e641 f4c2 56c0 5810 c1c1 2aae 4f40
00000270: 892c a33f 969d c4c3 2e9b aa43 d4ba 9fc2
00000280: 90c2 82be 06c7 56be 93c1 dc41 ff75 d642
00000290: b8cd da42 52d1 25c0 5352 ddbf 4b22 033c
000002a0: 6d86 12c1 5d46 7740 6351 6140 17c7 97be
000002b0: 69c3 c83e a444 d6c0 f6ac cbbf 5e1c 3840
000002c0: 2dda 0cbf 4e02 bf3e 64c2 24c1 e965 c63f
000002d0: 3646 9740 9f91 48bf 310f 593f cab3 87bf
000002e0: 673e b13e 8588 183e 6398 643f 1263 37bf
000002f0: c904 15bd da0a b0bd 1a04 bf3d 0008 94bb
00000300: f628 bd3d 55ee 423e a0c9 05bc fccc 063d
00000310: d0a3 893c 4081 1abe f048 2fbe 0267 fb3d
00000320: 047a 3cbe 4d0e 3bbe 977a 153e bf01 4cbe
00000330: 1e98 13be 0db3 393e f4ce 1d3d 9d9a 1dbe
00000340: 262e c1bd 4029 7cbd 8866 3942 8f7f 0943
00000350: 89eb 92c1 1c5e 6a3f ae7a 08bf 205c 00c3
00000360: cc34 f742 c046 8bc3 6b40 a5c0 13ce c03f
00000370: 9211 92c2 17e3 3b43 4ea5 68c3 f821 31c0
00000380: 0a5d bf3e 63db 87c1 1765 a2c1 4414 45c2
00000390: fa84 a0bd 8dd6 e7be 34e4 6fbd c374 b642
000003a0: 41c3 2143 9002 7343 c655 32c0 151a 983f
000003b0: e365 ccc1 af86 3143 9d7d 1d42 2915 41c0
000003c0: 9fc3 ad3f 9f95 7c42 e4cb 8443 547c 6643
000003d0: 6e49 adbf edfa 773f 3f45 3cc2 5c68 4fc2
000003e0: 927c a2c2 fa09 5840 c2dc d0bf e6aa 13bb
000003f0: a2bf 0141 dbaa 11c0 84d4 21c1 364d abbe

net.0.bias f4 [512]
0.4363501 0.6728123 0.38778952 -0.61378694 0.6798412 -0.10402825 -0.08827008 -0.01870869
0.1037715 -0.14822924 0.5964027 0.6279822 -0.050587915 -0.21632208 0.61158454 -0.089035556
-0.18544339 -0.7396868 0.0051766336 -0.11583571 0.28217632 -0.2016767 0.022762131 0.00093461573
0.001058206 0.6126744 -0.20770854 -0.13141795 -0.32034835 -0.21441643 0.14250544 0.2307466
0.42661294 -0.05118446 -0.07878494 0.077418774 -0.3322469 -0.5555716 0.11704987 -0.70521516
-0.20388354 -0.5977637 -0.0068026474 0.6992265 -0.1828045 -0.17326306 0.7157974 0.5823663
-0.5609846 -0.1304988 0.7703545 -0.13564315 -0.17652324 -0.15134346 0.6850635 0.121448465
-0.11686716 -0.41413882 -0.0017915613 0.011037961 -0.13386491 -0.19117421 -0.032967675 -0.48388198
0.4491196 -0.6676614 0.44801787 -0.06850596 0.19829465 -0.08246591 -0.43454877 -0.06859786
-0.03997234 -0.036591068 0.51508516 -0.14081356 -0.047099117 -0.07345587 0.43559465 -0.110787734
0.44423714 0.39192998 0.6035406 0.8302186 -0.074388444 -0.0760798 0.6432156 0.29615998
0.48747984 0.6806487 -0.014895961 0.610822 -0.795767 -0.71187073 0.59556043 0.06759641
-1.0154548 -0.7700336 -0.12121349 -0.09258163 0.03597141 -0.50499517 -0.12568827 -0.33400285
-0.16684134 -0.6666422 0.4710383 -0.13866356 0.62026894 -0.18335566 -0.15784535 -0.16663894
0.2201797 -0.2901395 -0.7853543 0.3602511 -0.18154398 -0.12058512 -0.7590176 -0.038161658
0.32610643 -0.053500146 0.45185143 -0.19549702 -0.19412464 0.92694217 -0.15544298 -0.0041593793
-0.10367491 -0.14165197 -0.20056525 -0.6368155 -0.87943214 -0.057484962 0.49688804 -0.16249791
-0.04503271 -0.112665236 -0.11960314 -0.095878534 0.10190391 -0.19878875 0.058332983 -0.18615054
0.3487741 -0.8384377 -0.20345564 -0.033869237 -0.37871265 0.65545726 -0.17404062 0.6461388
0.13836862 0.18608773 0.4384456 0.49081728 -0.6326143 -0.15207815 -0.4056935 0.0044015567
0.6259987 -0.13444474 -0.16607824 -0.21968117 -0.74622023 -0.25420988 -0.06805384 -0.42059702
0.4947086 -0.15073246 -0.19335122 0.25021628 -0.2834416 -0.97934264 -0.09570055 -0.049588863
-0.6657864 -0.116138734 -0.39323193 -0.12330678 -0.1485979 -0.1260176 -0.18647054 -0.07172191
-0.121493295 -0.077702045 0.60825294 0.254661 0.5813511 0.6146694 0.63723063 0.6796803
0.2266031 -0.81888026 0.5712657 -0.48256528 -0.18207486 -0.21627718 -0.07532324 -0.16309516
0.013767712 0.5934793 0.22465076 0.09155607 -0.091326 0.17427406 0.5147057 0.43046868
-0.17562845 -0.12929682 0.6633539 -0.21024917 -0.07381589 -0.070887014 -0.23699538 -0.66591185
-0.40505815 -0.09320015 0.08100786 0.32386068 -0.06844501 -0.28878936 0.018466353 -0.09544023
-0.18272173 -0.106633335 0.23209317 -0.18691625 0.75320125 -0.110037714 0.60223174 -0.18046317
-0.077296905 0.41246098 -0.15368593 -0.078998104 0.6275405 -0.21743044 -0.09302911 0.2546729
0.1469942 -0.0043868273 0.42454016 -0.16820237 -0.15781751 0.3704296 -0.01319674 0.560798
-0.07463065 -0.11184152 0.055166803 -0.024035532 -0.57557935 -0.18242107 -0.51449865 0.79332906
00000000: 4869 df3e 6d3d 2c3f 598c c63e 2421 1dbf
00000010: 130a 2e3f c30c d5bd f2c6 b4bd f742 99bc
00000020: 2786 d43d 68c9 17be d9ad 183f 71c3 203f
00000030: 4635 4fbd 8983 5dbe ce90 1c3f 4658 b6bd
00000040: dfe4 3dbe 1d5c 3dbf c0a0 a93b 463b edbd
00000050: 6a79 903e 5684 4ebe a677 ba3c 0001 753a
00000060: 80b3 8a3a 3bd8 1c3f 8cb1 54be 6d92 06be
00000070: b304 a4be fb8f 5bbe f2ec 113e d648 6c3e
00000080: 036d da3e cca6 51bd 005a a1bd bc8d 9e3d
00000090: 441c aabe f139 0ebf d8b7 ef3d fb88 34bf
000000a0: d9c6 50be 0b07 19bf bee8 debb 8200 333f
000000b0: 1a31 3bbe df6b 31be 803e 373f f515 153f
000000c0: b09c 0fbf 7aa1 05be f435 453f 0ae6 0abe
000000d0: 82c2 34be c8f9 1abe 5260 2f3f f9b9 f83d
000000e0: 0d58 efbd 010a d4be d2d2 eaba 90d8 343c
000000f0: e213 09be 2cc3 43be 1d09 07bd 61bf f7be
00000100: 01f3 e53e dceb 2abf 9962 e53e da4c 8cbd
00000110: c10d 4b3e e3e3 a8bd 2d7d debe 097d 8cbd
00000120: 09ba 23bd 84e0 15bd 9fdc 033f 6e31 10be
00000130: 01eb 40bd 0870 96bd 4306 df3e aee4 e2bd
00000140: 0d73 e33e 0cab c83e a381 1a3f 3589 543f
00000150: f858 98bd bacf 9bbd c7a9 243f 48a2 973e
00000160: f596 f93e fe3e 2e3f 300e 74bc d55e 1c3f
00000170: 63b7 4bbf 293d 36bf a676 183f fd6f 8a3d
00000180: 6cfa 81bf ec20 45bf c73e f8bd 709b bdbd
00000190: c256 133d 5d47 01bf 6db4 00be 6c02 abbe
000001a0: 75d8 2abe 10a9 2abf ef2b f13e d2fd 0dbe
000001b0: f2c9 1e3f 96c1 3bbe 36a2 21be 66a3 2abe
000001c0: ca76 613e 2a8d 94be fb0c 49bf d572 b83e
000001d0: aae6 39be 55f5 f6bd fa4e 42bf 664f 1cbd
000001e0: 6cf7 a63e f822 5bbd 1259 e73e 5f30 48be
000001f0: 9cc8 46be 154c 6d3f 722c 1fbe 674b 88bb
00000200: 8353 d4bd 370d 11be fa60 4dbe 5706 23bf
00000210: 7722 61bf 5a75 6bbd 1c68 fe3e da65 26be
00000220: 3874 38bd 08bd e6bd 7ef2 f4bd f75b c4bd
00000230: ffb2 d03d 478f 4bbe 91ee 6e3d 3f9e 3ebe
00000240: 8592 b23e daa3 56bf ad56 50be 78ba 0abd
00000250: a0e6 c1be 0ccc 273f b437 32be 5a69 253f
00000260: 81b0 0d3e c88d 3e3e f17b e03e 674c fb3e
00000270: 03f3 21bf 60ba 1bbe 0fb7 cfbe ef3a 903b
00000280: 7341 203f e2ab 09be 6a10 2abe 1af4 60be
00000290: 4a08 3fbf cc27 82be d05f 8bbd 7e58 d7be
000002a0: 724a fd3e 9c59 1abe ddfd 45be 591c 803e
000002b0: 421f 91be 33b6 7abf a6fe c3bd b11d 4bbd
000002c0: fa70 2abf 25da edbd b255 c9be 4488 fcbd
000002d0: 0c2a 18be c20a 01be 22f2 3ebe f0e2 92bd
000002e0: 7ad1 f8bd 4022 9fbd 77b6 1b3f ed62 823e
000002f0: 6dd3 143f f95a 1d3f 8c21 233f 87ff 2d3f
00000300: a50a 683e 23a2 51bf 783e 123f cc12 f7be
00000310: d571 3abe c477 5dbe 1243 9abd 6b02 27be
00000320: f891 613c 42ee 173f d90a 663e c081 bb3d
00000330: 2009 bbbd e674 323e c1c3 033f 6466 dc3e
00000340: f2d7 33be 6366 04be 90d1 293f 8f4b 57be
00000350: c92c 97bd 362d 91bd ebae 72be 3379 2abf
00000360: c863 cfbe b8df bebd 73e7 a53d 11d1 a53e
00000370: e62c 8cbd 33dc 93be c046 973c 2b76 c3bd
00000380: 681b 3bbe 9462 dabd d5a9 6d3e f966 3fbe
00000390: ccd1 403f 745b e1bd dc2b 1a3f 56cb 38be
000003a0: d74d 9ebd 162e d33e d85f 1dbe c2c9 a1bd
000003b0: 7fa6 203f 16a6 5ebe 0c86 bebd 7d64 823e
000003c0: a685 163e 60bf 8fbb 545d d93e 3e3d 2cbe
000003d0: ea9a 21be f3a8 bd3e 2437 58bc 7590 0f3f
000003e0: f4d7 98bd 2b0d e5bd 96f6 613d 2ae6 c4bc
000003f0: 2b59 13bf 97cc 3abe 2fb6 03bf 9d17 4b3f

net.2.weight f4 [256, 512]
-0.016235003 -0.05746776 -0.038923442 -0.00939752 -0.07584715 0.037343163 0.042809036 -0.07049677
-0.054797936 0.02627245 -0.0361387 -0.0005476339 0.03382935 -0.008677091 -0.041085433 -0.018139228
0.0050328863 0.0053551197 -0.0772479 -0.030129597 -0.071065746 -0.036741704 -0.015409074 -0.012786459
0.038268987 0.008717701 0.010862939 -0.053837217 -0.019587828 0.011966687 -0.06615625 -0.05592645
-0.03653933 -0.04284361 -0.039321177 0.0017417686 -0.019568665 -0.0500101 -0.057122823 -0.07254827
-0.030353501 -0.060797103 -0.06730683 -0.0012600947 -0.009630486 -0.06890281 -0.053901784 0.03971036
-0.057436515 -0.012947306 -0.06843939 0.035991903 0.030301329 0.011658225 -0.035958342 -0.06195233
-0.07527274 0.02069578 -0.055553585 -0.03356732 0.0035635792 0.0025634542 -0.06462718 -0.040279236
-0.04001043 -0.007499665 -0.05139076 -0.018894173 0.009116601 0.019407708 -0.06412496 0.025397394
0.024053548 -0.035830963 -0.03466734 -0.03392751 -0.037170965 -0.04338048 -0.022516027 0.010366693
-0.03777278 -0.07649379 -0.0016812952 -0.020024208 0.020369086 0.012093548 -0.06773934 -0.015367223
-0.034903236 -0.044031788 -0.017634742 -0.0623499 -0.07237049 -0.048710678 -0.07788198 -0.06270662
-0.03653231 -0.0080151325 -0.031898968 0.0017601805 -0.050893046 -0.019071871 -0.06338863 -0.06265131
-0.07163092 -0.05396243 0.0044804513 -0.0141324755 -0.061589874 -0.072998784 0.026454236 -0.027893143
-0.07383435 -0.0413022 -0.022183428 -0.043448985 0.020518158 -0.0019782146 -0.054091435 0.009716469
-0.043435093 -0.039656855 -0.066673584 -0.00024904683 -0.07526283 -0.002941867 0.035140593 -0.052454438
0.032339875 0.0020745895 0.015374254 0.015347688 -0.016507128 -0.02195758 -0.055867348 -0.0312106
-0.016044425 -0.015397692 0.037600834 -0.044030935 -0.05528975 -0.005063053 -0.06649629 -0.035296313
0.0057871942 -0.04074869 0.010744832 0.023568276 -0.0020666765 -0.03758679 -0.0053018653 -0.0065499167
-0.00025374672 0.0064324513 -0.06958937 -0.05251944 -0.014902693 0.006962031 0.036916327 -0.004877951
-0.037953395 0.0072615966 0.031504747 -0.009322088 -0.02237759 -0.017663935 0.010480985 -0.07402729
-0.027780822 0.0047832914 -0.020795634 -0.03949958 -0.026308361 -0.048888862 -0.033725996 -0.057811517
0.006895298 -0.02473217 0.0045796204 -0.01694308 0.014592815 0.0150462575 -0.018525852 0.027650427
-0.012166832 -0.02945905 -0.027304871 -0.07458503 0.003628746 -0.035204656 -0.046023134 -0.007813572
-0.06542095 -0.039441593 -0.041271057 -0.06837151 0.027582321 0.0066135935 -0.017105319 -0.05153708
0.0034905851 -0.07421656 -0.029173 -0.012231397 -0.009714921 -0.054329813 -0.014263329 0.040173683
0.023198295 0.0170377 -0.07085843 -0.014466794 -0.06841205 -5.5924058e-05 -0.018239217 -0.0049935277
-0.034931514 -0.042236026 -0.048520755 -0.0057226224 -0.03474155 -0.022690045 0.041204568 -0.0059847943
-0.027505422 -0.019884715 -0.026314318 -0.037655197 -0.027384799 -0.0036072955 -0.035217583 0.035469305
-0.06496234 -0.023686793 0.021390047 0.025762137 -0.059006814 -0.019757839 -0.04040277 -0.04966835
-0.035446234 -0.0012969337 0.015613477 -0.0022205822 -0.03664397 -0.07350097 -0.014412099 0.0011594334
0.0017703101 -0.0007982366 0.00216094 0.008543453 -0.02982478 0.0009670481 0.007995637 -0.015054801
00000000: 45ff 84bc 5063 6bbd 306e 1fbd 0ef8 19bc
00000010: c055 9bbd 25f5 183d 8758 2f3d 9c60 90bd
00000020: cd73 60bd 5239 d73c 2c06 14bd 178f 0fba
00000030: a590 0a3d 5c2a 0ebc 3349 28bd b898 94bc
00000040: e9ea a43b 007a af3b 2634 9ebd 58d2 f6bc
00000050: eb8a 91bd 787e 16bd 5776 7cbc 4c7e 51bc
00000060: f1bf 1c3d b0d4 0e3c 78fa 313c 6a84 5cbd
00000070: a776 a0bc ec0f 443c ee7c 87bd 2213 65bd
00000080: 44aa 15bd c87c 2fbd 3e0f 21bd 0e4c e43a
00000090: 774e a0bc 64d7 4cbd 9ff9 69bd 3094 94bd
000000a0: e8a7 f8bc 6206 79bd 2ad8 89bd c329 a5ba
000000b0: 30c9 1dbc eb1c 8dbd 1ec8 5cbd 55a7 223d
000000c0: 8d42 6bbd f020 54bc f329 8cbd 3f6c 133d
000000d0: 7e3a f83c 2402 3f3c 0e49 13bd bac1 7dbd
000000e0: 9828 9abd 328a a93c 288c 63bd e37d 09bd
000000f0: f08a 693b a0ff 273b 415b 84bd d7fb 24bd
00000100: fae1 23bd c0bf f5bb 1e7f 52bd f4c7 9abc
00000110: cc5d 153c eafc 9e3c f253 83bd 320e d03c
00000120: f20b c53c 7dc3 12bd 57ff 0dbd 93f7 0abd
00000130: 9540 18bd bbaf 31bd 8873 b8bc 10d9 293c
00000140: a1b7 1abd c7a8 9cbd e85e dcba cf09 a4bc
00000150: 12dd a63c 0424 463c ecba 8abd cec6 7bbc
00000160: b2f6 0ebd ad5a 34bd bc76 90bc 9c62 7fbd
00000170: fb36 94bd d984 47bd 9680 9fbd 546c 80bd
00000180: e7a2 15bd e751 03bc 7ea8 02bd dbb5 e63a
00000190: 3a75 50bd 9d3c 9cbc e6d1 81bd 544f 80bd
000001a0: 3bb3 92bd b607 5dbd c0d0 923b e68b 67bc
000001b0: aa45 7cbd 6380 95bd 8eb6 d83c 2980 e4bc
000001c0: 7736 97bd 7f2c 29bd 05ba b5bc 90f7 31bd
000001d0: b215 a83c efa4 01bb fb8e 5dbd d331 1f3c
000001e0: ffe8 31bd 3a6f 22bd 298c 88bd 8092 82b9
000001f0: 6623 9abd 57cc 40bb 95ef 0f3d 77da 56bd
00000200: d176 043d d6f5 073b 4ce4 7b3c df74 7b3c
00000210: f539 87bc 62e0 b3bc 29d5 64bd 5fad ffbc
00000220: 996f 83bc 9a46 7cbc 5503 1a3d c859 34bd
00000230: 8177 62bd f8e7 a5bb 352f 88bd de92 10bd
00000240: 81a2 bd3b 19e8 26bd 180b 303c 4212 c13c
00000250: 1471 07bb 9bf4 19bd 45bb adbb afa0 d6bb
00000260: 4f09 85b9 50c7 d23b df84 8ebd a01e 57bd
00000270: 6d2a 74bc c021 e43b 9335 173d 38d7 9fbb
00000280: 0575 1bbd b0f2 ed3b 1f0b 013d acbb 18bc
00000290: 3551 b7bc f5b3 90bc 70b8 2b3c 9f9b 97bd
000002a0: 9b94 e3bc 28bd 9c3b 9b5b aabc 50ca 21bd
000002b0: a284 d7bc b03f 48bd 4524 0abd c5cb 6cbd
000002c0: f4f1 e13b 1f9b cabc a410 963b 37cc 8abc
000002d0: b416 6f3c 9484 763c 87c3 97bc 2683 e23c
000002e0: 6457 47bc 1b54 f1bc 77ae dfbc 09c0 98bd
000002f0: 41d0 6d3b c232 10bd c182 3cbd 7f04 00bc
00000300: 6bfb 85bd 828d 21bd d70b 29bd 5d06 8cbd
00000310: 52f4 e13c d8b6 d83b 7420 8cbc 8c18 53bd
00000320: 4dc2 643b dafe 97bd 37fc eebc 3366 48bc
00000330: 552b 1fbc f088 5ebd bdb0 69bc 298d 243d
00000340: 5a0a be3c a692 8b3c 391e 91bd 2206 6dbc
00000350: 9e1b 8cbd 0090 6ab8 696a 95bc bfa0 a3bb
00000360: 5914 0fbd afff 2cbd b3bd 46bd d684 bbbb
00000370: 284d 0ebd 79e0 b9bc 1fc6 283d 181c c4bb
00000380: 0d53 e1bc 45e5 a2bc 2091 d7bc 563c 1abd
00000390: 1656 e0bc 6068 6cbb 5040 10bd 4348 113d
000003a0: fa0a 85bd ce0a c2bc 2e3a af3c 1e0b d33c
000003b0: 21b1 71bd 31db a1bc 607d 25bd 0a71 4bbd
000003c0: 1230 11bd e0fd a9ba abcf 7f3c 3087 11bb
000003d0: fd17 16bd ad87 96bd b920 6cbc 21f8 973a
000003e0: c009 e83a c040 51ba 8f9e 0d3b d7f9 0b3c
000003f0: 1953 f4bc 8081 7d3a 2200 033c 69a8 76bc

net.2.bias f4 [256]
-0.058167245 0.008993916 -0.04608016 -0.6204781 -0.05551473 -0.04328046 -1.2891525 0.5773712
-0.05560882 -0.06269325 -0.3089703 -0.054335773 1.0257472 -0.061878767 -0.060677677 -0.03823559
-0.013097402 -0.109620996 0.33943808 -0.04159244 0.081388794 -0.049419515 -0.047593933 -0.81501675
0.044947512 -0.020397978 0.64001614 -0.04477532 -0.056752093 -0.064899705 -0.28490323 -0.02003371
-0.84690106 0.3579351 -0.01695663 -0.02140817 -0.07191021 -0.04548965 -0.006565197 -0.07407701
1.1521105 0.7013061 0.25158274 0.47530824 0.0048290906 -0.06948403 0.47759405 -0.027935494
0.26375893 -0.2843906 -0.79912174 -0.061687008 -0.45459273 1.4072434 -0.7602274 0.17288458
-0.059719354 0.0013958956 -0.4031075 0.62969196 0.09826124 -0.018380765 -0.7058378 -0.030822624
-0.25240502 0.645468 0.10568352 0.16442947 -0.017843083 0.000892916 0.005470553 0.30260023
-0.0068744733 -0.37732306 -0.05913004 -0.30411318 -0.022687329 0.7766768 0.5431563 -0.047852896
0.9533323 -0.06099364 -0.049461305 -0.031230047 -0.049312904 0.62439394 -0.04380228 0.68869644
0.41497454 -0.06159959 -0.03949823 -0.042301558 -0.016656073 -0.044602722 -0.06566491 -0.00417296
-0.05220855 0.36636785 -0.182472 -0.008841984 -0.05547469 -0.55533963 -0.004793053 -0.06270951
-0.86353666 -0.053056482 -0.3508382 -0.09943004 -0.0010077215 -1.3506308 -0.7334659 0.26628354
-0.008987859 -0.3870927 -1.0569407 0.0050105006 -0.0011922624 -0.009478136 -0.016692536 -0.048911307
-0.0010279389 -0.016575374 -0.013307684 0.06288597 -0.017297272 0.7126535 -0.04017181 -0.56742966
-0.36234528 -0.055716664 -0.025452986 -0.02027208 0.3423405 0.04837858 0.0061935503 0.5333984
-0.93840927 -0.050661087 0.48096198 0.0021784864 -0.11444051 -0.009374861 -0.048526533 0.3863729
-0.016234005 -0.15441112 -0.056755856 -0.05856712 -0.08609333 -0.027628627 -0.009920482 -0.0039321156
-0.25690082 -0.041291453 -0.04412766 -0.04400488 -0.009042055 -0.22403644 0.09654938 -0.08123197
-0.08560142 -0.049606785 -0.05165027 -0.054004602 -0.13953236 -0.3476138 -0.034479376 -0.044223893
0.9416144 -0.06244415 0.44591704 -0.0072380183 -0.013665405 -0.21139486 0.97806406 -0.0024371005
-0.055213965 0.011478502 -0.033993736 -0.060153816 -0.79256165 -0.121586114 -0.022746684 -0.059245985
0.02175408 -0.59601295 0.5539961 -0.054986022 0.5106313 -0.06492345 -0.06789308 -0.032782998
-0.045255195 0.09723694 -0.63743913 -0.04101024 -0.007843546 -1.1767408 -0.096174516 -0.040651977
-0.61053056 -0.047499154 -0.061162416 -0.96134883 0.006581567 -0.043573108 -0.024502404 -0.02342265
0.54193354 -0.05576865 -0.02194424 -0.6015152 -0.02836477 -0.05140416 -0.044426367 -0.06887475
-0.7829309 -0.6778341 -0.057415135 -0.006448277 -0.009168251 0.9549974 -0.01689381 -0.25196543
-0.031195851 -0.6758185 -0.05362921 -0.062528394 -0.04789355 -0.061762247 0.12863357 -0.0053860513
0.6987121 0.014258893 -1.0222642 -0.32713062 -0.021468932 -0.02751549 -0.018415812 -0.03735117
-1.210104 -0.021260016 0.23860498 -0.04688635 0.7939013 0.8160941 -0.11411135 -0.059187423
-0.04219773 -0.014219471 -0.049655337 -1.0148808 -0.033412773 -0.11833711 -0.060381513 -0.05379945
00000000: c740 6ebd 385b 133c 8dbe 3cbd a7d7 1ebf
00000010: 6a63 63bd da46 31bd f302 a5bf 99ce 133f
00000020: 13c6 63bd 5265 80bd 5b31 9ebe 308f 5ebd
00000030: af4b 833f 9774 7dbd 2889 78bd ec9c 1cbd
00000040: 7c96 56bc f980 e0bd d4ca ad3e d65c 2abd
00000050: 2baf a63d 1e6c 4abd dbf1 42bd f0a4 50bf
00000060: e21a 383d a919 a7bc 19d8 233f 5366 37bd
00000070: e274 68bd 23ea 84bd d6de 91be bc1d a4bc
00000080: 82ce 58bf 4543 b73e a1e8 8abc 3060 afbc
00000090: a945 93bd 5b53 3abd dd20 d7bb b0b5 97bd
000000a0: 5b78 933f cc88 333f 74cf 803e 9a5b f33e
000000b0: 593d 9e3b a54d 8ebd 3587 f43e fad8 e4bc
000000c0: 690b 873e a59b 91be 3e93 4cbf 84ab 7cbd
000000d0: 61c0 e8be 8d20 b43f 439e 42bf a808 313e
000000e0: 489c 74bd 7cf6 b63a 1b64 cebe 7e33 213f
000000f0: 303d c93d 4293 96bc c9b1 34bf ba7f fcbc
00000100: 3b3b 81be 643d 253f 9a70 d83d 3360 283e
00000110: a82b 92bc 9412 6a3a 5342 b33b 6bee 9a3e
00000120: 4343 e1bb 7d30 c1be 5732 72bd b9b4 9bbe
00000130: c7da b9bc 4ad4 463f 4b0c 0b3f 6601 44bd
00000140: 960d 743f 78d4 79bd f097 4abd 28d6 ffbc
00000150: 54fc 49bd 48d8 1f3f 056a 33bd 694e 303f
00000160: 8b77 d43e da4f 7cbd e5c8 21bd 6644 2dbd
00000170: 5172 88bc 58b1 36bd 537b 86bd 53bd 88bb
00000180: a2d8 55bd 9194 bb3e f1d9 3abe f8dd 10bc
00000190: 6e39 63bd bd2a 0ebf 0b0f 9dbb d86d 80bd
000001a0: bd10 5dbf c151 59bd 11a1 b3be faa1 cbbd
000001b0: 8615 84ba 78e1 acbf 6cc4 3bbf 5156 883e
000001c0: d041 13bc 0431 c6be d549 87bf 202f a43b
000001d0: b045 9cba 2f4a 1bbc c9be 88bc 3957 48bd
000001e0: e8bb 86ba 14c9 87bc 7908 5abc 5cca 803d
000001f0: 02b3 8dbc 7670 363f 328b 24bd 1243 11bf
00000200: 5285 b9be 2837 64bd c882 d0bc a211 a6bc
00000210: 4147 af3e 9e28 463d 44f3 ca3b cc8c 083f
00000220: 973b 70bf 0082 4fbd a640 f63e f0c4 0e3b
00000230: c95f eabd 0499 19bc c2c3 46bd abd2 c53e
00000240: 2dfd 84bc f31d 1ebe d478 68bd 14e4 6fbd
00000250: b351 b0bd 6e55 e2bc 8489 22bc fad8 80bb
00000260: 8188 83be 3a21 29bd 35bf 34bd 763e 34bd
00000270: 2125 14bc cf69 65be aebb c53d f25c a6bd
00000280: cc4f afbd 7c30 4bbd 3c8f 53bd ee33 5dbd
00000290: 92e1 0ebe 70fa b1be 3f3a 0dbd 1d24 35bd
000002a0: a40d 713f 70c5 7fbd 3d4f e43e e62c edbb
000002b0: dde4 5fbc e577 58be 6862 7a3f c3b7 1fbb
000002c0: 0a28 62bd 5410 3c3c 043d 0bbd d963 76bd
000002d0: 52e5 4abf 2402 f9bd 4157 babc ebab 72bd
000002e0: 9d35 b23c 4e94 18bf b0d2 0d3f 0639 61bd
000002f0: bcb8 023f 96f6 84bd 870b 8bbd 7747 06bd
00000300: 835d 39bd 2924 c73d 362f 23bf 5afa 27bd
00000310: 3782 00bc 719f 96bf 25f7 c4bd b082 26bd
00000320: bb4b 1cbf 798e 42bd 7185 7abd f51a 76bf
00000330: 30aa d73b b779 32bd 44b9 c8bc dbe0 bfbc
00000340: 28bc 0a3f ab6d 64bd 68c4 b3bc e6fc 19bf
00000350: 3c5d e8bc 2b8d 52bd 6cf8 35bd 340e 8dbd
00000360: 296e 48bf 8986 2dbf 222c 6bbd 114c d3bb
00000370: 6f36 16bc b67a 743f e364 8abc 9d01 81be
00000380: 718e ffbc 7102 2dbf 4daa 5bbd e30e 80bd
00000390: 072c 44bd 69fa 7cbd 85b8 033e 797d b0bb
000003a0: ccde 323f 229e 693c 8ed9 82bf aa7d a7be
000003b0: 9ddf afbc 2a68 e1bc c2dc 96bc 8afd 18bd
000003c0: b0e4 9abf 7c29 aebc dd54 743e e70b 40bd
000003d0: 1e3d 4b3f 8beb 503f 36b3 e9bd 836e 72bd
000003e0: 87d7 2cbd c9f8 68bc 6563 4bbd 9de7 81bf
000003f0: d5db 08bd ba5a f2bd 9b52 77bd d05c 5cbd

net.4.weight f4 [13, 256]
0.011689903 0.07814389 0.061501753 4.7268753 -0.04328196 -0.007814184 1.8328406 -1.1168993
0.03686911 0.018230228 0.4406032 0.037155528 -0.54912055 -0.013036009 -0.0036144827 -0.0054758014
-0.061049722 -1.486216 1.1133841 -0.029945446 1.4701402 -0.034115456 -0.03930957 -0.7091716
0.33139813 0.035580378 0.57832366 -0.03879679 0.006994369 -0.023253134 -0.28361776 -0.048138406
-2.9703166 0.8494092 0.06712674 0.090566635 -0.0706126 0.0020424435 -0.0011041582 0.06368505
-0.57821923 -1.333891 1.4222902 0.24768138 0.0402191 0.028951677 0.7229162 0.044140946
0.5839107 0.41921663 2.8140025 0.04264013 -0.14326972 0.7717691 -2.7853763 0.02603775
-0.06946422 0.0025201973 -1.8392603 -1.3960854 1.9595004 -0.04141542 0.25985566 -0.048015907
-1.0479888 -0.03200891 -0.92099017 -0.8911932 -0.025010865 -0.019024357 -0.054330148 -2.71321
0.018983196 -1.7653654 0.017603748 2.0333858 -0.035727408 0.4905513 -0.7617108 0.018495472
0.037683472 0.00088646077 -0.058988832 0.008531515 -0.016942592 -0.8011386 -0.028469734 -0.87885946
0.27721903 0.014206488 0.010444937 -0.036988772 0.013507141 0.0396744 0.019343339 0.03723412
0.0554596 1.2750602 -0.42169237 -0.022073979 0.018846478 2.0828285 -0.0016777227 0.015540929
2.447329 -0.023539593 -0.3265627 -0.8695259 -0.0071199387 -1.4144365 -0.9740249 -0.09879494
0.013741904 0.7614637 2.8024802 0.007827876 0.020894125 -0.00060362474 -0.059293482 0.043649692
0.05445826 0.03973854 -0.08475061 -0.2788425 -0.0042004413 -1.186246 0.050141826 -2.7712224
-2.9557555 0.036554374 -0.005797218 -0.0024233204 0.18461347 0.7731199 0.025241587 -0.5480693
0.55581605 0.05172439 0.14821544 5.9713777e-05 -0.056727555 -0.014067889 -0.010303202 -0.26491144
0.061660767 -1.3802841 0.04713886 -0.039514214 0.021434633 -0.028060129 -0.0028487816 0.040367413
-0.69464844 0.025291061 -0.047195885 0.042336475 -0.027019083 -1.5207081 0.092000745 -0.124172546
0.107459545 0.0002063439 0.026752405 -0.06271389 0.8287253 1.4005966 0.04606206 0.04653463
1.0768389 0.051162902 -0.08201168 0.046488445 0.047380213 -2.0733 -0.3686971 -0.057706304
-0.5676677 -0.5470295 0.04104662 -0.020447189 1.0616875 0.49250746 -0.026894785 -0.026070552
0.021063518 -1.8462223 -1.4914755 -0.016770212 0.6333633 0.0012668385 0.045185354 -0.014760886
-0.002814151 -0.12971519 -1.0074353 -0.059387736 0.045324467 -1.0595249 2.119335 0.016663037
1.3862638 0.055097606 0.02226841 -0.18278167 0.020799449 -0.035063993 -0.047094285 -0.04729915
2.6310391 -0.01480703 -0.04544211 1.6708614 0.026765848 0.03730844 0.058908008 -0.025513638
-1.660406 0.2642198 -0.050584123 0.018411119 0.010930275 -0.25642556 0.024601812 -0.7403276
0.0494864 -1.1363277 0.02708646 0.035486795 -0.002937653 0.0032556828 0.6129889 0.03226572
-0.5313157 -0.055808134 -1.645902 0.68624806 -0.0082877 0.017023476 0.08404964 0.010584467
0.129913 -0.027423047 0.48300034 -0.013894369 0.77569234 0.87763155 -0.98334295 0.03987903
-0.044662166 0.008513509 0.02854163 -1.1951315 0.0018999267 -0.8489663 -0.04173142 0.0052732187
00000000: 0287 3f3c e709 a03d 43e9 7b3d 9042 9740
00000010: 6d48 31bd 1007 00bc 859a ea3f 8ef6 8ebf
00000020: 1004 173d 8f57 953c be96 e13e 6530 183d
00000030: 2a93 0cbf fc94 55bc f5e0 6cbb 5a6e b3bb
00000040: 460f 7abd 533c bebf 5f83 8e3f 2750 f5bc
00000050: 8e2d bc3f a6bc 0bbd 1203 21bd 458c 35bf
00000060: 04ad a93e bbbc 113d 050d 143f 62e9 1ebd
00000070: 0531 e53b 5b7d bebc 5936 91be c72c 45bd
00000080: ab19 3ec0 e272 593f bf79 893d 007b b93d
00000090: 579d 90bd 84da 053b 67b9 90ba 4f6d 823d
000000a0: 2d06 14bf f1bc aabf 9b0d b63f 30a0 7d3e
000000b0: c8bc 243d 112c ed3c 0911 393f 23cd 343d
000000c0: 2c7b 153f 90a3 d63e 9e18 3440 6ba7 2e3d
000000d0: 4cb5 12be a992 453f 9b43 32c0 1f4d d53c
000000e0: 4243 8ebd e529 253b e26c ebbf edb2 b2bf
000000f0: e9d0 fa3f 37a3 29bd cd0b 853e 54ac 44bd
00000100: 7f24 86bf c61b 03bd 03c6 6bbf 3d25 64bf
00000110: 96e3 ccbc f8d8 9bbc 4a89 5ebd 3ca5 2dc0
00000120: a682 9b3c 7ef7 e1bf bc35 903c fe22 0240
00000130: e756 12bd 8a29 fb3e 7bff 42bf d183 973c
00000140: fc59 1a3d 6061 683a 469e 71bd c4c7 0b3c
00000150: 31cb 8abc 6b17 4dbf 5c39 e9bc effc 60bf
00000160: a7ef 8d3e 54c2 683c 3e21 2b3c 8a81 17bd
00000170: 0e4d 5d3c a081 223d ec75 9e3c ce82 183d
00000180: 9b29 633d 2c35 a33f 10e8 d7be 7dd4 b4bc
00000190: ee63 9a3c 104d 0540 08e7 dbba 619f 7e3c
000001a0: 0aa1 1c40 1bd6 c0bc 3a33 a7be 4099 5ebf
000001b0: 604e e9bb 410c b5bf b259 79bf 0055 cabd
000001c0: b925 613c 49ef 423f d65b 3340 7e40 003c
000001d0: 282a ab3c 923c 1eba b9dd 72bd 05ca 323d
000001e0: a00f 5f3d e1c4 223d ba91 adbd 72c4 8ebe
000001f0: dba3 89bb e9d6 97bf 8461 4d3d b55b 31c0
00000200: 192b 3dc0 0aba 153d 97f6 bdbb 92d0 1ebb
00000210: 500b 3d3e 30eb 453f 72c7 ce3c 454e 0cbf
00000220: f649 0e3f f4dc 533d cac5 173e 2e75 7a38
00000230: 275b 68bd 017d 66bc c3ce 28bc 79a2 87be
00000240: 0090 7c3d 26ad b0bf ad14 413d a8d9 21bd
00000250: af97 af3c 5bde e5bc a0b2 3abb 4d58 253d
00000260: 7bd4 31bf 332f cf3c 7950 41bd 0369 2d3d
00000270: 2057 ddbc 90a6 c2bf e36a bc3d 2d4e febd
00000280: c013 dc3d 055e 5839 dc27 db3c 2470 80bd
00000290: 5727 543f c046 b33f 92ab 3c3d 199b 3e3d
000002a0: dbd5 893f 3190 513d bdf5 a7bd ab6a 3e3d
000002b0: c111 423d f2b0 04c0 dec5 bcbe 725d 6cbd
000002c0: ac52 11bf 200a 0cbf 8020 283d dd80 a7bc
000002d0: 60e5 873f f029 fc3e 7452 dcbc e991 d5bc
000002e0: 668d ac3c 0351 ecbf abe8 bebf af61 89bc
000002f0: 1924 223f 0c0c a63a 4714 393d a5d7 71bc
00000300: 9f6d 38bb 0fd4 04be a4f3 80bf 8e40 73bd
00000310: 26a6 393d 839e 87bf 2fa3 0740 ec80 883c
00000320: 1871 b13f 07ae 613d 3e6c b63c 1e2b 3bbe
00000330: 9b63 aa3c 439f 0fbd f0e5 40bd c1bc 41bd
00000340: f262 2840 2f99 72bc 8221 3abd c9de d53f
00000350: 0d44 db3c bcd0 183d 8649 713d fa01 d1bc
00000360: 2f88 d4bf d147 873e 4c31 4fbd ead2 963c
00000370: e514 333c 364a 83be bd89 c93c 1c86 3dbf
00000380: 40b2 4a3d 3073 91bf 6ce4 dd3c 9a5a 113d
00000390: a485 40bb 4b5d 553b d7ec 1c3f 0f29 043d
000003a0: 4e04 08bf 1297 64bd ebac d2bf f4ad 2f3f
000003b0: 22c9 07bc d174 8b3c 3822 ac3d 796a 2d3c
000003c0: ea07 053e 4ca6 e0bc d24b f73e 35a5 63bc
000003d0: c693 463f 76ac 603f 5dbc 7bbf 3258 233d
000003e0: adef 36bd 3f7c 0b3c 23d0 e93c 12fa 98bf
000003f0: f606 f93a db55 59bf 91ee 2abd f7ca ac3b

net.4.bias f4 [13]
0.30954748 -0.02096787 0.40902305 -0.61211 -0.6924238 -0.40082207 0.20484704 0.07630349
-0.044885546 0.06488648 0.019357007 -0.025243778 0.009812705
00000000: 027d 9e3e cfc4 abbc 786b d13e 3eb3 1cbf
00000010: b042 31bf 8d38 cdbe 6cc3 513e 0145 9c3d
00000020: e8d9 37bd 34e3 843d 9692 9e3c 0acc cebc
00000030: 78c5 203c

log_vars f4 [13]
-1.0554657 -1.0721676 -0.8862963 -0.94899875 -0.9322589 -0.82925946 -0.6986523 -1.940258
-1.4509773 -1.2516973 -1.7245004 -1.7419757 -1.4287779
00000000: 8019 87bf ca3c 89bf 50e4 62bf 95f1 72bf
00000010: 85a8 6ebf 594a 54bf e1da 32bf 605a f8bf
00000020: a0b9 b9bf 9e37 a0bf 6ebc dcbf 0ff9 debf
00000030: 32e2 b6bf
