mixture_mlp.pt (torch, 587248 bytes, 7 tensors)

net.0.weight f4 [512, 21]
000000 ca cb 2f 43 f6 92 7c c3 ef 27 85 43 33 55 5f c0
       175.79605 -252.57407 266.31198 -3.4895751
000010 25 58 80 be ca 3b 3d c2 91 35 1a 43 98 a7 ef c2
       -0.2506725 -47.308388 154.20924 -119.82733
000020 71 86 69 c0 4d 5d b9 bd fc 74 d1 42 eb 0e 91 c2
       -3.6488307 -0.09050999 104.728485 -72.52914
000030 51 cd 38 43 2a 9d 20 bf 5f 25 c8 3e e8 73 ac 41
       184.80202 -0.62739813 0.39091012 21.556595
000040 f8 21 f0 c2 9c c9 16 c3 d0 62 7e 40 d2 87 d7 bd
       -120.066345 -150.78754 3.974781 -0.105239525
000050 04 c7 c0 bb e8 7a bf c1 20 5f a6 42 1f 81 ad 42
       -0.0058830995 -23.935013 83.18579 86.75219
000060 45 ad f1 bf 4c da c5 3f 97 5e f8 40 0d dc c7 3f
       -1.8881003 1.5457244 7.7615466 1.5614029
000070 c0 7e 63 c0 2d b3 77 c0 2f 45 46 40 56 de a2 c1
       -3.5546112 -3.870311 3.0979726 -20.358562
000080 4d 97 91 42 38 38 a5 42 31 72 0a c0 a1 34 0a 40
       72.79551 82.6098 -2.1632197 2.1594622
000090 c4 77 5b c1 e1 01 00 c2 b9 8e 20 c1 e9 fe 20 bf
       -13.71674 -32.001835 -10.034844 -0.6288896
0000a0 11 d4 83 3e 32 8b 52 3e a7 8c 0f 44 75 88 f2 c3
       0.2574773 0.20560911 574.1977 -485.06607
0000b0 92 0f 7d 43 10 17 dc c0 3f 29 dd bf 73 f8 2d 40
       253.06082 -6.8778152 -1.7278212 2.7182891
0000c0 7c 3f 36 c2 09 27 99 c1 5e dc 01 c0 9e 48 bb be
       -45.561996 -19.14406 -2.0290751 -0.3657884
0000d0 1f 50 db 43 4b 53 c8 c3 33 4a 65 43 0f 67 6c bf
       438.62595 -400.65073 229.28984 -0.92344755
0000e0 0a 90 30 3f b2 cc bb c2 41 82 e1 c2 5a 29 08 c3
       0.68969786 -93.899796 -112.7544 -136.16153
0000f0 b4 56 19 40 a8 2d a8 3d 82 5d 14 bc d1 3e bf 42
       2.395917 0.08211833 -0.009055497 95.62269
000100 68 d8 16 c1 74 f6 a5 c2 8a 2f 77 40 d5 ff a2 bf
       -9.427834 -82.98135 3.8622766 -1.2734324
000110 e1 72 e0 c2 2c 27 db c2 4d b6 08 c3 a1 c1 46 40
       -112.22437 -109.57651 -136.71211 3.1055682
000120 84 ab 17 bf 54 90 90 c2 55 31 c2 c2 96 b3 42 c3
       -0.5924609 -72.28189 -97.09635 -194.7015
000130 4b d2 9e 3f 54 cb a6 bf be ed 15 c1 2b c6 81 42
       1.2407926 -1.3030801 -9.370543 64.88705
000140 2a 8a 44 42 83 27 80 c0 0e 4e c2 3f 7f c3 9c bb
       49.134926 -4.004823 1.518007 -0.004784047
000150 9b 15 e5 c1 73 d7 92 c0 57 3f e7 41 81 a1 37 c0
       -28.63555 -4.5888 28.905928 -2.8692324
000160 6d 6b 05 40 80 69 33 42 7d e7 54 42 58 57 8c 42
       2.0846817 44.853027 53.226063 70.17059
000170 93 df 03 c0 2c dc ae 3f 0b ce 0b 42 cf 56 53 42
       -2.060521 1.3660941 34.951214 52.834774
000180 85 19 bf 42 63 b1 61 c0 38 a7 54 3d 7c 79 9f 41
       95.54984 -3.5264518 0.051917285 19.934319
000190 4f 5a 7f c1 5b 08 30 c2 34 93 8f 3f 8a b0 62 bf
       -15.959548 -44.00816 1.1216798 -0.8855063
0001a0 b5 f1 1e be 44 3e 0a 3e 29 91 98 3d ef 4a f9 3d
       -0.15521891 0.13500315 0.07449562 0.121724956
0001b0 28 93 99 3d cf 6e 52 3e c4 71 1f 3e 30 2e 49 bd
       0.07498771 0.20550083 0.15570742 -0.049116313
0001c0 01 5a 1f 3e 70 c7 02 be eb ba 7e 3b f6 61 18 3e
       0.15561678 -0.12771392 0.0038868736 0.14881119
0001d0 d2 66 8a 3d af 5f 7f 3d c2 31 d4 3d 1e ec 4e 3c
       0.06757893 0.06234711 0.10361053 0.012629537
0001e0 c8 d1 46 3e 92 b7 c1 bd 2f 18 90 bd 92 c4 39 3e
       0.19415963 -0.094588414 -0.07035863 0.18141392
0001f0 32 68 93 bd 76 94 2b 3d 00 28 c1 bc 41 b5 20 3e
       -0.07197608 0.04188963 -0.023578644 0.15694143
000200 d0 d6 13 be 44 7f 70 bd 7c 1c 32 be e0 ca 98 bb
       -0.14437413 -0.05871512 -0.17393678 -0.0046628565
000210 dc ca 59 3d e0 a2 43 3c 3b b5 2f 3e 2c ac 0c bd
       0.053171977 0.011940688 0.17158978 -0.034343883
000220 3c 20 21 3d 0f 10 46 be 98 73 ff 3c ef 39 34 3e
       0.03933738 -0.19342063 0.03118305 0.17600225
000230 e4 9a 04 3d 8c 22 0f 3d ea 71 ad 3d a0 1b 53 bd
       0.032374278 0.034945056 0.08468993 -0.051540017
000240 e5 39 0e be fc b5 40 3d c0 52 c6 3c e2 26 15 c4
       -0.13889273 0.047048554 0.02420938 -596.60754
000250 b4 6b ea 43 4c 5d 4f c2 b0 7f 1c 40 ec a6 07 40
       468.84143 -51.84111 2.4452934 2.119563
000260 ec c4 d9 41 b5 5b e9 3c 2a ee c0 c1 a6 a7 56 40
       27.221153 0.028486112 -24.116291 3.3539824
000270 d7 3c ab 3f 1c 11 da c3 ee 0f c0 43 b2 cc cb c2
       1.3377942 -436.13367 384.12445 -101.899796
000280 c2 01 85 be 06 97 81 be 4e 5a db 41 c3 8b f4 42
       -0.25977904 -0.25310534 27.419094 122.27297
000290 5e 92 f7 42 7a fe 27 c0 6e c3 e6 bf ce e7 32 3c
       123.78587 -2.624907 -1.802839 0.010919524
0002a0 6d 86 12 c1 5d 46 77 40 63 51 61 40 17 c7 97 be
       -9.157819 3.8636696 3.5205925 -0.2964408
0002b0 69 c3 c8 3e a4 44 d6 c0 f6 ac cb bf 5e 1c 38 40
       0.39211586 -6.695879 -1.5912158 2.8767314
0002c0 2d da 0c bf 4e 02 bf 3e 64 c2 24 c1 e9 65 c6 3f
       -0.5502041 0.37306446 -10.297459 1.549985
0002d0 36 46 97 40 9f 91 48 bf 31 0f 59 3f ca b3 87 bf
       4.7273207 -0.783472 0.84788805 -1.0601742
0002e0 67 3e b1 3e 85 88 18 3e 63 98 64 3f 12 63 37 bf
       0.34617922 0.14895828 0.89295024 -0.71635544
0002f0 c9 04 15 bd da 0a b0 bd 1a 04 bf 3d 00 08 94 bb
       -0.036381517 -0.0859582 0.09326954 -0.0045175552
000300 f6 28 bd 3d 55 ee 42 3e a0 c9 05 bc fc cc 06 3d
       0.09236328 0.19036229 -0.008165747 0.032910332
000310 d0 a3 89 3c 40 81 1a be f0 48 2f be 02 67 fb 3d
       0.016801745 -0.15088367 -0.17117667 0.122755066
000320 04 7a 3c be 4d 0e 3b be 97 7a 15 3e bf 01 4c be
       -0.1840592 -0.18267174 0.14597546 -0.19922541
000330 1e 98 13 be 0d b3 39 3e f4 ce 1d 3d 9d 9a 1d be
       -0.14413497 0.18134709 0.038527444 -0.15391012
000340 26 2e c1 bd 40 29 7c bd a7 a1 49 42 ed 4a 1e 43
       -0.0943263 -0.061562777 50.407864 158.29268
000350 7d 9e c4 c1 a4 cf 65 3f 60 74 0c bf cf 17 01 c3
       -24.577387 0.8976996 -0.54865074 -129.093
000360 0c 38 0f 43 54 e7 9f c3 cf c4 ac c0 8e e1 bc 3f
       143.21893 -319.80725 -5.3990245 1.4756334
000370 da c9 8d c2 27 ea 59 43 87 77 85 c3 cb d6 3a c0
       -70.89424 217.91466 -266.9338 -2.91936
000380 fa 1c 8e 3e 2b 76 b0 c1 b7 4b ea c1 0b 06 5c c2
       0.27756482 -22.0577 -29.28697 -55.0059
000390 ad 40 3a be a7 81 fd be c9 8c 82 bd d7 ee d1 42
       -0.18188734 -0.4951298 -0.06374509 104.966484
0003a0 04 b3 3f 43 14 25 87 43 d0 db 3c c0 40 3f a2 3f
       191.69928 270.28967 -2.9509163 1.2675552
0003b0 0b 48 72 c1 f1 94 4b 43 ae 48 50 42 08 ee 4b c0
       -15.142589 203.5818 52.070976 -3.1864033
0003c0 04 4f b8 3f fd 4c a7 42 e5 ed 9a 43 56 49 83 43
       1.4399114 83.65037 309.85855 262.57294
0003d0 65 db a9 bf 2a d6 76 3f 5d c7 46 c2 72 7f 69 c2
       -1.3270079 0.9642054 -49.69469 -58.37446
0003e0 72 2b be c2 22 27 63 40 a5 5a d9 bf 03 b4 5e b9
       -95.084854 3.5492635 -1.6980788 -0.0002123863
0003f0 8e db 22 41 4e a0 95 c0 89 46 3d c1 1e ce bb be
       10.178602 -4.6758184 -11.8297205 -0.36680692

net.0.bias f4 [512]
000000 31 39 e9 3e 22 e8 31 3f 7a b1 cc 3e 88 21 25 bf
       0.45551446 0.6949483 0.39979154 -0.6450429
000010 58 95 33 3f c3 0c d5 bd f2 c6 b4 bd bc eb c1 bc
       0.70149755 -0.10402825 -0.08827008 -0.023671977
000020 27 86 d4 3d 68 c9 17 be ab c3 1d 3f 00 97 27 3f
       0.1037715 -0.14822924 0.6162669 0.6546478
000030 87 ee 1d bd 89 83 5d be 9d 7d 24 3f 46 58 b6 bd
       -0.038557556 -0.21632208 0.6425417 -0.089035556
000040 03 6b 49 be 9a f8 35 bf 3f a6 92 ba 65 66 f7 bd
       -0.19669728 -0.7108246 -0.0011188461 -0.12080077
000050 dc a0 9c 3e 56 84 4e be a2 d9 57 3c 00 01 75 3a
       0.30591476 -0.2016767 0.013174446 0.00093461573
000060 80 b3 8a 3a c9 e0 21 3f 8c b1 54 be 6d 92 06 be
       0.001058206 0.6323362 -0.20770854 -0.13141795
000070 92 6f a7 be fb 8f 5b be a4 31 14 3e 9f 02 75 3e
       -0.3270231 -0.21441643 0.14472061 0.23926781
000080 ec 17 e6 3e cc a6 51 bd 00 5a a1 bd ba e0 a0 3d
       0.44940126 -0.05118446 -0.07878494 0.07855363
000090 9f 6b b4 be ae 0a 17 bf 6b 39 f1 3d 30 e0 3c bf
       -0.35238358 -0.5900067 0.1177853 -0.7377958
0000a0 d9 c6 50 be 86 5e 1a bf a6 d3 02 bc 1e 9f 35 3f
       -0.20388354 -0.6030048 -0.007985031 0.7094592
0000b0 1a 31 3b be 63 be 39 be f4 86 3e 3f 08 b1 19 3f
       -0.1828045 -0.18139033 0.7442467 0.60035753
0000c0 61 5e 14 bf 7a a1 05 be 97 6c 4c 3f 0a e6 0a be
       -0.5795651 -0.1304988 0.79853195 -0.13564315
0000d0 82 c2 34 be c8 f9 1a be 0c 79 35 3f 5b 00 ec 3d
       -0.17652324 -0.15134346 0.7088783 0.11523505
0000e0 87 e4 02 be 06 76 d7 be 05 75 b7 3a 90 d8 34 3c
       -0.12782489 -0.42082232 0.0013996667 0.011037961
0000f0 e2 13 09 be 2c c3 43 be 1d 09 07 bd 7c 66 01 bf
       -0.13386491 -0.19117421 -0.032967675 -0.50547004
000100 31 14 f1 3e 3b 80 30 bf 6f 15 f3 3e da 4c 8c bd
       0.47085717 -0.68945664 0.4747729 -0.06850596
000110 72 29 50 3e e3 e3 a8 bd 62 ae c8 be 09 7d 8c bd
       0.2032831 -0.08246591 -0.39195544 -0.06859786
000120 09 ba 23 bd 84 e0 15 bd 86 f8 06 3f 6e 31 10 be
       -0.03997234 -0.036591068 0.52722967 -0.14081356
000130 de 97 6e bd 08 70 96 bd 87 25 e8 3e ae e4 e2 bd
       -0.0582503 -0.07345587 0.4534113 -0.110787734
000140 ce 9c ef 3e ea 32 ca 3e ab 86 20 3f fd c0 5a 3f
       0.4679932 0.3949197 0.62705487 0.85450727
000150 f8 58 98 bd 46 2c bd bd f4 34 29 3f fb c1 9a 3e
       -0.074388444 -0.0923696 0.66096425 0.3022612
000160 fc 52 01 3f 7c 89 37 3f 30 0e 74 bc d9 fc 20 3f
       0.5051725 0.7169416 -0.014895961 0.62885815
000170 16 ee 4e bf e8 cd 3d bf 9d cb 1c 3f d1 a7 9d 3d
       -0.8083204 -0.74142313 0.6124819 0.07698024
000180 56 49 83 bf b5 cb 4b bf c7 3e f8 bd 70 9b bd bd
       -1.0256755 -0.7960771 -0.12121349 -0.09258163
000190 63 51 36 3d 89 d7 04 bf 21 c8 ff bd f9 ec ad be
       0.04451121 -0.5189138 -0.124893434 -0.33969858
0001a0 1a bd 2f be f2 79 32 bf 7e 78 fa 3e d2 fd 0d be
       -0.1716198 -0.69717324 0.48920053 -0.13866356
0001b0 e1 7a 25 3f 96 c1 3b be 36 a2 21 be 66 a3 2a be
       0.64640623 -0.18335566 -0.15784535 -0.16663894
0001c0 9f 05 6f 3e eb 81 90 be 08 54 50 bf 01 bb b7 3e
       0.23341988 -0.2822412 -0.8137822 0.3588486
0001d0 aa e6 39 be 55 f5 f6 bd 63 1d 4b bf 66 4f 1c bd
       -0.18154398 -0.12058512 -0.79341716 -0.038161658
0001e0 fa c6 ae 3e f8 22 5b bd ee 2a ef 3e 5f 30 48 be
       0.34136182 -0.053500146 0.4671244 -0.19549702
0001f0 82 b5 34 be 4c d5 76 3f 54 b0 12 be b8 83 ae bb
       -0.17647365 0.96419215 -0.14325076 -0.0053257607
000200 83 53 d4 bd b0 fb 18 be fa 60 4d be d2 f1 23 bf
       -0.10367491 -0.14939761 -0.20056525 -0.64040864
000210 c2 d3 69 bf a2 0d cf bd 33 b7 06 3f da 65 26 be
       -0.9133874 -0.10110022 0.5262329 -0.16249791
000220 38 74 38 bd 08 bd e6 bd 7e f2 f4 bd f7 5b c4 bd
       -0.04503271 -0.112665236 -0.11960314 -0.095878534
000230 92 d7 de 3d 47 8f 4b be 91 ee 6e 3d 3f 9e 3e be
       0.108809605 -0.19878875 0.058332983 -0.18615054
000240 de 7f b4 3e 6d 5d 5d bf ad 56 50 be 78 ba 0a bd
       0.35253805 -0.8647068 -0.20345564 -0.033869237
000250 23 24 c2 be d9 e6 2d 3f a3 cc 42 be 6e 81 2b 3f
       -0.37918195 0.6793037 -0.19023375 0.6699437
000260 81 b0 0d 3e c8 8d 3e 3e 85 75 e9 3e 0b 42 03 3f
       0.13836862 0.18608773 0.45597473 0.5127265
000270 8f 52 27 bf 60 ba 1b be d6 4f e2 be 97 7a 12 3c
       -0.6536035 -0.15207815 -0.44201535 0.0089403605
000280 c9 51 26 3f e2 ab 09 be 6a 10 2a be 62 ea 6b be
       0.64968544 -0.13444474 -0.16607824 -0.23038629
000290 19 14 49 bf 42 c5 81 be d0 5f 8b bd 2b 90 e4 be
       -0.7854629 -0.25345808 -0.06805384 -0.4464124
0002a0 e6 56 03 3f 9c 59 1a be dd fd 45 be fc 05 85 3e
       0.5130447 -0.15073246 -0.19335122 0.25981128
0002b0 3a cb 9a be ab 08 81 bf 99 fb e7 bd b1 1d 4b bd
       -0.30233175 -1.008077 -0.11327285 -0.049588863
0002c0 70 0b 34 bf 25 da ed bd 14 05 c4 be 44 88 fc bd
       -0.7032995 -0.116138734 -0.38285124 -0.12330678
0002d0 0c 2a 18 be c2 0a 01 be 22 f2 3e be f0 e2 92 bd
       -0.1485979 -0.1260176 -0.18647054 -0.07172191
0002e0 7a d1 f8 bd 40 22 9f bd ed 80 1f 3f ed 62 82 3e
       -0.121493295 -0.077702045 0.623061 0.254661
0002f0 20 2b 1c 3f f3 a3 2c 3f e3 4f 29 3f 86 a9 35 3f
       0.61003304 0.67437667 0.6613752 0.709618
000300 a5 0a 68 3e 0f fd 58 bf b8 c8 18 3f c1 cf fb be
       0.2266031 -0.84761137 0.5968127 -0.4918194
000310 d5 71 3a be c4 77 5d be 12 43 9a bd 9d b7 23 be
       -0.18207486 -0.21627718 -0.07532324 -0.15988012
000320 f8 91 61 3c a8 d6 1e 3f 56 8a 78 3e 3e d9 fa 3d
       0.013767712 0.6204629 0.24271521 0.12248467
000330 41 d4 ca bd 2d a4 2c 3e b6 de 0b 3f d3 77 de 3e
       -0.099037655 0.16859503 0.54636705 0.43450794
000340 f2 d7 33 be 63 66 04 be 88 f6 31 3f 8f 4b 57 be
       -0.17562845 -0.12929682 0.695168 -0.21024917
000350 fd 29 b3 bd 36 2d 91 bd 2a 54 86 be be 7a 32 bf
       -0.08748243 -0.070887014 -0.26236087 -0.6971854
000360 f9 72 e3 be b8 df be bd 73 e7 a5 3d 11 d1 a5 3e
       -0.44423655 -0.09320015 0.08100786 0.32386068
000370 e6 2c 8c bd 4c 56 95 be c0 46 97 3c 2b 76 c3 bd
       -0.06844501 -0.29167402 0.018466353 -0.09544023
000380 68 1b 3b be 94 62 da bd d6 f6 76 3e f9 66 3f be
       -0.18272173 -0.106633335 0.24117598 -0.18691625
000390 ac 85 46 3f 74 5b e1 bd c0 c0 20 3f 56 cb 38 be
       0.7754772 -0.110037714 0.62794113 -0.18046317
0003a0 d7 4d 9e bd 3b bc db 3e d8 5f 1d be c2 c9 a1 bd
       -0.077296905 0.42917046 -0.15368593 -0.078998104
0003b0 4b a3 24 3f 1b 93 64 be 0c 86 be bd 79 52 8a 3e
       0.64311665 -0.22321741 -0.09302911 0.27016047
0003c0 a6 85 16 3e 60 bf 8f bb 5d ef de 3e 3e 3d 2c be
       0.1469942 -0.0043868273 0.43541995 -0.16820237
0003d0 ea 9a 21 be 6e 1d cc 3e 5d f1 c0 bc 1c 21 20 3f
       -0.15781751 0.39866203 -0.023552591 0.6255052
0003e0 f4 d7 98 bd 2b 0d e5 bd 96 f6 61 3d 2a e6 c4 bc
       -0.07463065 -0.11184152 0.055166803 -0.024035532
0003f0 2b 59 13 bf 97 cc 3a be 24 5e 09 bf b5 dd 51 3f
       -0.57557935 -0.18242107 -0.5365927 0.81978923

net.2.weight f4 [256, 512]
000000 45 ff 84 bc 50 63 6b bd 30 6e 1f bd 0e f8 19 bc
       -0.016235003 -0.05746776 -0.038923442 -0.00939752
000010 c0 55 9b bd 25 f5 18 3d 87 58 2f 3d 9c 60 90 bd
       -0.07584715 0.037343163 0.042809036 -0.07049677
000020 cd 73 60 bd 52 39 d7 3c 2c 06 14 bd 17 8f 0f ba
       -0.054797936 0.02627245 -0.0361387 -0.0005476339
000030 a5 90 0a 3d 5c 2a 0e bc 33 49 28 bd b8 98 94 bc
       0.03382935 -0.008677091 -0.041085433 -0.018139228
000040 e9 ea a4 3b 00 7a af 3b 26 34 9e bd 58 d2 f6 bc
       0.0050328863 0.0053551197 -0.0772479 -0.030129597
000050 eb 8a 91 bd 78 7e 16 bd 57 76 7c bc 4c 7e 51 bc
       -0.071065746 -0.036741704 -0.015409074 -0.012786459
000060 f1 bf 1c 3d b0 d4 0e 3c 78 fa 31 3c 6a 84 5c bd
       0.038268987 0.008717701 0.010862939 -0.053837217
000070 a7 76 a0 bc ec 0f 44 3c ee 7c 87 bd 22 13 65 bd
       -0.019587828 0.011966687 -0.06615625 -0.05592645
000080 44 aa 15 bd c8 7c 2f bd 3e 0f 21 bd 0e 4c e4 3a
       -0.03653933 -0.04284361 -0.039321177 0.0017417686
000090 77 4e a0 bc 64 d7 4c bd 9f f9 69 bd 30 94 94 bd
       -0.019568665 -0.0500101 -0.057122823 -0.07254827
0000a0 e8 a7 f8 bc 62 06 79 bd 2a d8 89 bd c3 29 a5 ba
       -0.030353501 -0.060797103 -0.06730683 -0.0012600947
0000b0 30 c9 1d bc eb 1c 8d bd 1e c8 5c bd 55 a7 22 3d
       -0.009630486 -0.06890281 -0.053901784 0.03971036
0000c0 8d 42 6b bd f0 20 54 bc f3 29 8c bd 3f 6c 13 3d
       -0.057436515 -0.012947306 -0.06843939 0.035991903
0000d0 7e 3a f8 3c 24 02 3f 3c 0e 49 13 bd ba c1 7d bd
       0.030301329 0.011658225 -0.035958342 -0.06195233
0000e0 98 28 9a bd 32 8a a9 3c 28 8c 63 bd e3 7d 09 bd
       -0.07527274 0.02069578 -0.055553585 -0.03356732
0000f0 f0 8a 69 3b a0 ff 27 3b 41 5b 84 bd d7 fb 24 bd
       0.0035635792 0.0025634542 -0.06462718 -0.040279236
000100 fa e1 23 bd c0 bf f5 bb 1e 7f 52 bd f4 c7 9a bc
       -0.04001043 -0.007499665 -0.05139076 -0.018894173
000110 cc 5d 15 3c ea fc 9e 3c f2 53 83 bd 32 0e d0 3c
       0.009116601 0.019407708 -0.06412496 0.025397394
000120 f2 0b c5 3c 7d c3 12 bd 57 ff 0d bd 93 f7 0a bd
       0.024053548 -0.035830963 -0.03466734 -0.03392751
000130 95 40 18 bd bb af 31 bd 88 73 b8 bc 10 d9 29 3c
       -0.037170965 -0.04338048 -0.022516027 0.010366693
000140 a1 b7 1a bd c7 a8 9c bd e8 5e dc ba cf 09 a4 bc
       -0.03777278 -0.07649379 -0.0016812952 -0.020024208
000150 12 dd a6 3c 04 24 46 3c ec ba 8a bd ce c6 7b bc
       0.020369086 0.012093548 -0.06773934 -0.015367223
000160 b2 f6 0e bd ad 5a 34 bd bc 76 90 bc 9c 62 7f bd
       -0.034903236 -0.044031788 -0.017634742 -0.0623499
000170 fb 36 94 bd d9 84 47 bd 96 80 9f bd 54 6c 80 bd
       -0.07237049 -0.048710678 -0.07788198 -0.06270662
000180 e7 a2 15 bd e7 51 03 bc 7e a8 02 bd db b5 e6 3a
       -0.03653231 -0.0080151325 -0.031898968 0.0017601805
000190 3a 75 50 bd 9d 3c 9c bc e6 d1 81 bd 54 4f 80 bd
       -0.050893046 -0.019071871 -0.06338863 -0.06265131
0001a0 3b b3 92 bd b6 07 5d bd c0 d0 92 3b e6 8b 67 bc
       -0.07163092 -0.05396243 0.0044804513 -0.0141324755
0001b0 aa 45 7c bd 63 80 95 bd 8e b6 d8 3c 29 80 e4 bc
       -0.061589874 -0.072998784 0.026454236 -0.027893143
0001c0 77 36 97 bd 7f 2c 29 bd 05 ba b5 bc 90 f7 31 bd
       -0.07383435 -0.0413022 -0.022183428 -0.043448985
0001d0 b2 15 a8 3c ef a4 01 bb fb 8e 5d bd d3 31 1f 3c
       0.020518158 -0.0019782146 -0.054091435 0.009716469
0001e0 ff e8 31 bd 3a 6f 22 bd 29 8c 88 bd 80 92 82 b9
       -0.043435093 -0.039656855 -0.066673584 -0.00024904683
0001f0 66 23 9a bd 57 cc 40 bb 95 ef 0f 3d 77 da 56 bd
       -0.07526283 -0.002941867 0.035140593 -0.052454438
000200 d1 76 04 3d d6 f5 07 3b 4c e4 7b 3c df 74 7b 3c
       0.032339875 0.0020745895 0.015374254 0.015347688
000210 f5 39 87 bc 62 e0 b3 bc 29 d5 64 bd 5f ad ff bc
       -0.016507128 -0.02195758 -0.055867348 -0.0312106
000220 99 6f 83 bc 9a 46 7c bc 55 03 1a 3d c8 59 34 bd
       -0.016044425 -0.015397692 0.037600834 -0.044030935
000230 81 77 62 bd f8 e7 a5 bb 35 2f 88 bd de 92 10 bd
       -0.05528975 -0.005063053 -0.06649629 -0.035296313
000240 81 a2 bd 3b 19 e8 26 bd 18 0b 30 3c 42 12 c1 3c
       0.0057871942 -0.04074869 0.010744832 0.023568276
000250 14 71 07 bb 9b f4 19 bd 45 bb ad bb af a0 d6 bb
       -0.0020666765 -0.03758679 -0.0053018653 -0.0065499167
000260 4f 09 85 b9 50 c7 d2 3b df 84 8e bd a0 1e 57 bd
       -0.00025374672 0.0064324513 -0.06958937 -0.05251944
000270 6d 2a 74 bc c0 21 e4 3b 93 35 17 3d 38 d7 9f bb
       -0.014902693 0.006962031 0.036916327 -0.004877951
000280 05 75 1b bd b0 f2 ed 3b 1f 0b 01 3d ac bb 18 bc
       -0.037953395 0.0072615966 0.031504747 -0.009322088
000290 35 51 b7 bc f5 b3 90 bc 70 b8 2b 3c 9f 9b 97 bd
       -0.02237759 -0.017663935 0.010480985 -0.07402729
0002a0 9b 94 e3 bc 28 bd 9c 3b 9b 5b aa bc 50 ca 21 bd
       -0.027780822 0.0047832914 -0.020795634 -0.03949958
0002b0 a2 84 d7 bc b0 3f 48 bd 45 24 0a bd c5 cb 6c bd
       -0.026308361 -0.048888862 -0.033725996 -0.057811517
0002c0 f4 f1 e1 3b 1f 9b ca bc a4 10 96 3b 37 cc 8a bc
       0.006895298 -0.02473217 0.0045796204 -0.01694308
0002d0 b4 16 6f 3c 94 84 76 3c 87 c3 97 bc 26 83 e2 3c
       0.014592815 0.0150462575 -0.018525852 0.027650427
0002e0 64 57 47 bc 1b 54 f1 bc 77 ae df bc 09 c0 98 bd
       -0.012166832 -0.02945905 -0.027304871 -0.07458503
0002f0 41 d0 6d 3b c2 32 10 bd c1 82 3c bd 7f 04 00 bc
       0.003628746 -0.035204656 -0.046023134 -0.007813572
000300 6b fb 85 bd 82 8d 21 bd d7 0b 29 bd 5d 06 8c bd
       -0.06542095 -0.039441593 -0.041271057 -0.06837151
000310 52 f4 e1 3c d8 b6 d8 3b 74 20 8c bc 8c 18 53 bd
       0.027582321 0.0066135935 -0.017105319 -0.05153708
000320 4d c2 64 3b da fe 97 bd 37 fc ee bc 33 66 48 bc
       0.0034905851 -0.07421656 -0.029173 -0.012231397
000330 55 2b 1f bc f0 88 5e bd bd b0 69 bc 29 8d 24 3d
       -0.009714921 -0.054329813 -0.014263329 0.040173683
000340 5a 0a be 3c a6 92 8b 3c 39 1e 91 bd 22 06 6d bc
       0.023198295 0.0170377 -0.07085843 -0.014466794
000350 9e 1b 8c bd 00 90 6a b8 69 6a 95 bc bf a0 a3 bb
       -0.06841205 -5.5924058e-05 -0.018239217 -0.0049935277
000360 59 14 0f bd af ff 2c bd b3 bd 46 bd d6 84 bb bb
       -0.034931514 -0.042236026 -0.048520755 -0.0057226224
000370 28 4d 0e bd 79 e0 b9 bc 1f c6 28 3d 18 1c c4 bb
       -0.03474155 -0.022690045 0.041204568 -0.0059847943
000380 0d 53 e1 bc 45 e5 a2 bc 20 91 d7 bc 56 3c 1a bd
       -0.027505422 -0.019884715 -0.026314318 -0.037655197
000390 16 56 e0 bc 60 68 6c bb 50 40 10 bd 43 48 11 3d
       -0.027384799 -0.0036072955 -0.035217583 0.035469305
0003a0 fa 0a 85 bd ce 0a c2 bc 2e 3a af 3c 1e 0b d3 3c
       -0.06496234 -0.023686793 0.021390047 0.025762137
0003b0 21 b1 71 bd 31 db a1 bc 60 7d 25 bd 0a 71 4b bd
       -0.059006814 -0.019757839 -0.04040277 -0.04966835
0003c0 12 30 11 bd e0 fd a9 ba ab cf 7f 3c 30 87 11 bb
       -0.035446234 -0.0012969337 0.015613477 -0.0022205822
0003d0 fd 17 16 bd ad 87 96 bd b9 20 6c bc 21 f8 97 3a
       -0.03664397 -0.07350097 -0.014412099 0.0011594334
0003e0 c0 09 e8 3a c0 40 51 ba 8f 9e 0d 3b d7 f9 0b 3c
       0.0017703101 -0.0007982366 0.00216094 0.008543453
0003f0 19 53 f4 bc 80 81 7d 3a 22 00 03 3c 69 a8 76 bc
       -0.02982478 0.0009670481 0.007995637 -0.015054801

net.2.bias f4 [256]
000000 c7 40 6e bd 38 5b 13 3c 8d be 3c bd 23 ae 1f bf
       -0.058167245 0.008993916 -0.04608016 -0.62375087
000010 6a 63 63 bd da 46 31 bd d4 ff ae bf 02 8b 1f 3f
       -0.05551473 -0.04328046 -1.3671823 0.62321484
000020 13 c6 63 bd 52 65 80 bd f3 11 a0 be 30 8f 5e bd
       -0.05560882 -0.06269325 -0.31263694 -0.054335773
000030 ec fe 83 3f 97 74 7d bd 28 89 78 bd ec 9c 1c bd
       1.0312171 -0.061878767 -0.060677677 -0.03823559
000040 7c 96 56 bc fb 79 03 be 50 3f b5 3e d6 5c 2a bd
       -0.013097402 -0.128395 0.35399866 -0.04159244
000050 e1 5c a3 3d 1e 6c 4a bd db f1 42 bd db ae 5f bf
       0.079766996 -0.049419515 -0.047593933 -0.87376183
000060 59 38 7c 3d a9 19 a7 bc 7c 00 2d 3f 53 66 37 bd
       0.061577175 -0.020397978 0.67578864 -0.04477532
000070 e2 74 68 bd 23 ea 84 bd aa 74 a0 be bc 1d a4 bc
       -0.056752093 -0.064899705 -0.31339008 -0.02003371
000080 c8 14 65 bf 46 5d b2 3e a1 e8 8a bc 30 60 af bc
       -0.89484835 0.34836787 -0.01695663 -0.02140817
000090 a9 45 93 bd 5b 53 3a bd dd 20 d7 bb b0 b5 97 bd
       -0.07191021 -0.04548965 -0.006565197 -0.07407701
0000a0 7e 4c 9d 3f 65 20 37 3f f8 00 84 3e df f6 f2 3e
       1.2288969 0.71533805 0.2578199 0.47453973
0000b0 59 3d 9e 3b a5 4d 8e bd cc f6 ee 3e fa d8 e4 bc
       0.0048290906 -0.06948403 0.46672666 -0.027935494
0000c0 fa 05 88 3e 25 40 97 be 73 c7 56 bf 84 ab 7c bd
       0.2656706 -0.29541126 -0.83898085 -0.061687008
0000d0 4e ed fa be ad ff bd 3f dd 87 44 bf 31 3e 0f 3e
       -0.49009174 1.4843651 -0.7676981 0.13988568
0000e0 48 9c 74 bd 7c f6 b6 3a 20 85 e8 be e0 0e 25 3f
       -0.059719354 0.0013958956 -0.45414066 0.6447582
0000f0 aa 53 f9 3d 42 93 96 bc de 54 3c bf ba 7f fc bc
       0.12174161 -0.018380765 -0.73567 -0.030822624
000100 f2 fd 6f be 5b 00 2b 3f db 78 b1 3d 06 3b 21 3e
       -0.23436716 0.6679742 0.086656295 0.15745172
000110 a8 2b 92 bc 94 12 6a 3a 53 42 b3 3b 7a fd 9a 3e
       -0.017843083 0.000892916 0.005470553 0.30271512
000120 43 43 e1 bb 2c 63 cc be 57 32 72 bd 40 c4 b6 be
       -0.0068744733 -0.39919412 -0.05913004 -0.35696602
000130 c7 da b9 bc 69 6e 51 3f 48 f0 0f 3f 66 01 44 bd
       -0.022687329 0.818091 0.56226015 -0.047852896
000140 a0 bb 81 3f 78 d4 79 bd f0 97 4a bd 28 d6 ff bc
       1.0135384 -0.06099364 -0.049461305 -0.031230047
000150 54 fc 49 bd ef 79 1f 3f 05 6a 33 bd 58 88 37 3f
       -0.049312904 0.6229543 -0.04380228 0.7169242
000160 51 5e ec 3e da 4f 7c bd e5 c8 21 bd 66 44 2d bd
       0.46165708 -0.06159959 -0.03949823 -0.042301558
000170 51 72 88 bc 58 b1 36 bd 53 7b 86 bd 53 bd 88 bb
       -0.016656073 -0.044602722 -0.06566491 -0.00417296
000180 a2 d8 55 bd 22 17 c5 3e 60 88 49 be f8 dd 10 bc
       -0.05220855 0.3849421 -0.19680929 -0.008841984
000190 6e 39 63 bd 56 40 19 bf 0b 0f 9d bb d8 6d 80 bd
       -0.05547469 -0.59863794 -0.004793053 -0.06270951
0001a0 9f 9c 72 bf c1 51 59 bd ed a5 c4 be 84 9f dc bd
       -0.94770235 -0.053056482 -0.3840784 -0.10772613
0001b0 86 15 84 ba 88 1d b8 bf db 77 48 bf b8 f2 79 3e
       -0.0010077215 -1.4384012 -0.78307885 0.24408996
0001c0 d0 41 13 bc ec f8 c3 be 19 a5 8d bf 20 2f a4 3b
       -0.008987859 -0.3827585 -1.1066009 0.0050105006
0001d0 b0 45 9c ba 2f 4a 1b bc c9 be 88 bc 39 57 48 bd
       -0.0011922624 -0.009478136 -0.016692536 -0.048911307
0001e0 f0 37 80 3c 14 c9 87 bc 79 08 5a bc 28 c3 84 3d
       0.015651673 -0.016575374 -0.013307684 0.064825356
0001f0 02 b3 8d bc 5a e5 39 3f 32 8b 24 bd bc 91 14 bf
       -0.017297272 0.7261559 -0.04017181 -0.58034873
000200 0d 1c c7 be 28 37 64 bd c8 82 d0 bc a2 11 a6 bc
       -0.3888859 -0.055716664 -0.025452986 -0.02027208
000210 40 3a b5 3e f8 d7 6e 3d 44 f3 ca 3b 84 ed 16 3f
       0.35396004 0.058311433 0.0061935503 0.5895617
000220 5e 1f 77 bf 00 82 4f bd 10 0d fe 3e f0 c4 0e 3b
       -0.9653224 -0.050661087 0.4961934 0.0021784864
000230 c9 5f ea bd 04 99 19 bc c2 c3 46 bd 38 42 cc 3e
       -0.11444051 -0.009374861 -0.048526533 0.3989427
000240 2d fd 84 bc e0 99 35 be d4 78 68 bd 14 e4 6f bd
       -0.016234005 -0.1773448 -0.056755856 -0.05856712
000250 b3 51 b0 bd 6e 55 e2 bc 84 89 22 bc fa d8 80 bb
       -0.08609333 -0.027628627 -0.009920482 -0.0039321156
000260 9d 37 88 be 3a 21 29 bd 35 bf 34 bd 76 3e 34 bd
       -0.2660493 -0.041291453 -0.04412766 -0.04400488
000270 21 25 14 bc d7 49 68 be ea d7 d4 3d f2 5c a6 bd
       -0.009042055 -0.22684418 0.10392745 -0.08123197
000280 57 df a5 bd 7c 30 4b bd 3c 8f 53 bd 9f 9e 98 bd
       -0.08099239 -0.049606785 -0.05165027 -0.074521296
000290 01 a1 21 be 21 38 bd be 3f 3a 0d bd 1d 24 35 bd
       -0.15784074 -0.36956885 -0.034479376 -0.044223893
0002a0 a6 fb 7c 3f 70 c5 7f bd 8e 3e e7 3e e6 2c ed bb
       0.98821485 -0.06244415 0.45164913 -0.0072380183
0002b0 dd e4 5f bc 83 2d 69 be 41 7d 7d 3f c3 b7 1f bb
       -0.013665405 -0.22771268 0.9901925 -0.0024371005
0002c0 77 0a 94 bd 22 07 8e 3c 04 3d 0b bd d9 63 76 bd
       -0.072285585 0.017337386 -0.033993736 -0.060153816
0002d0 38 7b 5c bf 44 ce e5 bd 41 57 ba bc eb ab 72 bd
       -0.86125517 -0.11220983 -0.022746684 -0.059245985
0002e0 9d 35 b2 3c 8f 97 21 bf 17 fe 0c 3f 06 39 61 bd
       0.02175408 -0.63121885 0.5507521 -0.054986022
0002f0 16 ab 0c 3f 96 f6 84 bd 87 0b 8b bd 77 47 06 bd
       0.54948556 -0.06492345 -0.06789308 -0.032782998
000300 83 5d 39 bd e2 8a cf 3d a8 71 28 bf 5a fa 27 bd
       -0.045255195 0.10133912 -0.65798426 -0.04101024
000310 37 82 00 bc d7 12 9c bf 6d db f5 bd b0 82 26 bd
       -0.007843546 -1.219325 -0.12004743 -0.040651977
000320 4f bd 23 bf 79 8e 42 bd 71 85 7a bd 8c 14 81 bf
       -0.63960737 -0.047499154 -0.061162416 -1.0084395
000330 30 aa d7 3b b7 79 32 bd 44 b9 c8 bc db e0 bf bc
       0.006581567 -0.043573108 -0.024502404 -0.02342265
000340 e6 fd 0c 3f ab 6d 64 bd 68 c4 b3 bc 02 c8 26 bf
       0.5507492 -0.05576865 -0.02194424 -0.6514894
000350 3c 5d e8 bc 2b 8d 52 bd 6c f8 35 bd 34 0e 8d bd
       -0.02836477 -0.05140416 -0.044426367 -0.06887475
000360 d5 99 56 bf f7 b8 2e bf 22 2c 6b bd 11 4c d3 bb
       -0.8382848 -0.68250984 -0.057415135 -0.006448277
000370 6f 36 16 bc 91 12 7b 3f e3 64 8a bc d5 ea 86 be
       -0.009168251 0.98075205 -0.01689381 -0.26351038
000380 71 8e ff bc 17 14 38 bf 4d aa 5b bd e3 0e 80 bd
       -0.031195851 -0.71905655 -0.05362921 -0.062528394
000390 07 2c 44 bd 69 fa 7c bd 20 ba dd 3d 79 7d b0 bb
       -0.04789355 -0.061762247 0.10826516 -0.0053860513
0003a0 d1 6c 3a 3f 22 9e 69 3c 14 e2 8b bf d6 a7 b8 be
       0.7282229 0.014258893 -1.0928369 -0.3606555
0003b0 9d df af bc 2a 68 e1 bc c2 dc 96 bc 8a fd 18 bd
       -0.021468932 -0.02751549 -0.018415812 -0.03735117
0003c0 5a 81 a1 bf 7c 29 ae bc be 21 79 3e e7 0b 40 bd
       -1.26176 -0.021260016 0.24329278 -0.04688635
0003d0 71 8b 51 3f f0 1c 59 3f f6 23 05 be 83 6e 72 bd
       0.81853396 0.8480978 -0.13002 -0.059187423
0003e0 87 d7 2c bd c9 f8 68 bc 64 90 a9 bd 51 60 8b bf
       -0.04219773 -0.014219471 -0.082794935 -1.0888768
0003f0 d5 db 08 bd 9e 8b 1b be 9b 52 77 bd d0 5c 5c bd
       -0.033412773 -0.15189978 -0.060381513 -0.05379945

net.4.weight f4 [13, 256]
000000 02 87 3f 3c e7 09 a0 3d 43 e9 7b 3d d4 e9 95 40
       0.011689903 0.07814389 0.061501753 4.6847935
000010 6d 48 31 bd 10 07 00 bc 42 d2 e4 3f bc f4 8e bf
       -0.04328196 -0.007814184 1.7876666 -1.1168437
000020 10 04 17 3d 8f 57 95 3c 18 5f f2 3e 65 30 18 3d
       0.03686911 0.018230228 0.47338176 0.037155528
000030 74 95 0d bf fc 94 55 bc f5 e0 6c bb 5a 6e b3 bb
       -0.5530617 -0.013036009 -0.0036144827 -0.0054758014
000040 46 0f 7a bd 82 69 c1 bf c3 21 8b 3f 27 50 f5 bc
       -0.061049722 -1.5110323 1.0869678 -0.029945446
000050 b7 e5 b9 3f a6 bc 0b bd 12 03 21 bd dd 45 30 bf
       1.4523228 -0.034115456 -0.03930957 -0.688566
000060 10 2c b3 3e bb bc 11 3d 4c f5 15 3f 62 e9 1e bd
       0.34994555 0.035580378 0.5857742 -0.03879679
000070 05 31 e5 3b 5b 7d be bc b8 d2 80 be c7 2c 45 bd
       0.006994369 -0.023253134 -0.25160766 -0.048138406
000080 6f 0d 38 c0 bb 5b 5e 3f bf 79 89 3d 00 7b b9 3d
       -2.87582 0.8685872 0.06712674 0.090566635
000090 57 9d 90 bd 84 da 05 3b 67 b9 90 ba 4f 6d 82 3d
       -0.0706126 0.0020424435 -0.0011041582 0.06368505
0000a0 63 f3 1d bf b2 02 ae bf da 53 b3 3f f8 cc 63 3e
       -0.61699504 -1.3594573 1.4009964 0.22246158
0000b0 c8 bc 24 3d 11 2c ed 3c 91 09 34 3f 23 cd 34 3d
       0.0402191 0.028951677 0.703271 0.044140946
0000c0 c0 3a 0f 3f a4 32 d2 3e 32 ed 2d 40 6b a7 2e 3d
       0.5594902 0.4105426 2.7176023 0.04264013
0000d0 46 28 ef bd 9e cf 56 3f ce 98 2e c0 dd ab bb 3c
       -0.116776034 0.8391055 -2.7280765 0.0229091
0000e0 42 43 8e bd e5 29 25 3b 92 20 f5 bf 8f 40 ba bf
       -0.06946422 0.0025201973 -1.9150565 -1.4550952
0000f0 ab 6b ff 3f 37 a3 29 bd b5 eb 81 3e 54 ac 44 bd
       1.9954733 -0.04141542 0.25375143 -0.048015907
000100 47 8e 85 bf c3 94 65 bc a9 33 70 bf d8 93 6a bf
       -1.0434045 -0.014012518 -0.9382883 -0.9163184
000110 96 e3 cc bc f8 d8 9b bc 4a 89 5e bd 6a 50 2c c0
       -0.025010865 -0.019024357 -0.054330148 -2.692408
000120 a6 82 9b 3c 88 22 df bf bc 35 90 3c 16 b1 fc 3f
       0.018983196 -1.7432413 0.017603748 1.9741542
000130 e7 56 12 bd 4b 20 02 3f 14 f9 36 bf d1 83 97 3c
       -0.035727408 0.50830525 -0.71473813 0.018495472
000140 ce 62 bb ba 60 61 68 3a 46 9e 71 bd c4 c7 0b 3c
       -0.0014296414 0.00088646077 -0.058988832 0.008531515
000150 31 cb 8a bc c0 6b 4e bf 5c 39 e9 bc 72 c9 7d bf
       -0.016942592 -0.80633163 -0.028469734 -0.99135506
000160 a9 10 84 3e 54 c2 68 3c 3e 21 2b 3c 8a 81 17 bd
       0.2579396 0.014206488 0.010444937 -0.036988772
000170 0e 4d 5d 3c a0 81 22 3d ec 75 9e 3c ce 82 18 3d
       0.013507141 0.0396744 0.019343339 0.03723412
000180 9b 29 63 3d 51 5e a6 3f ac c2 c8 be 7d d4 b4 bc
       0.0554596 1.2997533 -0.39211023 -0.022073979
000190 ee 63 9a 3c 55 dc 03 40 08 e7 db ba 61 9f 7e 3c
       0.018846478 2.060323 -0.0016777227 0.015540929
0001a0 5f 4d 1b 40 1b d6 c0 bc 06 50 c6 be 4d a1 4f bf
       2.4265974 -0.023539593 -0.38732928 -0.811055
0001b0 60 4e e9 bb 66 ab ac bf 5e 5f 81 bf 9d 52 aa bd
       -0.0071199387 -1.3489807 -1.0107229 -0.083165385
0001c0 b9 25 61 3c ba c0 3f 3f e3 82 2c 40 7e 40 00 3c
       0.013741904 0.7490345 2.6954887 0.007827876
0001d0 28 2a ab 3c 92 3c 1e ba b9 dd 72 bd 05 ca 32 3d
       0.020894125 -0.00060362474 -0.059293482 0.043649692
0001e0 d2 bb 7d 3d e1 c4 22 3d ba 91 ad bd 6e 31 94 be
       0.061946698 0.03973854 -0.08475061 -0.28943962
0001f0 db a3 89 bb 94 38 93 bf 84 61 4d 3d 86 16 29 c0
       -0.0042004413 -1.1501641 0.050141826 -2.6419997
000200 f6 96 38 c0 0a ba 15 3d 97 f6 bd bb 92 d0 1e bb
       -2.884214 0.036554374 -0.005797218 -0.0024233204
000210 9a 2c 5e 3e 6a 0d 53 3f 72 c7 ce 3c d7 54 08 bf
       0.21696702 0.82442343 0.025241587 -0.53254455
000220 cb 0e 10 3f f4 dc 53 3d 1a d8 2d 3e 2e 75 7a 38
       0.5627257 0.05172439 0.16976967 5.9713777e-05
000230 27 5b 68 bd 01 7d 66 bc c3 ce 28 bc 0e da 80 be
       -0.056727555 -0.014067889 -0.010303202 -0.25166363
000240 00 90 7c 3d 3f a3 ae bf ad 14 41 3d a8 d9 21 bd
       0.061660767 -1.3643569 0.04713886 -0.039514214
000250 af 97 af 3c 5b de e5 bc a0 b2 3a bb 4d 58 25 3d
       0.021434633 -0.028060129 -0.0028487816 0.040367413
000260 24 b5 23 bf 33 2f cf 3c 79 50 41 bd 03 69 2d 3d
       -0.63948274 0.025291061 -0.047195885 0.042336475
000270 20 57 dd bc 9f 2c c3 bf e4 78 96 3d 2d 4e fe bd
       -0.027019083 -1.5247992 0.07347277 -0.124172546
000280 f6 51 aa 3d 05 5e 58 39 dc 27 db 3c ca 65 d1 bc
       0.08316414 0.0002063439 0.026752405 -0.025561232
000290 68 5f 51 3f 0b 0b b5 3f 92 ab 3c 3d 19 9b 3e 3d
       0.81786203 1.4143995 0.04606206 0.04653463
0002a0 85 42 88 3f 31 90 51 3d 1a 37 a8 bd ab 6a 3e 3d
       1.06453 0.051162902 -0.08213635 0.046488445
0002b0 c1 11 42 3d 39 d5 09 c0 4d 58 c3 be 72 5d 6c bd
       0.047380213 -2.153639 -0.38153306 -0.057706304
0002c0 73 17 10 bf 1f c2 13 bf 80 20 28 3d dd 80 a7 bc
       -0.5628578 -0.5771808 0.04104662 -0.020447189
0002d0 68 57 84 3f 2e 52 f7 3e 74 52 dc bc e9 91 d5 bc
       1.0339174 0.48304886 -0.026894785 -0.026070552
0002e0 66 8d ac 3c 92 4f e5 bf 83 8c bb bf af 61 89 bc
       0.021063518 -1.7914908 -1.4652256 -0.016770212
0002f0 e5 ce 1c 3f 0c 0c a6 3a 47 14 39 3d a5 d7 71 bc
       0.61253196 0.0012668385 0.045185354 -0.014760886
000300 9f 6d 38 bb 09 f4 00 be d3 42 88 bf 8e 40 73 bd
       -0.002814151 -0.12593092 -1.0645393 -0.059387736
000310 26 a6 39 3d d4 f1 87 bf 1c 39 08 40 ec 80 88 3c
       0.045324467 -1.0620675 2.1284857 0.016663037
000320 b0 a2 ab 3f 07 ae 61 3d 3e 6c b6 3c ff b4 09 be
       1.3409023 0.055097606 0.02226841 -0.13447951
000330 9b 63 aa 3c 43 9f 0f bd f0 e5 40 bd c1 bc 41 bd
       0.020799449 -0.035063993 -0.047094285 -0.04729915
000340 9f ac 26 40 2f 99 72 bc 82 21 3a bd 6b 79 d9 3f
       2.604286 -0.01480703 -0.04544211 1.6990179
000350 0d 44 db 3c bc d0 18 3d 86 49 71 3d fa 01 d1 bc
       0.026765848 0.03730844 0.058908008 -0.025513638
000360 19 3c cd bf 48 4c 70 3e 4c 31 4f bd ea d2 96 3c
       -1.6033965 0.23466599 -0.050584123 0.018411119
000370 e5 14 33 3c 81 c0 92 be bd 89 c9 3c 9f ef 4e bf
       0.010930275 -0.28662494 0.024601812 -0.8083438
000380 40 b2 4a 3d 8f 69 90 bf 6c e4 dd 3c 9a 5a 11 3d
       0.0494864 -1.1282214 0.02708646 0.035486795
000390 a4 85 40 bb 4b 5d 55 3b bf a1 1e 3f 0f 29 04 3d
       -0.002937653 0.0032556828 0.61965555 0.03226572
0003a0 7e 3c 12 bf 12 97 64 bd ae 94 c7 bf 01 5b 29 3f
       -0.57123554 -0.055808134 -1.5592248 0.66154486
0003b0 22 c9 07 bc d1 74 8b 3c 38 22 ac 3d 79 6a 2d 3c
       -0.0082877 0.017023476 0.08404964 0.010584467
0003c0 75 3c 82 3c 4c a6 e0 bc 10 71 ed 3e 35 a5 63 bc
       0.015897969 -0.027423047 0.46375322 -0.013894369
0003d0 71 5e 44 3f 67 03 6b 3f c4 d6 69 bf 32 58 23 3d
       0.76706606 0.91802067 -0.9134333 0.03987903
0003e0 ad ef 36 bd 3f 7c 0b 3c 1c 0a 23 bc ee 78 92 bf
       -0.044662166 0.008513509 -0.009951141 -1.1443155
0003f0 f6 06 f9 3a 08 f2 4e bf 91 ee 2a bd f7 ca ac 3b
       0.0018999267 -0.8083806 -0.04173142 0.0052732187

net.4.bias f4 [13]
000000 76 4f ab 3e 07 0e af 3b c1 c7 e3 3e 9a 81 1e bf
       0.3345906 0.0053422484 0.44488338 -0.61916506
000010 0d 9a 2c bf c2 69 c3 be b5 e7 5f 3e d3 6c b8 3d
       -0.6742256 -0.38166624 0.21865733 0.090051316
000020 dd 9f f5 bc 0d af b0 3d 53 4a 36 3d f3 d9 93 39
       -0.029983455 0.08627138 0.044504475 0.0002820041
000030 91 4e e1 3c
       0.027503284

log_vars f4 [13]
000000 d7 fc 88 bf a3 43 8a bf f2 b4 65 bf 32 d8 7a bf
       -1.0702161 -1.0801891 -0.89729226 -0.9798614
000010 8d de 75 bf e0 97 59 bf d0 63 3c bf ed a3 f9 bf
       -0.9604271 -0.8499737 -0.735898 -1.9503151
000020 78 ce bb bf 63 d6 a1 bf db 85 df bf 98 96 e0 bf
       -1.4672384 -1.2643551 -1.7462724 -1.7545958
000030 ab 40 b8 bf
       -1.4394735
