mixture_mlp.pt (torch, 587248 bytes, 7 tensors)

net.0.weight f4 [512, 21]
0	0x43084320	136.2622
1	0xc446195a	-792.3961
2	0x4479d3b3	999.3078
3	0xc0c70bf1	-6.2202077
4	0xbed886a5	-0.42290226
5	0xc37a0867	-250.03282
6	0x445f3644	892.8479
7	0xc3a16111	-322.75833
8	0xc0ea3bf8	-7.3198204
9	0x3eb73b25	0.3578731
10	0xc2c0436a	-96.13167
11	0x43088bb8	136.54578
12	0x443a1635	744.347
13	0xbe0a15ee	-0.13484928
14	0xbf45117f	-0.7697982
15	0x41cd473d	25.659784
16	0xc418b462	-610.8185
17	0xc3a61a5c	-332.20593
18	0x40eccdb7	7.4001117
19	0xbdf0b5a4	-0.11753395
20	0xbba36342	-0.0049861977
21	0xc2e09674	-112.29385
22	0x423f76e2	47.866096
23	0x439015db	288.17075
24	0x3f1a762d	0.6033657
25	0x3fd51f6a	1.6650212
26	0x42b41802	90.04689
27	0xc07215a2	-3.7825704
28	0x41e9c355	29.220377
29	0xc101e844	-8.119205
30	0x40c87157	6.2638354
31	0xc2ab7c30	-85.74255
32	0x42185049	38.078403
33	0x4388f4f9	273.91385
34	0xbfdc8c5b	-1.7230333
35	0x3f360d10	0.7111368
36	0xc2097544	-34.364517
37	0xc2718dbf	-60.388424
38	0xc22ba3d6	-42.909996
39	0xbd8bd65c	-0.06827995
40	0xbee419cf	-0.4455094
41	0x3e6b30dd	0.22967859
42	0x44e3cd95	1822.4244
43	0xc4a6ebb8	-1335.3662
44	0x44375f31	733.48737
45	0xc155370d	-13.32594
46	0xc0355c13	-2.8337448
47	0xc29472c9	-74.22419
48	0xc336a944	-182.6612
49	0xc3ab0773	-342.0582
50	0xc047227a	-3.1114793
51	0x3e35e266	0.17762145
52	0x449f24c3	1273.1488
53	0xc499e33d	-1231.1012
54	0x4401d284	519.2893
55	0xbeec47ce	-0.46148533
56	0x3e9fbb7c	0.31197727
57	0xc3b7ea14	-367.82874
58	0xc37dfa30	-253.9773
59	0xc3a3c29f	-327.52048
60	0x40433115	3.0498707
61	0xbe336fcc	-0.17523116
62	0x3afb43dc	0.0019170004
63	0x43e74297	462.52023
64	0x421fe0d2	39.96955
65	0x43b032bc	352.39636
66	0x4109c768	8.611183
67	0xc05376e4	-3.3041315
68	0xc4415e00	-773.46875
69	0xc418eeeb	-611.7331
70	0xc41b62d2	-621.54407
71	0x40facacf	7.837257
72	0xc02b4fea	-2.6767526
73	0xc4054193	-533.0246
74	0xc3dced62	-441.85455
75	0xc39bfecd	-311.99063
76	0x3f9078c8	1.128686
77	0xbf90aaf4	-1.1302171
78	0xc2a9e3ac	-84.94467
79	0x43b5bda1	363.48148
80	0xc12e4960	-10.892914
81	0xc109cd9d	-8.612699
82	0x40609dc3	3.509629
83	0xba8316a6	-0.0010001257
84	0x41736a5c	15.213467
85	0x41359ac5	11.350286
86	0xc1920d38	-18.256454
87	0xc0cc3326	-6.3812437
88	0x40943c94	4.632395
89	0x436cf237	236.94615
90	0x42ccc9ad	102.3939
91	0xc2b31291	-89.53626
92	0xc02159b4	-2.5211
93	0x3f3ec612	0.7452098
94	0x4368d10b	232.81657
95	0x42cb49dc	101.64426
96	0xc25fb037	-55.922085
97	0xc0920d60	-4.5641327
98	0xbf026e86	-0.50949895
99	0x4208087b	34.00828
100	0xc182e88d	-16.36355
101	0xc2d9886b	-108.76644
102	0x3e4d0dc1	0.20024778
103	0xbf9c13c2	-1.219353
104	0xbee0c907	-0.43903372
105	0x3e0a3e44	0.13500315
106	0x3d989129	0.07449562
107	0x3df94aef	0.121724956
108	0x3d999328	0.07498771
109	0x3e526ecf	0.20550083
110	0x3e1f71c4	0.15570742
111	0xbd492e30	-0.049116313
112	0x3e1f5a01	0.15561678
113	0xbe02c770	-0.12771392
114	0x3b7ebaeb	0.0038868736
115	0x3e1861f6	0.14881119
116	0x3d8a66d2	0.06757893
117	0x3d7f5faf	0.06234711
118	0x3dd431c2	0.10361053
119	0x3c4eec1e	0.012629537
120	0x3e46d1c8	0.19415963
121	0xbdc1b792	-0.094588414
122	0xbd90182f	-0.07035863
123	0x3e39c492	0.18141392
124	0xbd936832	-0.07197608
125	0x3d2b9476	0.04188963
126	0xbcc12800	-0.023578644
127	0x3e20b541	0.15694143
128	0xbe13d6d0	-0.14437413
129	0xbd707f44	-0.05871512
130	0xbe321c7c	-0.17393678
131	0xbb98cae0	-0.0046628565
132	0x3d59cadc	0.053171977
133	0x3c43a2e0	0.011940688
134	0x3e2fb53b	0.17158978
135	0xbd0cac2c	-0.034343883
136	0x3d21203c	0.03933738
137	0xbe46100f	-0.19342063
138	0x3cff7398	0.03118305
139	0x3e3439ef	0.17600225
140	0x3d049ae4	0.032374278
141	0x3d0f228c	0.034945056
142	0x3dad71ea	0.08468993
143	0xbd531ba0	-0.051540017
144	0xbe0e39e5	-0.13889273
145	0x3d40b5fc	0.047048554
146	0x3cc652c0	0.02420938
147	0xc4cf0bf1	-1656.3732
148	0x44c3c288	1566.0791
149	0xc4261da3	-664.4631
150	0x403519e8	2.8297062
151	0x4049e410	3.1545448
152	0x427b1795	62.77303
153	0x438fbe42	287.4864
154	0x434773ad	199.45186
155	0x405f0945	3.4849408
156	0x3f98a856	1.1926372
157	0xc49a50d8	-1234.5264
158	0x44bc76af	1507.7089
159	0xc3fac2df	-501.52243
160	0xc00c5f0e	-2.1933017
161	0xbfbb7d33	-1.4647583
162	0xc277a271	-61.908634
163	0x43c27da5	388.9816
164	0x43bf3870	382.44092
165	0xc075554c	-3.833331
166	0xc036f1e6	-2.8585143
167	0xbec5ceb9	-0.3863428
168	0xc112866d	-9.157819
169	0x4077465d	3.8636696
170	0x40615163	3.5205925
171	0xbe97c717	-0.2964408
172	0x3ec8c369	0.39211586
173	0xc0d644a4	-6.695879
174	0xbfcbacf6	-1.5912158
175	0x40381c5e	2.8767314
176	0xbf0cda2d	-0.5502041
177	0x3ebf024e	0.37306446
178	0xc124c264	-10.297459
179	0x3fc665e9	1.549985
180	0x40974636	4.7273207
181	0xbf48919f	-0.783472
182	0x3f590f31	0.84788805
183	0xbf87b3ca	-1.0601742
184	0x3eb13e67	0.34617922
185	0x3e188885	0.14895828
186	0x3f649863	0.89295024
187	0xbf376312	-0.71635544
188	0xbd1504c9	-0.036381517
189	0xbdb00ada	-0.0859582
190	0x3dbf041a	0.09326954
191	0xbb940800	-0.0045175552
192	0x3dbd28f6	0.09236328
193	0x3e42ee55	0.19036229
194	0xbc05c9a0	-0.008165747
195	0x3d06ccfc	0.032910332
196	0x3c89a3d0	0.016801745
197	0xbe1a8140	-0.15088367
198	0xbe2f48f0	-0.17117667
199	0x3dfb6702	0.122755066
200	0xbe3c7a04	-0.1840592
201	0xbe3b0e4d	-0.18267174
202	0x3e157a97	0.14597546
203	0xbe4c01bf	-0.19922541
204	0xbe13981e	-0.14413497
205	0x3e39b30d	0.18134709
206	0x3d1dcef4	0.038527444
207	0xbe1d9a9d	-0.15391012
208	0xbdc12e26	-0.0943263
209	0xbd7c2940	-0.061562777
210	0xc30a07cc	-138.03046
211	0x440155f9	517.3433
212	0x4281d4d4	64.91568
213	0x40143401	2.315674
214	0xbf6f4321	-0.93461806
215	0xc3f83590	-496.41846
216	0x4404628d	529.53986
217	0xc44916bc	-804.3552
218	0xc123c3a4	-10.235264
219	0x400c4381	2.19162
220	0xc40afd00	-555.9531
221	0x443768fb	733.6403
222	0xc3db2d5e	-438.35443
223	0xc08b8095	-4.359446
224	0x3f0d1e0d	0.5512398
225	0xc2b9a6fd	-92.82615
226	0xc369239d	-233.13911
227	0xc38887ec	-273.0619
228	0xbf336d2d	-0.70088464
229	0xbe654bcb	-0.22392194
230	0xbe1383c0	-0.14405727
231	0x4407e1d3	543.5285
232	0x444bd8a7	815.3852
233	0x4463ed6f	911.7099
234	0xc0ee4616	-7.4460554
235	0x406fadc1	3.74498
236	0x4384511d	264.6337
237	0x446c9e56	946.474
238	0x43a1edc5	323.85757
239	0xc0f80ec7	-7.751804
240	0x407aa614	3.9163866
241	0x443aa3d5	746.5599
242	0x44b312d4	1432.5884
243	0x447c26ae	1008.6044
244	0xbf54c0ac	-0.83106494
245	0x3ed57e72	0.41698033
246	0xc26ec71f	-59.694454
247	0xc39ccf24	-313.6183
248	0xc3cf50a7	-414.6301
249	0x410315a6	8.192785
250	0xc086a667	-4.207813
251	0xbc5d9410	-0.01352407
252	0x4254f46d	53.238697
253	0xc10cb0a4	-8.793125
254	0xc20191ec	-32.3925
255	0xbfd4d2f9	-1.6626884

net.0.bias f4 [512]
0	0x3f39b790	0.7254572
1	0x3f212421	0.62945753
2	0x3f1d937b	0.6155316
3	0xbfb2d6ec	-1.3971839
4	0x3f4e551c	0.80598617
5	0xbdd50cc3	-0.10402825
6	0xbdb4c6f2	-0.08827008
7	0xbf90ffdc	-1.1328082
8	0x3dd48627	0.1037715
9	0xbe17c968	-0.14822924
10	0x3f840ee1	1.0317041
11	0x3fb60324	1.4219708
12	0xbdade1bd	-0.08490322
13	0xbe5d8389	-0.21632208
14	0x3fb0e090	1.3818531
15	0xbdb65846	-0.089035556
16	0xbf15c11b	-0.5849778
17	0xbf840d56	-1.031657
18	0xbf90a675	-1.1300799
19	0xbf31ad8a	-0.69405425
20	0x3ea0d1ce	0.31410068
21	0xbe4e8456	-0.2016767
22	0xbeba9511	-0.36441854
23	0x3a750100	0.00093461573
24	0x3a8ab380	0.001058206
25	0x3f4f0a28	0.8087487
26	0xbe54b18c	-0.20770854
27	0xbe06926d	-0.13141795
28	0xbd7cc6ee	-0.06171315
29	0xbe5b8ffb	-0.21441643
30	0xbe250703	-0.16115956
31	0x3f6c5bd3	0.9232761
32	0x3f32f6fb	0.6990811
33	0xbd51a6cc	-0.05118446
34	0xbda15a00	-0.07878494
35	0xbf6d36ec	-0.9266193
36	0xbf38a714	-0.7212994
37	0xbf91473c	-1.1349864
38	0x3d389a14	0.045068815
39	0xbff9d068	-1.9516726
40	0xbe50c6d9	-0.20388354
41	0xbf88f1be	-1.0698774
42	0xbf4e9d62	-0.807089
43	0x3f634e56	0.88791406
44	0xbe3b311a	-0.1828045
45	0xbf915b3c	-1.1355968
46	0x3f634949	0.887837
47	0x3f535ac0	0.8256035
48	0xbf992dbb	-1.1967081
49	0xbe05a17a	-0.1304988
50	0x3fc6823e	1.5508497
51	0xbe0ae60a	-0.13564315
52	0xbe34c282	-0.17652324
53	0xbe1af9c8	-0.15134346
54	0x3f9048b5	1.1272188
55	0xbdd3eb24	-0.10347584
56	0xbf00c0f5	-0.5029443
57	0xbfb14373	-1.3848709
58	0xbfb1ab42	-1.3880389
59	0x3c34d890	0.011037961
60	0xbe0913e2	-0.13386491
61	0xbe43c32c	-0.19117421
62	0xbd07091d	-0.032967675
63	0xbf85f82b	-1.046636
64	0x3f0f4b2b	0.5597407
65	0xbfb01feb	-1.375974
66	0x3f977560	1.1832695
67	0xbd8c4cda	-0.06850596
68	0x3e5c3265	0.21503599
69	0xbda8e3e3	-0.08246591
70	0xbed7599a	-0.42060548
71	0xbd8c7d09	-0.06859786
72	0xbd23ba09	-0.03997234
73	0xbd15e084	-0.036591068
74	0x3ef8306b	0.4847444
75	0xbe10316e	-0.14081356
76	0xbe959139	-0.2921236
77	0xbd967008	-0.07345587
78	0x3f0a0ffa	0.5393063
79	0xbde2e4ae	-0.110787734
80	0x3f328961	0.69740874
81	0x3f90f868	1.1325808
82	0x3f85ceaa	1.0453694
83	0x3fdb74ec	1.7145057
84	0xbd9858f8	-0.074388444
85	0xbe20eed2	-0.15716103
86	0x3f9fd416	1.2486598
87	0x3f584005	0.84472686
88	0x3f9a39d2	1.2048895
89	0x3fbfc6c2	1.4982531
90	0xbc740e30	-0.014895961
91	0x3f4388cc	0.7638061
92	0xbfc0cc24	-1.5062299
93	0xbfe00851	-1.7502538
94	0x3f29904c	0.66235805
95	0x3e72c6fa	0.23708716
96	0xbff2dd10	-1.8973713
97	0xbf9b8b26	-1.215184
98	0xbdf83ec7	-0.12121349
99	0xbdbd9b70	-0.09258163
100	0xbe48f5dd	-0.1962504
101	0xbf9acbf5	-1.2093493
102	0xbf5f7bfc	-0.8729856
103	0xbf2fcc8e	-0.686715
104	0xbf2e0be2	-0.6798688
105	0xbfbc38c3	-1.4704822
106	0x3f874423	1.0567669
107	0xbe0dfdd2	-0.13866356
108	0x3f61c598	0.8819213
109	0xbe3bc196	-0.18335566
110	0xbe21a236	-0.15784535
111	0xbe2aa366	-0.16663894
112	0x3ecb403a	0.39697438
113	0xbdc353cd	-0.09537468
114	0xbfa19de3	-1.2626308
115	0x3e0cf404	0.1376496
116	0xbe39e6aa	-0.18154398
117	0xbdf6f555	-0.12058512
118	0xbfd50ecb	-1.664514
119	0xbd1c4f66	-0.038161658
120	0x3f3f4423	0.74713343
121	0xbd5b22f8	-0.053500146
122	0x3f078781	0.5294114
123	0xbe48305f	-0.19549702
124	0xbf2dfa54	-0.67960095
125	0x3fd30960	1.6487236
126	0xbe920cc3	-0.2852536
127	0xbf5ef19a	-0.87087405
128	0xbdd45383	-0.10367491
129	0xbfa2d59f	-1.2721442
130	0xbe4d60fa	-0.20056525
131	0xbf79effb	-0.97631806
132	0xbfe2e1eb	-1.7725195
133	0xbe9f70bd	-0.311407
134	0x3edcff09	0.43163326
135	0xbe2665da	-0.16249791
136	0xbd387438	-0.04503271
137	0xbde6bd08	-0.112665236
138	0xbdf4f27e	-0.11960314
139	0xbdc45bf7	-0.095878534
140	0xbf13fdf8	-0.578094
141	0xbe4b8f47	-0.19878875
142	0x3d6eee91	0.058332983
143	0xbe3e9e3f	-0.18615054
144	0x3e8b053b	0.27152428
145	0xbf857b47	-1.0428246
146	0xbe5056ad	-0.20345564
147	0xbd0aba78	-0.033869237
148	0xbfbf823c	-1.4961619
149	0x3f7cf65d	0.9881342
150	0xbedc62fe	-0.43044275
151	0x3fb6af6b	1.4272283
152	0x3e0db081	0.13836862
153	0x3e3e8dc8	0.18608773
154	0x3f91e1bd	1.1397015
155	0x3f7d6b62	0.9899198
156	0xbfefef89	-1.8744975
157	0xbe1bba60	-0.15207815
158	0xbf9be75e	-1.2179983
159	0xbe8f8e6f	-0.28038356
160	0x3f6b90b6	0.92017686
161	0xbe09abe2	-0.13444474
162	0xbe2a106a	-0.16607824
163	0xbef15426	-0.47134513
164	0xbfb9f609	-1.4528209
165	0xbe7049e2	-0.23465684
166	0xbd8b5fd0	-0.06805384
167	0xbf65266b	-0.89511746
168	0x3f220dbf	0.63302225
169	0xbe1a599c	-0.15073246
170	0xbe45fddd	-0.19335122
171	0x3f0e73c2	0.5564538
172	0xbf8be533	-1.0929321
173	0xbfb61cca	-1.4227536
174	0xbef0e26a	-0.4704774
175	0xbd4b1db1	-0.049588863
176	0xbfc1e642	-1.5148394
177	0xbdedda25	-0.116138734
178	0xbf55765d	-0.83383733
179	0xbdfc8844	-0.12330678
180	0xbe182a0c	-0.1485979
181	0xbe010ac2	-0.1260176
182	0xbe3ef222	-0.18647054
183	0xbd92e2f0	-0.07172191
184	0xbdf8d17a	-0.121493295
185	0xbd9f2240	-0.077702045
186	0x3f5bcbde	0.8585795
187	0x3e8262ed	0.254661
188	0x3f107178	0.5642314
189	0x3f84b7b0	1.0368557
190	0x3fa4e538	1.2882452
191	0x3fb90099	1.4453307
192	0x3e680aa5	0.2266031
193	0xbfe68c65	-1.8011595
194	0x3f5d3d28	0.8642144
195	0xbf80810c	-1.0039382
196	0xbe3a71d5	-0.18207486
197	0xbe5d77c4	-0.21627718
198	0xbd9a4312	-0.07532324
199	0xbe6e788e	-0.23288175
200	0x3c6191f8	0.013767712
201	0x3f2215c4	0.6331446
202	0xbda7a53e	-0.08185814
203	0x3f49240c	0.7857063
204	0xbf465303	-0.77470416
205	0xbd5fbb56	-0.054622017
206	0x3f6031be	0.875759
207	0x3e6282f5	0.22120269
208	0xbe33d7f2	-0.17562845
209	0xbe046663	-0.12929682
210	0x3f78d821	0.97204787
211	0xbe574b8f	-0.21024917
212	0xbed4e096	-0.41577595
213	0xbd912d36	-0.070887014
214	0xbf4a63c5	-0.79058486
215	0xbfea8daf	-1.8324488
216	0xbf91be8f	-1.1386279
217	0xbdbedfb8	-0.09320015
218	0x3da5e773	0.08100786
219	0x3ea5d111	0.32386068
220	0xbd8c2ce6	-0.06844501
221	0xbeb7cb58	-0.35897326
222	0x3c9746c0	0.018466353
223	0xbdc3762b	-0.09544023
224	0xbe3b1b68	-0.18272173
225	0xbdda6294	-0.106633335
226	0x3efc1da9	0.4924138
227	0xbe3f66f9	-0.18691625
228	0x3f1c9873	0.6117012
229	0xbde15b74	-0.110037714
230	0x3f38768c	0.7205589
231	0xbe38cb56	-0.18046317
232	0xbd9e4dd7	-0.077296905
233	0x3f42099e	0.75795925
234	0xbe1d5fd8	-0.15368593
235	0xbda1c9c2	-0.078998104
236	0x3f4c3b67	0.7977814
237	0xbf1836f7	-0.5945887
238	0xbdbe860c	-0.09302911
239	0x3ede0625	0.43364063
240	0x3e1685a6	0.1469942
241	0xbb8fbf60	-0.0043868273
242	0x3f1cc48d	0.6123741
243	0xbe2c3d3e	-0.16820237
244	0xbe219aea	-0.15781751
245	0x3f733af9	0.9501186
246	0xbe58eadb	-0.2118334
247	0x3f82488d	1.0178391
248	0xbd98d7f4	-0.07463065
249	0xbde50d2b	-0.11184152
250	0x3d61f696	0.055166803
251	0xbcc4e62a	-0.024035532
252	0xbf13592b	-0.57557935
253	0xbe3acc97	-0.18242107
254	0xbfed73b2	-1.8550932
255	0x3f95ddc3	1.1708301

net.2.weight f4 [256, 512]
0	0xbc84ff45	-0.016235003
1	0xbd6b6350	-0.05746776
2	0xbd1f6e30	-0.038923442
3	0xbc19f80e	-0.00939752
4	0xbd9b55c0	-0.07584715
5	0x3d18f525	0.037343163
6	0x3d2f5887	0.042809036
7	0xbd90609c	-0.07049677
8	0xbd6073cd	-0.054797936
9	0x3cd73952	0.02627245
10	0xbd14062c	-0.0361387
11	0xba0f8f17	-0.0005476339
12	0x3d0a90a5	0.03382935
13	0xbc0e2a5c	-0.008677091
14	0xbd284933	-0.041085433
15	0xbc9498b8	-0.018139228
16	0x3ba4eae9	0.0050328863
17	0x3baf7a00	0.0053551197
18	0xbd9e3426	-0.0772479
19	0xbcf6d258	-0.030129597
20	0xbd918aeb	-0.071065746
21	0xbd167e78	-0.036741704
22	0xbc7c7657	-0.015409074
23	0xbc517e4c	-0.012786459
24	0x3d1cbff1	0.038268987
25	0x3c0ed4b0	0.008717701
26	0x3c31fa78	0.010862939
27	0xbd5c846a	-0.053837217
28	0xbca076a7	-0.019587828
29	0x3c440fec	0.011966687
30	0xbd877cee	-0.06615625
31	0xbd651322	-0.05592645
32	0xbd15aa44	-0.03653933
33	0xbd2f7cc8	-0.04284361
34	0xbd210f3e	-0.039321177
35	0x3ae44c0e	0.0017417686
36	0xbca04e77	-0.019568665
37	0xbd4cd764	-0.0500101
38	0xbd69f99f	-0.057122823
39	0xbd949430	-0.07254827
40	0xbcf8a7e8	-0.030353501
41	0xbd790662	-0.060797103
42	0xbd89d82a	-0.06730683
43	0xbaa529c3	-0.0012600947
44	0xbc1dc930	-0.009630486
45	0xbd8d1ceb	-0.06890281
46	0xbd5cc81e	-0.053901784
47	0x3d22a755	0.03971036
48	0xbd6b428d	-0.057436515
49	0xbc5420f0	-0.012947306
50	0xbd8c29f3	-0.06843939
51	0x3d136c3f	0.035991903
52	0x3cf83a7e	0.030301329
53	0x3c3f0224	0.011658225
54	0xbd13490e	-0.035958342
55	0xbd7dc1ba	-0.06195233
56	0xbd9a2898	-0.07527274
57	0x3ca98a32	0.02069578
58	0xbd638c28	-0.055553585
59	0xbd097de3	-0.03356732
60	0x3b698af0	0.0035635792
61	0x3b27ffa0	0.0025634542
62	0xbd845b41	-0.06462718
63	0xbd24fbd7	-0.040279236
64	0xbd23e1fa	-0.04001043
65	0xbbf5bfc0	-0.007499665
66	0xbd527f1e	-0.05139076
67	0xbc9ac7f4	-0.018894173
68	0x3c155dcc	0.009116601
69	0x3c9efcea	0.019407708
70	0xbd8353f2	-0.06412496
71	0x3cd00e32	0.025397394
72	0x3cc50bf2	0.024053548
73	0xbd12c37d	-0.035830963
74	0xbd0dff57	-0.03466734
75	0xbd0af793	-0.03392751
76	0xbd184095	-0.037170965
77	0xbd31afbb	-0.04338048
78	0xbcb87388	-0.022516027
79	0x3c29d910	0.010366693
80	0xbd1ab7a1	-0.03777278
81	0xbd9ca8c7	-0.07649379
82	0xbadc5ee8	-0.0016812952
83	0xbca409cf	-0.020024208
84	0x3ca6dd12	0.020369086
85	0x3c462404	0.012093548
86	0xbd8abaec	-0.06773934
87	0xbc7bc6ce	-0.015367223
88	0xbd0ef6b2	-0.034903236
89	0xbd345aad	-0.044031788
90	0xbc9076bc	-0.017634742
91	0xbd7f629c	-0.0623499
92	0xbd9436fb	-0.07237049
93	0xbd4784d9	-0.048710678
94	0xbd9f8096	-0.07788198
95	0xbd806c54	-0.06270662
96	0xbd15a2e7	-0.03653231
97	0xbc0351e7	-0.0080151325
98	0xbd02a87e	-0.031898968
99	0x3ae6b5db	0.0017601805
100	0xbd50753a	-0.050893046
101	0xbc9c3c9d	-0.019071871
102	0xbd81d1e6	-0.06338863
103	0xbd804f54	-0.06265131
104	0xbd92b33b	-0.07163092
105	0xbd5d07b6	-0.05396243
106	0x3b92d0c0	0.0044804513
107	0xbc678be6	-0.0141324755
108	0xbd7c45aa	-0.061589874
109	0xbd958063	-0.072998784
110	0x3cd8b68e	0.026454236
111	0xbce48029	-0.027893143
112	0xbd973677	-0.07383435
113	0xbd292c7f	-0.0413022
114	0xbcb5ba05	-0.022183428
115	0xbd31f790	-0.043448985
116	0x3ca815b2	0.020518158
117	0xbb01a4ef	-0.0019782146
118	0xbd5d8efb	-0.054091435
119	0x3c1f31d3	0.009716469
120	0xbd31e8ff	-0.043435093
121	0xbd226f3a	-0.039656855
122	0xbd888c29	-0.066673584
123	0xb9829280	-0.00024904683
124	0xbd9a2366	-0.07526283
125	0xbb40cc57	-0.002941867
126	0x3d0fef95	0.035140593
127	0xbd56da77	-0.052454438
128	0x3d0476d1	0.032339875
129	0x3b07f5d6	0.0020745895
130	0x3c7be44c	0.015374254
131	0x3c7b74df	0.015347688
132	0xbc8739f5	-0.016507128
133	0xbcb3e062	-0.02195758
134	0xbd64d529	-0.055867348
135	0xbcffad5f	-0.0312106
136	0xbc836f99	-0.016044425
137	0xbc7c469a	-0.015397692
138	0x3d1a0355	0.037600834
139	0xbd3459c8	-0.044030935
140	0xbd627781	-0.05528975
141	0xbba5e7f8	-0.005063053
142	0xbd882f35	-0.06649629
143	0xbd1092de	-0.035296313
144	0x3bbda281	0.0057871942
145	0xbd26e819	-0.04074869
146	0x3c300b18	0.010744832
147	0x3cc11242	0.023568276
148	0xbb077114	-0.0020666765
149	0xbd19f49b	-0.03758679
150	0xbbadbb45	-0.0053018653
151	0xbbd6a0af	-0.0065499167
152	0xb985094f	-0.00025374672
153	0x3bd2c750	0.0064324513
154	0xbd8e84df	-0.06958937
155	0xbd571ea0	-0.05251944
156	0xbc742a6d	-0.014902693
157	0x3be421c0	0.006962031
158	0x3d173593	0.036916327
159	0xbb9fd738	-0.004877951
160	0xbd1b7505	-0.037953395
161	0x3bedf2b0	0.0072615966
162	0x3d010b1f	0.031504747
163	0xbc18bbac	-0.009322088
164	0xbcb75135	-0.02237759
165	0xbc90b3f5	-0.017663935
166	0x3c2bb870	0.010480985
167	0xbd979b9f	-0.07402729
168	0xbce3949b	-0.027780822
169	0x3b9cbd28	0.0047832914
170	0xbcaa5b9b	-0.020795634
171	0xbd21ca50	-0.03949958
172	0xbcd784a2	-0.026308361
173	0xbd483fb0	-0.048888862
174	0xbd0a2445	-0.033725996
175	0xbd6ccbc5	-0.057811517
176	0x3be1f1f4	0.006895298
177	0xbcca9b1f	-0.02473217
178	0x3b9610a4	0.0045796204
179	0xbc8acc37	-0.01694308
180	0x3c6f16b4	0.014592815
181	0x3c768494	0.0150462575
182	0xbc97c387	-0.018525852
183	0x3ce28326	0.027650427
184	0xbc475764	-0.012166832
185	0xbcf1541b	-0.02945905
186	0xbcdfae77	-0.027304871
187	0xbd98c009	-0.07458503
188	0x3b6dd041	0.003628746
189	0xbd1032c2	-0.035204656
190	0xbd3c82c1	-0.046023134
191	0xbc00047f	-0.007813572
192	0xbd85fb6b	-0.06542095
193	0xbd218d82	-0.039441593
194	0xbd290bd7	-0.041271057
195	0xbd8c065d	-0.06837151
196	0x3ce1f452	0.027582321
197	0x3bd8b6d8	0.0066135935
198	0xbc8c2074	-0.017105319
199	0xbd53188c	-0.05153708
200	0x3b64c24d	0.0034905851
201	0xbd97feda	-0.07421656
202	0xbceefc37	-0.029173
203	0xbc486633	-0.012231397
204	0xbc1f2b55	-0.009714921
205	0xbd5e88f0	-0.054329813
206	0xbc69b0bd	-0.014263329
207	0x3d248d29	0.040173683
208	0x3cbe0a5a	0.023198295
209	0x3c8b92a6	0.0170377
210	0xbd911e39	-0.07085843
211	0xbc6d0622	-0.014466794
212	0xbd8c1b9e	-0.06841205
213	0xb86a9000	-5.5924058e-05
214	0xbc956a69	-0.018239217
215	0xbba3a0bf	-0.0049935277
216	0xbd0f1459	-0.034931514
217	0xbd2cffaf	-0.042236026
218	0xbd46bdb3	-0.048520755
219	0xbbbb84d6	-0.0057226224
220	0xbd0e4d28	-0.03474155
221	0xbcb9e079	-0.022690045
222	0x3d28c61f	0.041204568
223	0xbbc41c18	-0.0059847943
224	0xbce1530d	-0.027505422
225	0xbca2e545	-0.019884715
226	0xbcd79120	-0.026314318
227	0xbd1a3c56	-0.037655197
228	0xbce05616	-0.027384799
229	0xbb6c6860	-0.0036072955
230	0xbd104050	-0.035217583
231	0x3d114843	0.035469305
232	0xbd850afa	-0.06496234
233	0xbcc20ace	-0.023686793
234	0x3caf3a2e	0.021390047
235	0x3cd30b1e	0.025762137
236	0xbd71b121	-0.059006814
237	0xbca1db31	-0.019757839
238	0xbd257d60	-0.04040277
239	0xbd4b710a	-0.04966835
240	0xbd113012	-0.035446234
241	0xbaa9fde0	-0.0012969337
242	0x3c7fcfab	0.015613477
243	0xbb118730	-0.0022205822
244	0xbd1617fd	-0.03664397
245	0xbd9687ad	-0.07350097
246	0xbc6c20b9	-0.014412099
247	0x3a97f821	0.0011594334
248	0x3ae809c0	0.0017703101
249	0xba5140c0	-0.0007982366
250	0x3b0d9e8f	0.00216094
251	0x3c0bf9d7	0.008543453
252	0xbcf45319	-0.02982478
253	0x3a7d8180	0.0009670481
254	0x3c030022	0.007995637
255	0xbc76a869	-0.015054801

net.2.bias f4 [256]
0	0xbd6e40c7	-0.058167245
1	0x3c135b38	0.008993916
2	0xbd3cbe8d	-0.04608016
3	0xbfb3384e	-1.4001558
4	0xbd63636a	-0.05551473
5	0xbd3146da	-0.04328046
6	0xc0658329	-3.5861304
7	0x3f540aae	0.82828796
8	0xbd63c613	-0.05560882
9	0xbd806552	-0.06269325
10	0xbef3e741	-0.4763737
11	0xbd5e8f30	-0.054335773
12	0x3e400bdd	0.18754525
13	0xbd7d7497	-0.061878767
14	0xbd788928	-0.060677677
15	0xbd1c9cec	-0.03823559
16	0xbc56967c	-0.013097402
17	0xbf29c792	-0.66320145
18	0xbf1f10cb	-0.62135
19	0xbe95eac1	-0.29280666
20	0xbec637f1	-0.38714555
21	0xbd4a6c1e	-0.049419515
22	0xbd42f1db	-0.047593933
23	0xc00aaf14	-2.166936
24	0x3da37605	0.07981495
25	0xbe6b7057	-0.22992073
26	0x3e66a28c	0.22522944
27	0xbd376653	-0.04477532
28	0xbd6874e2	-0.056752093
29	0xbd84ea23	-0.064899705
30	0xbed8041d	-0.42190638
31	0xbca41dbc	-0.02003371
32	0xc016b30e	-2.3546786
33	0xbe621f87	-0.22082339
34	0xbd478d02	-0.04871846
35	0xbcaf6030	-0.02140817
36	0xbd9345a9	-0.07191021
37	0xbd3a535b	-0.04548965
38	0xbbd720dd	-0.006565197
39	0xbde59025	-0.11209134
40	0x3f84489e	1.0334661
41	0x3f67041b	0.9024064
42	0x3f118284	0.56839776
43	0xbf4c95fa	-0.79916346
44	0xbe46bb72	-0.19407442
45	0xbe80059d	-0.25004283
46	0x3f45614f	0.77101606
47	0xbce4d8fa	-0.027935494
48	0x3f16ad43	0.58858126
49	0xbe9b103b	-0.3028582
50	0xbfc89407	-1.5670174
51	0xbd7cab84	-0.061687008
52	0xbf052a32	-0.5201751
53	0x3f375666	0.7161621
54	0xbfe6696e	-1.8000925
55	0xbf53c64a	-0.8272444
56	0xbd749c48	-0.059719354
57	0x3ab6f67c	0.0013958956
58	0xbf2a1b63	-0.6644804
59	0xbddd1ca1	-0.10796476
60	0x3f38b83e	0.7215613
61	0xbc969342	-0.018380765
62	0xc008a3d0	-2.1349983
63	0xbd6342ce	-0.05548363
64	0xbea53b8b	-0.3227199
65	0x3f3a4dd7	0.72775024
66	0xbef1597a	-0.47138578
67	0x3d58cb6c	0.052928373
68	0xbc922ba8	-0.017843083
69	0xbe1b6a74	-0.15177327
70	0x3bb34253	0.005470553
71	0x3e8554ed	0.26041356
72	0xbbe14343	-0.0068744733
73	0xbf95ffb3	-1.1718658
74	0xbd723257	-0.05913004
75	0xbfe79442	-1.809212
76	0xbcb9dac7	-0.022687329
77	0x3f8398fd	1.0281063
78	0x3f40ee2a	0.7536341
79	0xbd440166	-0.047852896
80	0x3e934198	0.28760982
81	0xbd79d478	-0.06099364
82	0xbd4a97f0	-0.049461305
83	0xbe4299c7	-0.19003974
84	0xbe5515e1	-0.20809127
85	0x3f494ce9	0.7863298
86	0xbd336a05	-0.04380228
87	0x3f95f4f5	1.171538
88	0x3e3db025	0.18524225
89	0xbd7c4fda	-0.06159959
90	0xbd21c8e5	-0.03949823
91	0xbe4df22c	-0.20111912
92	0xbc887251	-0.016656073
93	0xbd36b158	-0.044602722
94	0xbd867b53	-0.06566491
95	0xbb88bd53	-0.00417296
96	0xbd55d8a2	-0.05220855
97	0x3f251370	0.64482784
98	0xbf0a0263	-0.5390989
99	0xbc10ddf8	-0.008841984
100	0xbd63396e	-0.05547469
101	0xbfcbf217	-1.5933255
102	0xbe2785b8	-0.16359603
103	0xbd806dd8	-0.06270951
104	0xc007e879	-2.123564
105	0xbd5951c1	-0.053056482
106	0xbff49463	-1.9107784
107	0x3e051771	0.12997223
108	0xba841586	-0.0010077215
109	0xc06a5106	-3.6611953
110	0xbfa07b97	-1.2537717
111	0x3e657dd3	0.2241128
112	0xbe17d2f5	-0.14826567
113	0xbf61a046	-0.8813518
114	0xbfd76553	-1.6827797
115	0x3ba42f20	0.0050105006
116	0xba9c45b0	-0.0011922624
117	0xbc1b4a2f	-0.009478136
118	0xbc88bec9	-0.016692536
119	0xbd485739	-0.048911307
120	0xbe96f8c6	-0.29486674
121	0xbe3397fc	-0.17538446
122	0xbc5a0879	-0.013307684
123	0x3eed1828	0.46307492
124	0xbd483d3a	-0.048886515
125	0x3d8921ae	0.06695877
126	0xbd248b32	-0.04017181
127	0xbf323be0	-0.6962261
128	0xbf50c939	-0.8155704
129	0xbd643728	-0.055716664
130	0xbcd082c8	-0.025452986
131	0xbec4e8dd	-0.3845891
132	0x3f2af05b	0.66773003
133	0x3f414af8	0.7550502
134	0xbe12d0fd	-0.14337535
135	0x3efc6f34	0.4930359
136	0xc03468ad	-2.818889
137	0xbd4f8200	-0.050661087
138	0x3f70232c	0.9380367
139	0xbe3b44c9	-0.18287958
140	0xbdea5fc9	-0.11444051
141	0xbc199904	-0.009374861
142	0xbe475ccb	-0.19468991
143	0x3e9da189	0.30787304
144	0xbc84fd2d	-0.016234005
145	0xbf476257	-0.7788443
146	0xbd6878d4	-0.056755856
147	0xbd6fe414	-0.05856712
148	0xbdb051b3	-0.08609333
149	0xbce2556e	-0.027628627
150	0xbd2aa674	-0.04166265
151	0xbb80d8fa	-0.0039321156
152	0xbfd9bcce	-1.7010744
153	0xbd29213a	-0.041291453
154	0xbd34bf35	-0.04412766
155	0xbd343e76	-0.04400488
156	0xbe2a8e06	-0.1665574
157	0xbe07c1ed	-0.1325757
158	0x3e18e733	0.14931946
159	0xbda65cf2	-0.08123197
160	0x3f599da2	0.85006154
161	0xbd4b307c	-0.049606785
162	0xbd885d09	-0.0665837
163	0xbef13e65	-0.47117916
164	0x3e56d8ff	0.20981215
165	0xbf0eb280	-0.5574112
166	0xbd0d3a3f	-0.034479376
167	0xbd35241d	-0.044223893
168	0x3f6c1b68	0.9222932
169	0xbd7fc570	-0.06244415
170	0x3eb61822	0.35565287
171	0xbbed2ce6	-0.0072380183
172	0xbc5fe4dd	-0.013665405
173	0xbfa17c70	-1.26161
174	0x3f2a4ef5	0.6652673
175	0xbb1fb7c3	-0.0024371005
176	0xbea8e334	-0.32985842
177	0x3e9d2715	0.3069388
178	0xbd0b3d04	-0.033993736
179	0xbd7663d9	-0.060153816
180	0xc02d3307	-2.7062395
181	0x3e1f6eb3	0.15569572
182	0xbcba5741	-0.022746684
183	0xbd72abeb	-0.059245985
184	0xbe038ae7	-0.12845956
185	0xbfedbbc6	-1.8572929
186	0x3fa043a1	1.2520639
187	0xbd613906	-0.054986022
188	0xbe5e1e88	-0.21691334
189	0xbd84f696	-0.06492345
190	0xbd8b0b87	-0.06789308
191	0xbd064777	-0.032782998
192	0xbd395d83	-0.045255195
193	0x3f567ce4	0.8378432
194	0xbf13489e	-0.5753268
195	0xbd27fa5a	-0.04101024
196	0xbc008237	-0.007843546
197	0xc0545c72	-3.3181424
198	0xbe82bee8	-0.25536275
199	0xbd2682b0	-0.040651977
200	0xc01d1c2c	-2.4548445
201	0xbd428e79	-0.047499154
202	0xbd7a8571	-0.061162416
203	0xc04f8aa9	-3.2428381
204	0xbd062e86	-0.032759212
205	0xbd3279b7	-0.043573108
206	0xbcc8b944	-0.024502404
207	0xbcbfe0db	-0.02342265
208	0x3f54259b	0.8286988
209	0xbe7d890a	-0.24759308
210	0xbcb3c468	-0.02194424
211	0xbfb1dd55	-1.389567
212	0xbce85d3c	-0.02836477
213	0xbd528d2b	-0.05140416
214	0xbd35f86c	-0.044426367
215	0xbd8d0e34	-0.06887475
216	0xbfdfbec4	-1.7480092
217	0xbf97a330	-1.1846676
218	0xbd6b2c22	-0.057415135
219	0xbbd34c11	-0.006448277
220	0xbc16366f	-0.009168251
221	0x3f5a65b3	0.8531143
222	0xbe33df88	-0.17565739
223	0xbe2d46c1	-0.16921522
224	0xbcff8e71	-0.031195851
225	0xbf92aa6e	-1.1458261
226	0xbd5baa4d	-0.05362921
227	0xbe625f79	-0.22106732
228	0xbd442c07	-0.04789355
229	0xbd7cfa69	-0.061762247
230	0xbe78f07e	-0.2431049
231	0xbbb07d79	-0.0053860513
232	0x3e8e6f2b	0.2781919
233	0xbd8861bc	-0.06659266
234	0xc0161abf	-2.3453825
235	0xbf567254	-0.837682
236	0xbe3870e3	-0.18011813
237	0xbe3a8717	-0.18215595
238	0xbe357db6	-0.17723736
239	0xbe2ca1e6	-0.16858634
240	0xc050ec78	-3.264433
241	0xbcae297c	-0.021260016
242	0x3f07ca9a	0.5304352
243	0xbd400be7	-0.04688635
244	0x3e88fcdb	0.26755413
245	0x3f14fd90	0.58199406
246	0xbea01139	-0.3126314
247	0xbd726e83	-0.059187423
248	0xbd2cd787	-0.04219773
249	0xbc68f8c9	-0.014219471
250	0xbda99064	-0.082794935
251	0xc035e5c0	-2.8421478
252	0xbd08dbd5	-0.033412773
253	0xbe1e4918	-0.1545757
254	0xbd77529b	-0.060381513
255	0xbd5c5cd0	-0.05379945

net.4.weight f4 [13, 256]
0	0x3c3f8702	0.011689903
1	0x3da009e7	0.07814389
2	0x3d7be943	0.061501753
3	0x400c6c82	2.1941228
4	0xbd31486d	-0.04328196
5	0xbc000710	-0.007814184
6	0x3f56f183	0.8396227
7	0xbf256bd1	-0.6461764
8	0x3d170410	0.03686911
9	0x3c95578f	0.018230228
10	0x3ec16d3f	0.3777866
11	0x3d183065	0.037155528
12	0xbe88f46f	-0.26748988
13	0xbc5594fc	-0.013036009
14	0xbb6ce0f5	-0.0036144827
15	0xbbb36e5a	-0.0054758014
16	0xbd7a0f46	-0.061049722
17	0xbeae3893	-0.34027538
18	0xbd9e202e	-0.077209815
19	0x3d28afd5	0.04118331
20	0x3ed4970e	0.41521496
21	0xbd0bbca6	-0.034115456
22	0xbd210312	-0.03930957
23	0xbda237b2	-0.07920779
24	0x3e487cdc	0.1957888
25	0x3de451b1	0.11148394
26	0xbdd5a1c8	-0.10431248
27	0xbd1ee962	-0.03879679
28	0x3be53105	0.006994369
29	0xbcbe7d5b	-0.023253134
30	0xbe49defb	-0.19713967
31	0xbd452cc7	-0.048138406
32	0xbf6b44e3	-0.9190199
33	0x3ef61cf1	0.48068956
34	0x3d261db0	0.040555656
35	0x3db97b00	0.090566635
36	0xbd909d57	-0.0706126
37	0x3b05da84	0.0020424435
38	0xba90b967	-0.0011041582
39	0x3d24a8de	0.040200107
40	0xbe9230e5	-0.2855293
41	0xbdfb8fb7	-0.12283271
42	0x3f2f60b2	0.6850692
43	0xbf25356a	-0.6453463
44	0x3dcb9c15	0.0994188
45	0xbc734e40	-0.014850199
46	0x3e88610a	0.26636535
47	0x3d34cd23	0.044140946
48	0x3e243707	0.16036616
49	0x3ded8de5	0.1159933
50	0x3fa5fe3c	1.2968211
51	0x3d2ea76b	0.04264013
52	0xbe302910	-0.17203164
53	0x3e858aea	0.26082546
54	0xbfdd95a2	-1.7311289
55	0xbc62dcbc	-0.0138465725
56	0xbd8e4342	-0.06946422
57	0x3b2529e5	0.0025201973
58	0xbefd3784	-0.49456418
59	0xbed36cdb	-0.41293988
60	0x3f91401a	1.1347687
61	0xbd29a337	-0.04141542
62	0xbe8acc88	-0.2710917
63	0xbc81a99e	-0.01582795
64	0xbf01ab2a	-0.506518
65	0x3dae4a51	0.085102685
66	0xbe24bb23	-0.16087012
67	0xbed82171	-0.42213014
68	0xbccce396	-0.025010865
69	0x3e037587	0.12837802
70	0xbd5e894a	-0.054330148
71	0xbf5d3618	-0.86410666
72	0x3c9b82a6	0.018983196
73	0xbf8c8c72	-1.098036
74	0x3c9035bc	0.017603748
75	0x3f152d82	0.58272564
76	0xbd1256e7	-0.035727408
77	0xbe5874af	-0.21138261
78	0xbe28119f	-0.16412972
79	0x3c9783d1	0.018495472
80	0xbe0b6186	-0.13611421
81	0x3a686160	0.00088646077
82	0xbd719e46	-0.058988832
83	0x3da13a05	0.078723945
84	0xbe3039cd	-0.17209549
85	0xbeccd1c3	-0.40003785
86	0xbce9395c	-0.028469734
87	0xbf7b6489	-0.9820028
88	0x3d4b66e2	0.049658664
89	0x3c68c254	0.014206488
90	0x3c2b213e	0.010444937
91	0xbe47bd97	-0.19505917
92	0x3c5d4d0e	0.013507141
93	0x3d2281a0	0.0396744
94	0x3c9e75ec	0.019343339
95	0x3d1882ce	0.03723412
96	0x3d63299b	0.0554596
97	0x3eda1eb7	0.4260156
98	0xbd9e67aa	-0.07734616
99	0xbcb4d47d	-0.022073979
100	0x3c9a63ee	0.018846478
101	0x3f93fe1b	1.1561922
102	0x3e1d85cc	0.1538307
103	0x3c7e9f61	0.015540929
104	0x3fad1ae1	1.3523828
105	0xbcc0d61b	-0.023539593
106	0xbe2f1a4c	-0.17099875
107	0xbe63cf05	-0.2224694
108	0xbbe94e60	-0.0071199387
109	0xbec43f2c	-0.38329446
110	0xbd09f277	-0.033678498
111	0x3dd432f0	0.10361278
112	0x3e23a081	0.15979196
113	0x3f3513af	0.7073316
114	0x3f4acfeb	0.7922351
115	0x3c00407e	0.007827876
116	0x3cab2a28	0.020894125
117	0xba1e3c92	-0.00060362474
118	0xbd72ddb9	-0.059293482
119	0x3d32ca05	0.043649692
120	0x3d9a9cf8	0.07549471
121	0x3e2b4f52	0.16729477
122	0xbdad91ba	-0.08475061
123	0xbe1b6a38	-0.15177238
124	0xbcbd3762	-0.023097698
125	0xbe5db4d1	-0.21651007
126	0x3d4d6184	0.050141826
127	0xbf936ec7	-1.1518182
128	0xbfa3996d	-1.2781197
129	0x3d15ba0a	0.036554374
130	0xbbbdf697	-0.005797218
131	0xbc6a8a63	-0.0143152205
132	0x3e5e60b0	0.21716571
133	0x3e9e2ed1	0.30895093
134	0xbd084e29	-0.033277664
135	0xbe5f9d76	-0.2183741
136	0x3e4325d3	0.19057398
137	0x3d53dcf4	0.05172439
138	0xbbe3af31	-0.0069483747
139	0xbebb83b4	-0.3662392
140	0xbd685b27	-0.056727555
141	0xbc667d01	-0.014067889
142	0x3d7a6c69	0.061138544
143	0xbef69cd4	-0.48166525
144	0x3d7c9000	0.061660767
145	0xbf2e1698	-0.68003225
146	0x3d4114ad	0.04713886
147	0xbd21d9a8	-0.039514214
148	0x3caf97af	0.021434633
149	0xbce5de5b	-0.028060129
150	0xbd090273	-0.0334496
151	0x3d25584d	0.040367413
152	0xbec55dd5	-0.3854815
153	0x3ccf2f33	0.025291061
154	0xbd415079	-0.047195885
155	0x3d2d6903	0.042336475
156	0xbe086d76	-0.13323006
157	0xbf704cf2	-0.9386741
158	0xbd5f16a3	-0.054464947
159	0xbdfe4e2d	-0.124172546
160	0x3e3981d3	0.1811593
161	0x39585e05	0.0002063439
162	0xbccb17f0	-0.024791688
163	0x3d776fb6	0.06040927
164	0x3f0be063	0.5463926
165	0x3ef85efb	0.48509964
166	0x3d3cab92	0.04606206
167	0x3d3e9b19	0.04653463
168	0x3ee80a4d	0.4532036
169	0x3d519031	0.051162902
170	0xbd9c48c9	-0.0763107
171	0x3d3e6aab	0.046488445
172	0x3d4211c1	0.047380213
173	0xbf9137a0	-1.13451
174	0xbd27ba27	-0.040949013
175	0xbd6c5d72	-0.057706304
176	0xbe3906e2	-0.18069032
177	0x3ea8bd83	0.32957086
178	0x3d282080	0.04104662
179	0xbca780dd	-0.020447189
180	0x3e9cee9d	0.30650797
181	0x3e4a7308	0.19770443
182	0xbcdc5274	-0.026894785
183	0xbcd591e9	-0.026070552
184	0x3e092f48	0.13396943
185	0xbf31e188	-0.6948476
186	0xbe8c5539	-0.2740877
187	0xbc8961af	-0.016770212
188	0x3efce153	0.4939066
189	0x3aa60c0c	0.0012668385
190	0x3d391447	0.045185354
191	0xbc71d7a5	-0.014760886
192	0xbb386d9f	-0.002814151
193	0xbe39c964	-0.1814323
194	0xbe6435de	-0.22286174
195	0xbd73408e	-0.059387736
196	0x3d39a626	0.045324467
197	0xbf004559	-0.50105816
198	0x3fa2629f	1.2686347
199	0x3c8880ec	0.016663037
200	0x3ee3c720	0.44487858
201	0x3d61ae07	0.055097606
202	0x3cb66c3e	0.02226841
203	0x3db405cb	0.087901674
204	0xbb9e15ea	-0.0048243897
205	0xbd0f9f43	-0.035063993
206	0xbd40e5f0	-0.047094285
207	0xbd41bcc1	-0.04729915
208	0x3f556c3e	0.8336829
209	0x3e4acf6c	0.19805688
210	0xbd3a2182	-0.04544211
211	0x3ef91994	0.48652327
212	0x3cdb440d	0.026765848
213	0x3d18d0bc	0.03730844
214	0x3d714986	0.058908008
215	0xbcd101fa	-0.025513638
216	0xbed28f57	-0.41124985
217	0xbd5feaff	-0.05466747
218	0xbd4f314c	-0.050584123
219	0x3c96d2ea	0.018411119
220	0x3c3314e5	0.010930275
221	0x3de0e0d1	0.1098038
222	0xbdf0fa65	-0.11766509
223	0xbdfd6306	-0.12372403
224	0x3d4ab240	0.0494864
225	0xbeb452ba	-0.35219365
226	0x3cdde46c	0.02708646
227	0xbdfadb90	-0.122489095
228	0xbb4085a4	-0.002937653
229	0x3b555d4b	0.0032556828
230	0x3e2be055	0.16784795
231	0x3d04290f	0.03226572
232	0xbd5b783d	-0.053581465
233	0xbe1afdd8	-0.15135896
234	0xbe8663e2	-0.2624808
235	0x3f1561c1	0.58352286
236	0x3e0a829a	0.13526383
237	0xbe22e3c8	-0.15907204
238	0xbd8bd94a	-0.06828554
239	0x3d3386ff	0.043829914
240	0x3dbabac6	0.091176555
241	0xbce0a64c	-0.027423047
242	0x3e9a50ba	0.30139714
243	0xbc63a535	-0.013894369
244	0x3e753857	0.23947273
245	0x3ec1ecc3	0.37875947
246	0xbf3f5968	-0.747458
247	0x3d235832	0.03987903
248	0xbd36efad	-0.044662166
249	0x3c0b7c3f	0.008513509
250	0xbc230a1c	-0.009951141
251	0xbf21f3d2	-0.63262665
252	0x3af906f6	0.0018999267
253	0xbeddd4cf	-0.43326423
254	0xbd2aee91	-0.04173142
255	0x3baccaf7	0.0052732187

net.4.bias f4 [13]
0	0xbe4768bf	-0.19473551
1	0xbed5788c	-0.41693532
2	0x3ee7b6df	0.45256707
3	0xbe911ece	-0.28343815
4	0xbe9bfab5	-0.30464712
5	0xbda58551	-0.08082069
6	0x3e8b85fd	0.27250662
7	0x3d3e58bb	0.04647134
8	0xbd52245a	-0.0513042
9	0xbd429d0c	-0.047513053
10	0x3c17e1b0	0.009270117
11	0x3da7173b	0.08158728
12	0xbcfb5ff6	-0.030685406

log_vars f4 [13]
0	0xbf6af9a4	-0.9178717
1	0xbf6a0438	-0.9141269
2	0xbf485d89	-0.78267723
3	0xbf4c05e5	-0.79696494
4	0xbf4324c1	-0.76227957
5	0xbf2986cd	-0.66221315
6	0xbf23ef4e	-0.64037025
7	0xbfe3a768	-1.7785463
8	0xbfa86b93	-1.3157829
9	0xbf8e5a62	-1.1121333
10	0xbfc7540a	-1.5572522
11	0xbfc72418	-1.555789
12	0xbfa3f45e	-1.280895
