mixture_mlp.pt (torch, 587248 bytes, 7 tensors)

net.0.weight f4 [512, 21]
00000000: 45fe 2c43 3df7 49c3 47db 4943 11ef 45c0
00000010: 7a0b bdbe d201 0dc2 b1fb df42 c172 bdc2
00000020: f13d 56c0 22f2 14be ffaf d742 c57d 88c2
00000030: 882e 0843 5ade 36bf 38ca ef3e 0926 3441
00000040: 8b3a b3c2 8c36 eec2 fc6f 6b40 0c5a a7bd
00000050: 3890 bebb f155 81c1 f0df 8842 2983 8542
00000060: 2062 ecbf 06c9 af3f 5075 8240 c1dd c83f
00000070: 0718 3bc0 4f7e 5fc0 94e1 3140 837a 5ec1
00000080: c584 6c42 ff8f 7f42 9041 05c0 0ef6 ff3f
00000090: 3007 62c1 59a9 b8c1 ccc8 efc0 36c3 afbe
000000a0: fa9c 403e 1c05 473e 0557 d343 c9d9 b4c3
000000b0: 16a9 3b43 3985 bfc0 21fb c0bf 2b2f 2cc0
000000c0: 597e d4c1 95c5 d940 5d0e f2bf fdde a8be
000000d0: 33bf a143 dd4a 91c3 82ea 3443 4091 87bf
000000e0: 1c2e 313f dabd 7ec2 d84e b3c2 7894 d5c2
000000f0: 9f4b 1040 fd14 a83d 55ba eebb ef78 7742
00000100: 70a6 9bc1 aff4 aec2 94d4 5d40 aac3 8ebf
00000110: b189 78c2 96f8 8ec2 0030 c6c2 b0fd 2b40
00000120: 62c3 c6be 5d32 1bc2 c054 92c2 94de 21c3
00000130: 6656 a23f dfc4 acbf 815a ddba 49be 4242
00000140: 0b89 1942 dedf 64c0 304e aa3f ede0 7fbb
00000150: 7bb5 01c2 9f14 aebf 1970 f941 e638 1cc0
00000160: bcfe ee3f c6f8 0c42 1f61 5542 3c01 3342
00000170: 4ce3 e8bf e4f2 bb3f 68d0 c441 c996 5742
00000180: 86ca 8e42 c461 52c0 dea4 073e b5ea 4541
00000190: 1dab 39c1 9da9 05c2 c719 a83f 0ae9 06bf
000001a0: 543d 50bd 443e 0a3e 2991 983d ef4a f93d
000001b0: 2893 993d cf6e 523e c471 1f3e 302e 49bd
000001c0: 015a 1f3e 70c7 02be ebba 7e3b f661 183e
000001d0: d266 8a3d af5f 7f3d c231 d43d 1eec 4e3c
000001e0: c8d1 463e 92b7 c1bd 2f18 90bd 92c4 393e
000001f0: 3268 93bd 7694 2b3d 0028 c1bc 41b5 203e
00000200: d0d6 13be 447f 70bd 7c1c 32be e0ca 98bb
00000210: dcca 593d e0a2 433c 3bb5 2f3e 2cac 0cbd
00000220: 3c20 213d 0f10 46be 9873 ff3c ef39 343e
00000230: e49a 043d 8c22 0f3d ea71 ad3d a01b 53bd
00000240: e539 0ebe fcb5 403d c052 c63c 9cdd f0c3
00000250: 5b7c b643 4bf8 13c1 cea1 0d40 1453 0440
00000260: ec25 f541 7b61 c6c0 1cdf c6c1 d9b9 4740
00000270: c171 9a3f a58a aac3 bed8 9143 5d7d 69c2
00000280: 8fc5 6cbe f34d 1dbe 9de4 da41 e591 b542
00000290: e098 bb42 6d5e 23c0 f816 cdbf 1fa6 213c
000002a0: 6d86 12c1 5d46 7740 6351 6140 17c7 97be
000002b0: 69c3 c83e a444 d6c0 f6ac cbbf 5e1c 3840
000002c0: 2dda 0cbf 4e02 bf3e 64c2 24c1 e965 c63f
000002d0: 3646 9740 9f91 48bf 310f 593f cab3 87bf
000002e0: 673e b13e 8588 183e 6398 643f 1263 37bf
000002f0: c904 15bd da0a b0bd 1a04 bf3d 0008 94bb
00000300: f628 bd3d 55ee 423e a0c9 05bc fccc 063d
00000310: d0a3 893c 4081 1abe f048 2fbe 0267 fb3d
00000320: 047a 3cbe 4d0e 3bbe 977a 153e bf01 4cbe
00000330: 1e98 13be 0db3 393e f4ce 1d3d 9d9a 1dbe
00000340: 262e c1bd 4029 7cbd 0eca 2042 76de df42
00000350: 776a 4ac1 b04d 713f 6db7 02bf 69ef f5c2
00000360: 3611 c942 47bc 66c3 6e8e 9dc0 aba4 c03f
00000370: 3d9c 91c2 4ff5 1743 d745 41c3 0dee 22c0
00000380: 2677 103f 80d8 3dc1 e08c 38c1 998e 2ac2
00000390: 0650 49bd cc60 dabe 595f 8dbd 705d 9542
000003a0: 8b99 fe42 2274 5443 a400 25c0 b1ee 893f
000003b0: 91ef 14c2 4dd5 1343 fa68 d741 a95b 34c0
000003c0: 0b77 9f3f 0297 1b42 069b 5643 911c 4343
000003d0: efa5 adbf ac05 7a3f c59a 2cc2 986c 33c2
000003e0: 187a 82c2 b68a 4c40 e22a c5bf 11da 99ba
000003f0: 176e bc40 e6d5 8bbe b43d 0bc1 abe9 92be
172.99324 -201.96577 201.85655 -3.0927165 -0.36922818 -35.251778 111.991585 -94.72413
-3.3475306 -0.14545491 107.84374 -68.24564 136.18176 -0.7143303 0.46833968 11.259286
-89.61434 -119.10654 3.67871 -0.08171472 -0.005815532 -16.166964 68.43738 66.75617
-1.8467445 1.3733222 4.0768204 1.5692674 -2.9233415 -3.4920843 2.7793932 -13.90491
59.129658 63.89062 -2.0821266 1.9996965 -14.126755 -23.08269 -7.4932613 -0.34328622
0.18809882 0.19435543 422.67984 -361.70145 187.66049 -5.9850125 -1.5076638 -2.690379
-26.561693 6.805369 -1.8910633 -0.32982627 323.49374 -290.58487 180.91605 -1.0591202
0.6921098 -63.685402 -89.65399 -106.78998 2.2546155 0.08207128 -0.007285396 61.8681
-19.456268 -87.4779 3.4660997 -1.1153462 -62.134464 -71.48552 -99.09375 2.6873589
-0.3882094 -38.799183 -73.16553 -161.86945 1.2682617 -1.349758 -0.0016887934 48.685825
38.38383 -3.5761638 1.3305111 -0.0039043978 -32.427227 -1.3600043 31.179735 -2.4409728
1.8671489 35.242943 53.344845 44.751205 -1.8194366 1.4683499 24.60176 53.89725
71.39555 -3.2872171 0.13246486 12.3698015 -11.604276 -33.415638 1.3132867 -0.5269934
-0.050839737 0.13500315 0.07449562 0.121724956 0.07498771 0.20550083 0.15570742 -0.049116313
0.15561678 -0.12771392 0.0038868736 0.14881119 0.06757893 0.06234711 0.10361053 0.012629537
0.19415963 -0.094588414 -0.07035863 0.18141392 -0.07197608 0.04188963 -0.023578644 0.15694143
-0.14437413 -0.05871512 -0.17393678 -0.0046628565 0.053171977 0.011940688 0.17158978 -0.034343883
0.03933738 -0.19342063 0.03118305 0.17600225 0.032374278 0.034945056 0.08468993 -0.051540017
-0.13889273 0.047048554 0.02420938 -481.73132 364.97153 -9.248118 2.2130008 2.0675707
30.643517 -6.1993995 -24.85894 3.1207182 1.2065965 -341.08316 291.6933 -58.372425
-0.23122238 -0.15361767 27.361628 90.78495 93.798584 -2.5526383 -1.6022635 0.0098662665
-9.157819 3.8636696 3.5205925 -0.2964408 0.39211586 -6.695879 -1.5912158 2.8767314
-0.5502041 0.37306446 -10.297459 1.549985 4.7273207 -0.783472 0.84788805 -1.0601742
0.34617922 0.14895828 0.89295024 -0.71635544 -0.036381517 -0.0859582 0.09326954 -0.0045175552
0.09236328 0.19036229 -0.008165747 0.032910332 0.016801745 -0.15088367 -0.17117667 0.122755066
-0.1840592 -0.18267174 0.14597546 -0.19922541 -0.14413497 0.18134709 0.038527444 -0.15391012
-0.0943263 -0.061562777 40.19732 111.934494 -12.650992 0.94259167 -0.51061136 -122.9676
100.533615 -230.73546 -4.9236364 1.5050253 -72.80515 151.95824 -193.27281 -2.5457795
0.56431806 -11.865356 -11.534393 -42.639256 -0.049148582 -0.42651975 -0.06902952 74.682495
127.29989 212.45364 -2.578164 1.0775968 -37.23395 147.8332 26.926258 -2.8180945
1.2458204 38.89747 214.60556 195.11159 -1.3566264 0.97664905 -43.151142 -44.85605
-65.238464 3.1959662 -1.5403712 -0.0011737962 5.8884387 -0.2731163 -8.702564 -0.286939

net.0.bias f4 [512]
00000000: 697b d33e aead 223f fc76 c03e 0049 14bf
00000010: c2cb 243f c30c d5bd f2c6 b4bd a9ce 52bc
00000020: 2786 d43d 68c9 17be 5d06 133f 45e9 173f
00000030: ab62 50bd 8983 5dbe 0c96 133f 4658 b6bd
00000040: db84 26be 4768 3bbf c10d 863c ed60 d5bd
00000050: 97e6 8b3e 5684 4ebe d983 f13c 0001 753a
00000060: 80b3 8a3a fb39 153f 8cb1 54be 6d92 06be
00000070: 9144 a5be fb8f 5bbe 8209 0d3e 07c2 633e
00000080: bc9b ce3e cca6 51bd 005a a1bd 9356 a23d
00000090: 2ebb 9dbe 86e4 04bf ae68 e43d 5368 2abf
000000a0: d9c6 50be ea2a 14bf 8d82 29bc de29 333f
000000b0: 1a31 3bbe b70e 22be 6e52 2c3f a85e 103f
000000c0: 98d2 09bf 7aa1 05be 3c25 3d3f 0ae6 0abe
000000d0: 82c2 34be c8f9 1abe 88cb 263f 744e 003e
000000e0: b6e6 d9bd af95 cdbe bcc2 023c 90d8 343c
000000f0: e213 09be 2cc3 43be 1d09 07bd 5efa e8be
00000100: 9edc d63e 16d0 24bf 9923 d83e da4c 8cbd
00000110: 14d4 413e e3e3 a8bd 6e9d e3be 097d 8cbd
00000120: 09ba 23bd 84e0 15bd 31b7 fa3e 6e31 10be
00000130: 95b3 2dbd 0870 96bd 6be2 d33e aee4 e2bd
00000140: 26f0 d63e ef6e bf3e 671f 123f 5ec3 4e3f
00000150: f858 98bd 7784 8cbd a5cd 1e3f a5eb 943e
00000160: c520 ed3e 69f7 233f 300e 74bc 93ee 133f
00000170: 05f3 45bf dcbb 2cbf 25df 0d3f 61c4 6b3d
00000180: d7d4 7abf 1f02 40bf c73e f8bd 709b bdbd
00000190: 387f 113d 5a10 fabe 4000 02be 8bf2 a8be
000001a0: d7e6 24be 52ce 20bf f920 e53e d2fd 0dbe
000001b0: fe93 173f 96c1 3bbe 36a2 21be 66a3 2abe
000001c0: b19e 533e a871 97be bd5c 42bf 8486 b73e
000001d0: aae6 39be 55f5 f6bd e7e5 38bf 664f 1cbd
000001e0: a102 9e3e f822 5bbd 968d dd3e 5f30 48be
000001f0: 1fc4 69be cab5 603f c6e4 0fbe efe4 ed3a
00000200: 8353 d4bd d726 05be fa60 4dbe 6464 20bf
00000210: eee9 57bf bac2 debc 8073 f33e da65 26be
00000220: 3874 38bd 08bd e6bd 7ef2 f4bd f75b c4bd
00000230: 6d50 d73d 478f 4bbe 91ee 6e3d 3f9e 3ebe
00000240: a0f3 ad3e 6d37 4ebf ad56 50be 78ba 0abd
00000250: c623 cdbe 527a 1f3f fa1d 2abe e717 1d3f
00000260: 81b0 0d3e c88d 3e3e 4480 d73e 4ccf f03e
00000270: f667 1abf 60ba 1bbe 8262 c9be f045 3c3c
00000280: 4177 193f e2ab 09be 6a10 2abe 38d7 54be
00000290: 23e8 37bf 6694 83be d05f 8bbd 09f4 cabe
000002a0: 592f f13e 9c59 1abe ddfd 45be 3d5b 7a3e
000002b0: ae95 85be 9c08 70bf 4dfe a1bd b11d 4bbd
000002c0: 0a8f 1fbf 25da edbd 12e3 bfbe 4488 fcbd
000002d0: 0c2a 18be c20a 01be 22f2 3ebe f0e2 92bd
000002e0: 7ad1 f8bd 4022 9fbd f2c0 153f ed62 823e
000002f0: 8196 0e3f 6779 053f 1f3a 1c3f bfc6 253f
00000300: a50a 683e 18a6 44bf 126f 0a3f ccf5 f2be
00000310: d571 3abe c477 5dbe 1243 9abd 5cd7 23be
00000320: f891 613c 2609 0f3f 1d6b 5c3e 821e 7d3d
00000330: 14ef 98bd 71ab 3e3e b520 f23e bc0d d43e
00000340: f2d7 33be 6366 04be 1691 1f3f 8f4b 57be
00000350: 055f 9fbd 362d 91bd de46 58be 116e 23bf
00000360: 34de c6be b8df bebd 73e7 a53d 11d1 a53e
00000370: e62c 8cbd 8357 88be c046 973c 2b76 c3bd
00000380: 681b 3bbe 9462 dabd a98f 5c3e f966 3fbe
00000390: b73f 393f 745b e1bd fa1c 123f 56cb 38be
000003a0: d74d 9ebd 5656 c73e d85f 1dbe c2c9 a1bd
000003b0: 62da 173f beec 53be 0c86 bebd 386b 773e
000003c0: a685 163e 60bf 8fbb 3dce cc3e 3e3d 2cbe
000003d0: ea9a 21be e9da ae3e b517 813b 531f f63e
000003e0: f4d7 98bd 2b0d e5bd 96f6 613d 2ae6 c4bc
000003f0: 2b59 13bf 97cc 3abe 137b fbbe a711 443f
0.41305092 0.63546264 0.37590778 -0.5792389 0.6437341 -0.10402825 -0.08827008 -0.012866654
0.1037715 -0.14822924 0.57431585 0.59340316 -0.050875347 -0.21632208 0.5765083 -0.089035556
-0.16261618 -0.7320599 0.01636398 -0.10418878 0.27324364 -0.2016767 0.029481815 0.00093461573
0.001058206 0.58291596 -0.20770854 -0.13141795 -0.32278875 -0.21441643 0.13773158 0.22241984
0.4035319 -0.05118446 -0.07878494 0.07926669 -0.3080687 -0.519112 0.111527786 -0.66565436
-0.20388354 -0.5787798 -0.010346067 0.6998576 -0.1828045 -0.15825926 0.6731328 0.56394434
-0.53836966 -0.1304988 0.7388494 -0.13564315 -0.17652324 -0.15134346 0.65154314 0.12529927
-0.10639708 -0.40153262 0.007980999 0.011037961 -0.13386491 -0.19117421 -0.032967675 -0.45503515
0.41965193 -0.64380014 0.4221466 -0.06850596 0.18928558 -0.08246591 -0.44456047 -0.06859786
-0.03997234 -0.036591068 0.4896789 -0.14081356 -0.04240759 -0.07345587 0.4138368 -0.110787734
0.41980094 0.37389323 0.57079166 0.80766857 -0.074388444 -0.06861203 0.6203254 0.29086033
0.46314064 0.6404939 -0.014895961 0.5778591 -0.77323943 -0.6747415 0.55418617 0.05756033
-0.9798102 -0.75003237 -0.12121349 -0.09258163 0.035521716 -0.488406 -0.12695408 -0.32997546
-0.16103683 -0.6281482 0.4475172 -0.13866356 0.59210193 -0.18335566 -0.15784535 -0.16663894
0.20666005 -0.295789 -0.7592276 0.35844815 -0.18154398 -0.12058512 -0.72225803 -0.038161658
0.3086138 -0.053500146 0.43272084 -0.19549702 -0.2282872 0.8777739 -0.14052114 0.0018149893
-0.10367491 -0.13003097 -0.20056525 -0.62653184 -0.84341323 -0.027192462 0.47549057 -0.16249791
-0.04503271 -0.112665236 -0.11960314 -0.095878534 0.10513387 -0.19878875 0.058332983 -0.18615054
0.33974934 -0.80553323 -0.20345564 -0.033869237 -0.40066355 0.6229602 -0.16612998 0.613646
0.13836862 0.18608773 0.42090046 0.47033155 -0.6031488 -0.15207815 -0.39332968 0.011491284
0.5994759 -0.13444474 -0.16607824 -0.20785224 -0.7183859 -0.25699157 -0.06805384 -0.3963931
0.47106436 -0.15073246 -0.19335122 0.24448867 -0.2609076 -0.93763137 -0.07909832 -0.049588863
-0.62327635 -0.116138734 -0.37477928 -0.12330678 -0.1485979 -0.1260176 -0.18647054 -0.07172191
-0.121493295 -0.077702045 0.58497536 0.254661 0.556984 0.5213837 0.61026186 0.6475639
0.2266031 -0.7681594 0.5407573 -0.47453153 -0.18207486 -0.21627718 -0.07532324 -0.16000122
0.013767712 0.55873334 0.21525235 0.061796673 -0.074674755 0.18620087 0.47290578 0.41416728
-0.17562845 -0.12929682 0.6233076 -0.21024917 -0.077817954 -0.070887014 -0.21120784 -0.63839823
-0.38841403 -0.09320015 0.08100786 0.32386068 -0.06844501 -0.26629266 0.018466353 -0.09544023
-0.18272173 -0.106633335 0.21539177 -0.18691625 0.72362846 -0.110037714 0.57075465 -0.18046317
-0.077296905 0.38933057 -0.15368593 -0.078998104 0.593176 -0.20695779 -0.09302911 0.24161994
0.1469942 -0.0043868273 0.40001097 -0.16820237 -0.15781751 0.3415139 0.0039395937 0.48070773
-0.07463065 -0.11184152 0.055166803 -0.024035532 -0.57557935 -0.18242107 -0.49117336 0.76589435

net.2.weight f4 [256, 512]
00000000: 45ff 84bc 5063 6bbd 306e 1fbd 0ef8 19bc
00000010: c055 9bbd 25f5 183d 8758 2f3d 9c60 90bd
00000020: cd73 60bd 5239 d73c 2c06 14bd 178f 0fba
00000030: a590 0a3d 5c2a 0ebc 3349 28bd b898 94bc
00000040: e9ea a43b 007a af3b 2634 9ebd 58d2 f6bc
00000050: eb8a 91bd 787e 16bd 5776 7cbc 4c7e 51bc
00000060: f1bf 1c3d b0d4 0e3c 78fa 313c 6a84 5cbd
00000070: a776 a0bc ec0f 443c ee7c 87bd 2213 65bd
00000080: 44aa 15bd c87c 2fbd 3e0f 21bd 0e4c e43a
00000090: 774e a0bc 64d7 4cbd 9ff9 69bd 3094 94bd
000000a0: e8a7 f8bc 6206 79bd 2ad8 89bd c329 a5ba
000000b0: 30c9 1dbc eb1c 8dbd 1ec8 5cbd 55a7 223d
000000c0: 8d42 6bbd f020 54bc f329 8cbd 3f6c 133d
000000d0: 7e3a f83c 2402 3f3c 0e49 13bd bac1 7dbd
000000e0: 9828 9abd 328a a93c 288c 63bd e37d 09bd
000000f0: f08a 693b a0ff 273b 415b 84bd d7fb 24bd
00000100: fae1 23bd c0bf f5bb 1e7f 52bd f4c7 9abc
00000110: cc5d 153c eafc 9e3c f253 83bd 320e d03c
00000120: f20b c53c 7dc3 12bd 57ff 0dbd 93f7 0abd
00000130: 9540 18bd bbaf 31bd 8873 b8bc 10d9 293c
00000140: a1b7 1abd c7a8 9cbd e85e dcba cf09 a4bc
00000150: 12dd a63c 0424 463c ecba 8abd cec6 7bbc
00000160: b2f6 0ebd ad5a 34bd bc76 90bc 9c62 7fbd
00000170: fb36 94bd d984 47bd 9680 9fbd 546c 80bd
00000180: e7a2 15bd e751 03bc 7ea8 02bd dbb5 e63a
00000190: 3a75 50bd 9d3c 9cbc e6d1 81bd 544f 80bd
000001a0: 3bb3 92bd b607 5dbd c0d0 923b e68b 67bc
000001b0: aa45 7cbd 6380 95bd 8eb6 d83c 2980 e4bc
000001c0: 7736 97bd 7f2c 29bd 05ba b5bc 90f7 31bd
000001d0: b215 a83c efa4 01bb fb8e 5dbd d331 1f3c
000001e0: ffe8 31bd 3a6f 22bd 298c 88bd 8092 82b9
000001f0: 6623 9abd 57cc 40bb 95ef 0f3d 77da 56bd
00000200: d176 043d d6f5 073b 4ce4 7b3c df74 7b3c
00000210: f539 87bc 62e0 b3bc 29d5 64bd 5fad ffbc
00000220: 996f 83bc 9a46 7cbc 5503 1a3d c859 34bd
00000230: 8177 62bd f8e7 a5bb 352f 88bd de92 10bd
00000240: 81a2 bd3b 19e8 26bd 180b 303c 4212 c13c
00000250: 1471 07bb 9bf4 19bd 45bb adbb afa0 d6bb
00000260: 4f09 85b9 50c7 d23b df84 8ebd a01e 57bd
00000270: 6d2a 74bc c021 e43b 9335 173d 38d7 9fbb
00000280: 0575 1bbd b0f2 ed3b 1f0b 013d acbb 18bc
00000290: 3551 b7bc f5b3 90bc 70b8 2b3c 9f9b 97bd
000002a0: 9b94 e3bc 28bd 9c3b 9b5b aabc 50ca 21bd
000002b0: a284 d7bc b03f 48bd 4524 0abd c5cb 6cbd
000002c0: f4f1 e13b 1f9b cabc a410 963b 37cc 8abc
000002d0: b416 6f3c 9484 763c 87c3 97bc 2683 e23c
000002e0: 6457 47bc 1b54 f1bc 77ae dfbc 09c0 98bd
000002f0: 41d0 6d3b c232 10bd c182 3cbd 7f04 00bc
00000300: 6bfb 85bd 828d 21bd d70b 29bd 5d06 8cbd
00000310: 52f4 e13c d8b6 d83b 7420 8cbc 8c18 53bd
00000320: 4dc2 643b dafe 97bd 37fc eebc 3366 48bc
00000330: 552b 1fbc f088 5ebd bdb0 69bc 298d 243d
00000340: 5a0a be3c a692 8b3c 391e 91bd 2206 6dbc
00000350: 9e1b 8cbd 0090 6ab8 696a 95bc bfa0 a3bb
00000360: 5914 0fbd afff 2cbd b3bd 46bd d684 bbbb
00000370: 284d 0ebd 79e0 b9bc 1fc6 283d 181c c4bb
00000380: 0d53 e1bc 45e5 a2bc 2091 d7bc 563c 1abd
00000390: 1656 e0bc 6068 6cbb 5040 10bd 4348 113d
000003a0: fa0a 85bd ce0a c2bc 2e3a af3c 1e0b d33c
000003b0: 21b1 71bd 31db a1bc 607d 25bd 0a71 4bbd
000003c0: 1230 11bd e0fd a9ba abcf 7f3c 3087 11bb
000003d0: fd17 16bd ad87 96bd b920 6cbc 21f8 973a
000003e0: c009 e83a c040 51ba 8f9e 0d3b d7f9 0b3c
000003f0: 1953 f4bc 8081 7d3a 2200 033c 69a8 76bc
-0.016235003 -0.05746776 -0.038923442 -0.00939752 -0.07584715 0.037343163 0.042809036 -0.07049677
-0.054797936 0.02627245 -0.0361387 -0.0005476339 0.03382935 -0.008677091 -0.041085433 -0.018139228
0.0050328863 0.0053551197 -0.0772479 -0.030129597 -0.071065746 -0.036741704 -0.015409074 -0.012786459
0.038268987 0.008717701 0.010862939 -0.053837217 -0.019587828 0.011966687 -0.06615625 -0.05592645
-0.03653933 -0.04284361 -0.039321177 0.0017417686 -0.019568665 -0.0500101 -0.057122823 -0.07254827
-0.030353501 -0.060797103 -0.06730683 -0.0012600947 -0.009630486 -0.06890281 -0.053901784 0.03971036
-0.057436515 -0.012947306 -0.06843939 0.035991903 0.030301329 0.011658225 -0.035958342 -0.06195233
-0.07527274 0.02069578 -0.055553585 -0.03356732 0.0035635792 0.0025634542 -0.06462718 -0.040279236
-0.04001043 -0.007499665 -0.05139076 -0.018894173 0.009116601 0.019407708 -0.06412496 0.025397394
0.024053548 -0.035830963 -0.03466734 -0.03392751 -0.037170965 -0.04338048 -0.022516027 0.010366693
-0.03777278 -0.07649379 -0.0016812952 -0.020024208 0.020369086 0.012093548 -0.06773934 -0.015367223
-0.034903236 -0.044031788 -0.017634742 -0.0623499 -0.07237049 -0.048710678 -0.07788198 -0.06270662
-0.03653231 -0.0080151325 -0.031898968 0.0017601805 -0.050893046 -0.019071871 -0.06338863 -0.06265131
-0.07163092 -0.05396243 0.0044804513 -0.0141324755 -0.061589874 -0.072998784 0.026454236 -0.027893143
-0.07383435 -0.0413022 -0.022183428 -0.043448985 0.020518158 -0.0019782146 -0.054091435 0.009716469
-0.043435093 -0.039656855 -0.066673584 -0.00024904683 -0.07526283 -0.002941867 0.035140593 -0.052454438
0.032339875 0.0020745895 0.015374254 0.015347688 -0.016507128 -0.02195758 -0.055867348 -0.0312106
-0.016044425 -0.015397692 0.037600834 -0.044030935 -0.05528975 -0.005063053 -0.06649629 -0.035296313
0.0057871942 -0.04074869 0.010744832 0.023568276 -0.0020666765 -0.03758679 -0.0053018653 -0.0065499167
-0.00025374672 0.0064324513 -0.06958937 -0.05251944 -0.014902693 0.006962031 0.036916327 -0.004877951
-0.037953395 0.0072615966 0.031504747 -0.009322088 -0.02237759 -0.017663935 0.010480985 -0.07402729
-0.027780822 0.0047832914 -0.020795634 -0.03949958 -0.026308361 -0.048888862 -0.033725996 -0.057811517
0.006895298 -0.02473217 0.0045796204 -0.01694308 0.014592815 0.0150462575 -0.018525852 0.027650427
-0.012166832 -0.02945905 -0.027304871 -0.07458503 0.003628746 -0.035204656 -0.046023134 -0.007813572
-0.06542095 -0.039441593 -0.041271057 -0.06837151 0.027582321 0.0066135935 -0.017105319 -0.05153708
0.0034905851 -0.07421656 -0.029173 -0.012231397 -0.009714921 -0.054329813 -0.014263329 0.040173683
0.023198295 0.0170377 -0.07085843 -0.014466794 -0.06841205 -5.5924058e-05 -0.018239217 -0.0049935277
-0.034931514 -0.042236026 -0.048520755 -0.0057226224 -0.03474155 -0.022690045 0.041204568 -0.0059847943
-0.027505422 -0.019884715 -0.026314318 -0.037655197 -0.027384799 -0.0036072955 -0.035217583 0.035469305
-0.06496234 -0.023686793 0.021390047 0.025762137 -0.059006814 -0.019757839 -0.04040277 -0.04966835
-0.035446234 -0.0012969337 0.015613477 -0.0022205822 -0.03664397 -0.07350097 -0.014412099 0.0011594334
0.0017703101 -0.0007982366 0.00216094 0.008543453 -0.02982478 0.0009670481 0.007995637 -0.015054801

net.2.bias f4 [256]
00000000: c740 6ebd 385b 133c 8dbe 3cbd 24d8 19bf
00000010: 6a63 63bd da46 31bd aa28 99bf 36a0 073f
00000020: 13c6 63bd 5265 80bd d3c6 91be fe09 c1bc
00000030: 7f72 813f 9774 7dbd 2889 78bd ec9c 1cbd
00000040: 7c96 56bc 24e3 b8bd 67f5 a33e d65c 2abd
00000050: 6813 9d3d 1e6c 4abd dbf1 42bd 0137 3fbf
00000060: cd2f f03c a919 a7bc 0a5b 183f 5366 37bd
00000070: e274 68bd 23ea 84bd bb44 7bbe bc1d a4bc
00000080: 06a0 52bf 91cd bb3e a1e8 8abc 3060 afbc
00000090: a945 93bd 5b53 3abd dd20 d7bb b0b5 97bd
000000a0: fd35 883f 4240 283f fd25 783e 7d30 f23e
000000b0: 593d 9e3b a54d 8ebd 9e13 fc3e fad8 e4bc
000000c0: 0ece 783e 2555 92be a2a9 3bbf 84ab 7cbd
000000d0: a9a5 cabe af97 a73f 976c 3cbf 09b1 593e
000000e0: 489c 74bd 7cf6 b63a 73b1 b3be 1855 1b3f
000000f0: 4c87 823d 4293 96bc c30e 2ebf ba7f fcbc
00000100: 2e49 81be f3ab 1e3f 4ef8 083e b1d4 403e
00000110: a82b 92bc 9412 6a3a 5342 b33b 5876 973e
00000120: 4343 e1bb b906 b8be 5732 72bd 4881 6dbe
00000130: c7da b9bc 67c6 313f 8f2c 053f 6601 44bd
00000140: ae1e 5f3f 78d4 79bd f097 4abd 28d6 ffbc
00000150: 54fc 49bd d5cd 1e3f 056a 33bd e971 263f
00000160: 293d bd3e da4f 7cbd e5c8 21bd 6644 2dbd
00000170: 5172 88bc 58b1 36bd 537b 86bd 53bd 88bb
00000180: a2d8 55bd 9292 b23e 0242 24be f8dd 10bc
00000190: 6e39 63bd 3265 00bf 0b0f 9dbb d86d 80bd
000001a0: 6eab 4dbf c151 59bd 267d aabe 033c a9bd
000001b0: 8615 84ba f0cc 9cbf 2139 2dbf 43bb 983e
000001c0: d041 13bc 1eee c5be 4e3f 7bbf 202f a43b
000001d0: b045 9cba 2f4a 1bbc c9be 88bc 3957 48bd
000001e0: 5ba9 8abb 14c9 87bc 7908 5abc 199f 993d
000001f0: 02b3 8dbc 1c2d 2b3f 328b 24bd 8dc4 08bf
00000200: 88d8 b0be 2837 64bd c882 d0bc a211 a6bc
00000210: 0a1d a23e 8115 e23c 44f3 ca3b 4b1e ec3e
00000220: 3df9 63bf 0082 4fbd ff07 e23e f0c4 0e3b
00000230: c95f eabd 0499 19bc c2c3 46bd ff47 cc3e
00000240: 2dfd 84bc 4883 06be d478 68bd 14e4 6fbd
00000250: b351 b0bd 6e55 e2bc 8489 22bc fad8 80bb
00000260: 9937 72be 3a21 29bd 35bf 34bd 763e 34bd
00000270: 2125 14bc 00ca 5bbe da4b ca3d f25c a6bd
00000280: 35f0 c0bd 7c30 4bbd 3c8f 53bd 8095 07bd
00000290: 2d09 0ebe fad7 aabe 3f3a 0dbd 1d24 35bd
000002a0: 21f2 603f 70c5 7fbd de46 e43e e62c edbb
000002b0: dde4 5fbc c5a2 45be ba7f 783f c3b7 1fbb
000002c0: b2ce 1bbd a139 0a3c 043d 0bbd d963 76bd
000002d0: 8952 39bf dd8c f3bd 4157 babc ebab 72bd
000002e0: 9d35 b23c 8803 0dbf 8e79 0e3f 0639 61bd
000002f0: 35ba ef3e 96f6 84bd 870b 8bbd 7747 06bd
00000300: 835d 39bd 3b75 df3d f0f8 1dbf 5afa 27bd
00000310: 3782 00bc 0293 90bf daeb 98bd b082 26bd
00000320: 87f5 13bf 798e 42bd 7185 7abd d348 6bbf
00000330: 30aa d73b b779 32bd 44b9 c8bc dbe0 bfbc
00000340: 07a9 073f ab6d 64bd 68c4 b3bc d716 07bf
00000350: 3c5d e8bc 2b8d 52bd 6cf8 35bd 340e 8dbd
00000360: a379 35bf 320b 2cbf 222c 6bbd 114c d3bb
00000370: 6f36 16bc 9bbe 6f3f e364 8abc 76e1 6cbe
00000380: 718e ffbc c1e9 22bf 4daa 5bbd e30e 80bd
00000390: 072c 44bd 69fa 7cbd 8c61 253e 797d b0bb
000003a0: 1e1b 283f 229e 693c f75b 70bf 5d6f 97be
000003b0: 9ddf afbc 2a68 e1bc c2dc 96bc 8afd 18bd
000003c0: be6b 94bf 7c29 aebc 672b 663e e70b 40bd
000003d0: 0c07 443f 3e98 413f 6375 a9bd 836e 72bd
000003e0: 87d7 2cbd c9f8 68bc 6563 4bbd 7e93 6ebf
000003f0: d5db 08bd 68fa b9bd 9b52 77bd d05c 5cbd
-0.058167245 0.008993916 -0.04608016 -0.6009543 -0.05551473 -0.04328046 -1.1965535 0.5297884
-0.05560882 -0.06269325 -0.28472003 -0.023564335 1.0113066 -0.061878767 -0.060677677 -0.03823559
-0.013097402 -0.09027699 0.32023165 -0.04159244 0.07669717 -0.049419515 -0.047593933 -0.74693304
0.029319668 -0.020397978 0.59513915 -0.04477532 -0.056752093 -0.064899705 -0.24537937 -0.02003371
-0.82275426 0.36680272 -0.01695663 -0.02140817 -0.07191021 -0.04548965 -0.006565197 -0.07407701
1.0641476 0.6572305 0.24233241 0.4730262 0.0048290906 -0.06948403 0.49233717 -0.027935494
0.24297354 -0.28580585 -0.73305714 -0.061687008 -0.39579514 1.3093165 -0.73603195 0.2125894
-0.059719354 0.0013958956 -0.3509632 0.6067672 0.06373462 -0.018380765 -0.67991275 -0.030822624
-0.25251144 0.61981124 0.1337597 0.18831135 -0.017843083 0.000892916 0.005470553 0.29582477
-0.0068744733 -0.3594263 -0.05913004 -0.23193848 -0.022687329 0.6944336 0.52021116 -0.047852896
0.8715619 -0.06099364 -0.049461305 -0.031230047 -0.049312904 0.62032825 -0.04380228 0.65017563
0.36960724 -0.06159959 -0.03949823 -0.042301558 -0.016656073 -0.044602722 -0.06566491 -0.00417296
-0.05220855 0.3487745 -0.16040805 -0.008841984 -0.05547469 -0.5015441 -0.004793053 -0.06270951
-0.80339706 -0.053056482 -0.33298606 -0.082633995 -0.0010077215 -1.2250042 -0.67665297 0.2983037
-0.008987859 -0.38658231 -0.9814347 0.0050105006 -0.0011922624 -0.009478136 -0.016692536 -0.048911307
-0.0042316145 -0.016575374 -0.013307684 0.075010486 -0.017297272 0.66865706 -0.04017181 -0.5342491
-0.345402 -0.055716664 -0.025452986 -0.02027208 0.3166278 0.027598144 0.0061935503 0.46116862
-0.8905218 -0.050661087 0.44146726 0.0021784864 -0.11444051 -0.009374861 -0.048526533 0.3989868
-0.016234005 -0.13136017 -0.056755856 -0.05856712 -0.08609333 -0.027628627 -0.009920482 -0.0039321156
-0.23654021 -0.041291453 -0.04412766 -0.04400488 -0.009042055 -0.21463776 0.09877749 -0.08123197
-0.09420816 -0.049606785 -0.05165027 -0.03310156 -0.13870688 -0.33367902 -0.034479376 -0.044223893
0.8786946 -0.06244415 0.44585317 -0.0072380183 -0.013665405 -0.19300373 0.97069895 -0.0024371005
-0.038038917 0.008436591 -0.033993736 -0.060153816 -0.72391564 -0.11892102 -0.022746684 -0.059245985
0.02175408 -0.55083513 0.5565423 -0.054986022 0.46821752 -0.06492345 -0.06789308 -0.032782998
-0.045255195 0.10911032 -0.61707973 -0.04101024 -0.007843546 -1.1294863 -0.0746686 -0.040651977
-0.5779652 -0.047499154 -0.061162416 -0.91907996 0.006581567 -0.043573108 -0.024502404 -0.02342265
0.5299229 -0.05576865 -0.02194424 -0.52769226 -0.02836477 -0.05140416 -0.044426367 -0.06887475
-0.7088873 -0.6720458 -0.057415135 -0.006448277 -0.009168251 0.93650216 -0.01689381 -0.23132882
-0.031195851 -0.6363793 -0.05362921 -0.062528394 -0.04789355 -0.061762247 0.16150492 -0.0053860513
0.6566638 0.014258893 -0.9389033 -0.2957715 -0.021468932 -0.02751549 -0.018415812 -0.03735117
-1.159538 -0.021260016 0.22477494 -0.04688635 0.7657325 0.7562293 -0.08274343 -0.059187423
-0.04219773 -0.014219471 -0.049655337 -0.93193805 -0.033412773 -0.09080964 -0.060381513 -0.05379945

net.4.weight f4 [13, 256]
00000000: 0287 3f3c e709 a03d 43e9 7b3d cb7f 9940
00000010: 6d48 31bd 1007 00bc 4637 f63f b2ed 8abf
00000020: 1004 173d 8f57 953c c039 c03e a6f7 7e3d
00000030: fc19 13bf fc94 55bc f5e0 6cbb 5a6e b3bb
00000040: 460f 7abd 7e4b b6bf cb7f 933f 2750 f5bc
00000050: 0770 bb3f a6bc 0bbd 1203 21bd f974 38bf
00000060: a3e5 a03e bbbc 113d a66b 083f 62e9 1ebd
00000070: 0531 e53b 5b7d bebc 4f70 a5be c72c 45bd
00000080: 9edb 44c0 7d1d 513f bf79 893d 007b b93d
00000090: 579d 90bd 84da 053b 67b9 90ba 4f6d 823d
000000a0: 599c 04bf f8d9 a4bf c492 b73f ab58 8b3e
000000b0: c8bc 243d 112c ed3c f07d 3c3f 23cd 343d
000000c0: 8b0e 233f b447 cf3e ce65 3c40 6ba7 2e3d
000000d0: 075f 2ebe 908f 2c3f f630 35c0 d09d 3e3c
000000e0: 4243 8ebd e529 253b c64c e2bf c0a5 a8bf
000000f0: 4282 f03f 37a3 29bd c430 843e 54ac 44bd
00000100: ac1e 8abf 9592 3cbd bdf1 61bf cea5 50bf
00000110: 96e3 ccbc f8d8 9bbc 4a89 5ebd a5b7 2ec0
00000120: a682 9b3c 5504 e7bf bc35 903c ef08 0940
00000130: e756 12bd 3f99 033f d5df 49bf d183 973c
00000140: 2310 7b3d 6061 683a 469e 71bd c4c7 0b3c
00000150: 31cb 8abc 4125 53bf 5c39 e9bc e282 34bf
00000160: 68d5 963e 54c2 683c 3e21 2b3c 8a81 17bd
00000170: 0e4d 5d3c a081 223d ec75 9e3c ce82 183d
00000180: 9b29 633d 4939 993f 34fa dfbe 7dd4 b4bc
00000190: ee63 9a3c 4360 0740 08e7 dbba 619f 7e3c
000001a0: c528 2040 1bd6 c0bc 27b7 79be 541f 6dbf
000001b0: 604e e9bb c2ce c8bf 16cf 7ebf 9dbb 99bd
000001c0: b925 613c 47a8 473f 7b3b 3a40 7e40 003c
000001d0: 282a ab3c 923c 1eba b9dd 72bd 05ca 323d
000001e0: f94e 493d e1c4 223d ba91 adbd 30f0 87be
000001f0: dba3 89bb b4d0 9abf 8461 4d3d 5b66 3fc0
00000200: 4a15 43c0 0aba 153d 97f6 bdbb 92d0 1ebb
00000210: 751f 123e 6b21 2e3f 72c7 ce3c b81a 06bf
00000220: 1243 0d3f f4dc 533d e2f3 cf3d 2e75 7a38
00000230: 275b 68bd 017d 66bc c3ce 28bc 8185 7ebe
00000240: 0090 7c3d f10a afbf ad14 413d a8d9 21bd
00000250: af97 af3c 5bde e5bc a0b2 3abb 4d58 253d
00000260: 8e2a 41bf 332f cf3c 7950 41bd 0369 2d3d
00000270: 2057 ddbc 82da bfbf 7d6a be3d 2d4e febd
00000280: aa63 113e 055e 5839 dc27 db3c bcaa a2bd
00000290: 05f7 523f 09bb ac3f 92ab 3c3d 199b 3e3d
000002a0: 3e69 923f 3190 513d 1cd2 aebd ab6a 3e3d
000002b0: c111 423d 5b98 fdbf 74fe b2be 725d 6cbd
000002c0: 89ef 10bf 7499 15bf 8020 283d dd80 a7bc
000002d0: d34f 893f 2a6f fc3e 7452 dcbc e991 d5bc
000002e0: 668d ac3c 5e6c f3bf 04cf c2bf af61 89bc
000002f0: a995 293f 0c0c a63a 4714 393d a5d7 71bc
00000300: 9f6d 38bb 2f1e 0fbe ed77 6fbf 8e40 73bd
00000310: 26a6 393d 9c23 8dbf dc3d 0840 ec80 883c
00000320: 68a0 b23f 07ae 613d 3e6c b63c a062 c3be
00000330: 9b63 aa3c 439f 0fbd f0e5 40bd c1bc 41bd
00000340: 0a30 2940 2f99 72bc 8221 3abd 4cb0 d53f
00000350: 0d44 db3c bcd0 183d 8649 713d fa01 d1bc
00000360: 5432 d8bf 5f26 903e 4c31 4fbd ead2 963c
00000370: e514 333c 17af 5abe bd89 c93c d909 28bf
00000380: 40b2 4a3d ff22 94bf 6ce4 dd3c 9a5a 113d
00000390: a485 40bb 4b5d 553b 8005 103f 0f29 043d
000003a0: bdb1 f9be 1297 64bd d5ff dbbf 0c61 363f
000003b0: 22c9 07bc d174 8b3c 3822 ac3d 796a 2d3c
000003c0: 830a b13e 4ca6 e0bc 3ad7 033f 35a5 63bc
000003d0: 939b 4a3f e02e 503f 5a4e 7cbf 3258 233d
000003e0: adef 36bd 3f7c 0b3c 23d0 e93c 96af 9dbf
000003f0: f606 f93a da4d 68bf 91ee 2abd f7ca ac3b
0.011689903 0.07814389 0.061501753 4.7968497 -0.04328196 -0.007814184 1.9235618 -1.0853789
0.03686911 0.018230228 0.3754406 0.062247895 -0.57461524 -0.013036009 -0.0036144827 -0.0054758014
-0.061049722 -1.4241788 1.1523374 -0.029945446 1.4643563 -0.034115456 -0.03930957 -0.72053486
0.314252 0.035580378 0.5328926 -0.03879679 0.006994369 -0.023253134 -0.32312247 -0.048138406
-3.0759044 0.8168562 0.06712674 0.090566635 -0.0706126 0.0020424435 -0.0011041582 0.06368505
-0.5180107 -1.2879019 1.4341664 0.27216086 0.0402191 0.028951677 0.73629665 0.044140946
0.63694066 0.40484393 2.9437137 0.04264013 -0.17028438 0.6740656 -2.8311133 0.011634305
-0.06946422 0.0025201973 -1.7679679 -1.3175583 1.8789752 -0.04141542 0.25818455 -0.048015907
-1.079061 -0.04603823 -0.8825949 -0.81503 -0.025010865 -0.019024357 -0.054330148 -2.7299588
0.018983196 -1.8048197 0.017603748 2.1411703 -0.035727408 0.5140571 -0.78857166 0.018495472
0.061294686 0.00088646077 -0.058988832 0.008531515 -0.016942592 -0.8247872 -0.028469734 -0.7051221
0.2945969 0.014206488 0.010444937 -0.036988772 0.013507141 0.0396744 0.019343339 0.03723412
0.0554596 1.1970607 -0.43745577 -0.022073979 0.018846478 2.1152503 -0.0016777227 0.015540929
2.5024884 -0.023539593 -0.24386273 -0.9262593 -0.0071199387 -1.5688097 -0.9953474 -0.075064875
0.013741904 0.77991146 2.9098804 0.007827876 0.020894125 -0.00060362474 -0.059293482 0.043649692
0.04914758 0.03973854 -0.08475061 -0.26550436 -0.0042004413 -1.2094941 0.050141826 -2.9906223
-3.0481744 0.036554374 -0.005797218 -0.0024233204 0.14269812 0.6801974 0.025241587 -0.5238452
0.55180466 0.05172439 0.10153939 5.9713777e-05 -0.056727555 -0.014067889 -0.010303202 -0.24855615
0.061660767 -1.3675214 0.04713886 -0.039514214 0.021434633 -0.028060129 -0.0028487816 0.040367413
-0.7545556 0.025291061 -0.047195885 0.042336475 -0.027019083 -1.4988558 0.09297655 -0.124172546
0.14198175 0.0002063439 0.026752405 -0.07942721 0.8240817 1.3494579 0.04606206 0.04653463
1.1438367 0.051162902 -0.08536169 0.046488445 0.047380213 -1.981212 -0.34959757 -0.057706304
-0.566155 -0.58437276 0.04104662 -0.020447189 1.0727485 0.4930356 -0.026894785 -0.026070552
0.021063518 -1.9017446 -1.5219426 -0.016770212 0.6624399 0.0012668385 0.045185354 -0.014760886
-0.002814151 -0.13976358 -0.9354237 -0.059387736 0.045324467 -1.1026492 2.1287756 0.016663037
1.3955202 0.055097606 0.02226841 -0.38161182 0.020799449 -0.035063993 -0.047094285 -0.04729915
2.643557 -0.01480703 -0.04544211 1.6694427 0.026765848 0.03730844 0.058908008 -0.025513638
-1.6890359 0.28154275 -0.050584123 0.018411119 0.010930275 -0.21355854 0.024601812 -0.65640026
0.0494864 -1.157318 0.02708646 0.035486795 -0.002937653 0.0032556828 0.5625839 0.03226572
-0.48768416 -0.055808134 -1.7187449 0.7124183 -0.0082877 0.017023476 0.08404964 0.010584467
0.34578332 -0.027423047 0.51500285 -0.013894369 0.7914364 0.81321526 -0.98557055 0.03987903
-0.044662166 0.008513509 0.02854163 -1.231921 0.0018999267 -0.9074379 -0.04173142 0.0052732187

net.4.bias f4 [13]
00000000: 8f17 843e b6a4 89bd 6240 b53e 7801 0fbf
00000010: 9e74 2dbf 9d01 c3be 7105 763e 7007 7c3d
00000020: 2db5 58bd 6d8c 733d 2ce4 823a 2690 28bd
00000030: 9f81 893b
0.25799224 -0.06720869 0.35400683 -0.55861616 -0.6775607 -0.38087168 0.24025513 0.06153053
-0.052907158 0.059460092 0.0009986213 -0.041153096 0.0041963602

log_vars f4 [13]
00000000: 9c4a 84bf 6516 86bf 932a 60bf 5466 6fbf
00000010: 8459 67bf d8cd 4bbf 32d2 32bf 4dda f5bf
00000020: 2f4e b8bf e01c 9dbf 4c3e d9bf 91de d9bf
00000030: fb9d b3bf
-1.0335269 -1.0475584 -0.87564963 -0.93515515 -0.90370965 -0.7961097 -0.6985198 -1.9207245
-1.439886 -1.2274437 -1.6972136 -1.7021047 -1.4032587
