mixture_mlp.pt (torch, 587248 bytes, 7 tensors)

net.0.weight f4 [512, 21]
00000000: eecf 2c43 4699 84c3 b58c 8e43 87e4 65c0
00000010: 9bb0 60be 4ff2 51c2 b89b 2743 dd6c fbc2
00000020: d633 6fc0 d898 97bd 4f76 c642 b9e7 8ec2
00000030: e929 4843 f4bc 17bf 4b82 bb3e 5698 c141
00000040: ff5f 01c3 b28f 1ec3 9e82 8140 33aa dfbd
00000050: 871d e6bb c242 c2c1 76cd ab42 8562 b842
00000060: 7d6c f0bf f3ba cb3f e459 1541 cb91 b83f
00000070: 3208 71c0 bb54 7fc0 e522 4d40 4e68 a2c1
00000080: e99b 9642 356f af42 6f5f 0cc0 333f 0b40
00000090: 2315 5fc1 10f5 08c2 e317 2bc1 417b 31bf
000000a0: dc25 bb3e db8a 5a3e a89b 1a44 6c63 02c4
000000b0: bbba 8643 e1ab e3c0 4832 e3bf 1240 8c40
000000c0: d8d2 4dc2 98b3 e6c1 5e24 04c0 0a3e bbbe
000000d0: ed12 ec43 abd2 d8c3 01d7 6f43 c305 66bf
000000e0: b7be 2c3f c397 cdc2 a805 eec2 0d04 10c3
000000f0: 19f5 1b40 6a77 913d c5d3 a5bb 384e d242
00000100: 73c1 bdc0 34d5 9dc2 f63f 7e40 6703 aabf
00000110: e981 00c3 12b8 f3c2 cb0a 13c3 537b 4e40
00000120: b9d1 24bf ecff a6c2 21ba d0c2 8cd0 49c3
00000130: 0fb1 9d3f 7f8f a4bf 38dc 3dc1 7e44 8c42
00000140: 5c0c 5242 6b62 83c0 2547 c73f d443 ea3a
00000150: faf4 d8c1 5c0e a2c0 2942 db41 f28b 3dc0
00000160: 6a83 0840 7702 3442 07d1 5442 f997 9642
00000170: 9648 07c0 8cb0 ae3f 611f 0e42 e87d 5242
00000180: 379f c842 5159 65c0 7eeb 513d e68c b041
00000190: 7009 86c1 9165 3ac2 2710 983f 4644 66bf
000001a0: d409 47be 443e 0a3e 2991 983d ef4a f93d
000001b0: 2893 993d cf6e 523e c471 1f3e 302e 49bd
000001c0: 015a 1f3e 70c7 02be ebba 7e3b f661 183e
000001d0: d266 8a3d af5f 7f3d c231 d43d 1eec 4e3c
000001e0: c8d1 463e 92b7 c1bd 2f18 90bd 92c4 393e
000001f0: 3268 93bd 7694 2b3d 0028 c1bc 41b5 203e
00000200: d0d6 13be 447f 70bd 7c1c 32be e0ca 98bb
00000210: dcca 593d e0a2 433c 3bb5 2f3e 2cac 0cbd
00000220: 3c20 213d 0f10 46be 9873 ff3c ef39 343e
00000230: e49a 043d 8c22 0f3d ea71 ad3d a01b 53bd
00000240: e539 0ebe fcb5 403d c052 c63c 3b12 1dc4
00000250: 111e f943 4581 85c2 fd67 2040 bed4 0840
00000260: 8513 d641 f362 2d40 cb20 bec1 4159 5a40
00000270: 8660 ad3f 2101 e7c3 a264 cd43 664d e9c2
00000280: e710 89be 398c 91be adc5 d841 bbe8 0343
00000290: 6e31 0543 3a88 29c0 79ca efbf b9e9 1c3c
000002a0: 6d86 12c1 5d46 7740 6351 6140 17c7 97be
000002b0: 69c3 c83e a444 d6c0 f6ac cbbf 5e1c 3840
000002c0: 2dda 0cbf 4e02 bf3e 64c2 24c1 e965 c63f
000002d0: 3646 9740 9f91 48bf 310f 593f cab3 87bf
000002e0: 673e b13e 8588 183e 6398 643f 1263 37bf
000002f0: c904 15bd da0a b0bd 1a04 bf3d 0008 94bb
00000300: f628 bd3d 55ee 423e a0c9 05bc fccc 063d
00000310: d0a3 893c 4081 1abe f048 2fbe 0267 fb3d
00000320: 047a 3cbe 4d0e 3bbe 977a 153e bf01 4cbe
00000330: 1e98 13be 0db3 393e f4ce 1d3d 9d9a 1dbe
00000340: 262e c1bd 4029 7cbd c269 5142 e953 2a43
00000350: 6cc1 ecc1 458e 643f a8e0 11bf 30ca ffc2
00000360: d4e0 1b43 1078 acc3 a3d0 b0c0 24bb bb3f
00000370: 0019 89c2 d160 6c43 653e 90c3 c3db 3fc0
00000380: 125c 663e 4821 c9c1 270a 0ec2 4da1 6ac2
00000390: 3186 52be c714 febe a7c2 82bd e71f e542
000003a0: 051c 5343 baa7 8f43 2418 43c0 1709 a93f
000003b0: 9f64 ffc0 ed5f 5c43 59b0 7042 7a40 53c0
000003c0: d0d3 bb3f a631 c342 7c2c a943 fa5a 8d43
000003d0: 2890 a8bf d2f1 713f 1860 4cc2 8293 7ac2
000003e0: 5698 cfc2 f4b1 6840 ef3d e2bf b0ca 96ba
000003f0: cbda 3b41 3aed cbc0 b045 54c1 c210 d3be
172.81223 -265.19745 285.09927 -3.5920732 -0.2194237 -52.48663 167.60828 -125.71262
-3.7375388 -0.074021995 99.23107 -71.45258 200.16371 -0.59272695 0.36622843 24.199383
-129.37498 -158.56131 4.0471945 -0.10921135 -0.007022563 -24.282597 85.90129 92.19242
-1.8783108 1.5916427 9.334446 1.4419492 -3.7661252 -3.9895465 3.2052548 -20.30093
75.30451 87.7172 -2.1933248 2.1757324 -13.94266 -34.23932 -10.693332 -0.69328696
0.36552322 0.21342032 618.4321 -521.55347 269.45883 -7.1147313 -1.774972 4.382821
-51.455902 -28.837692 -2.0647197 -0.3657077 472.14786 -433.64584 239.83986 -0.8985254
0.6747851 -102.79641 -119.01105 -144.01582 2.4368346 0.071028545 -0.0050606453 105.15277
-5.9298644 -78.91641 3.9726539 -1.3282288 -128.50746 -121.85951 -147.04216 3.226277
-0.6438251 -83.49985 -104.36353 -201.81464 1.2319659 -1.2856292 -11.866264 70.13377
52.51207 -4.105764 1.5568587 0.0017872998 -27.119617 -5.064253 27.407305 -2.9616666
2.1330209 45.002407 53.20413 75.29682 -2.1138053 1.3647628 35.530643 52.622955
100.31097 -3.5835764 0.051249973 22.068798 -16.754608 -46.599186 1.1879929 -0.89947927
-0.19437343 0.13500315 0.07449562 0.121724956 0.07498771 0.20550083 0.15570742 -0.049116313
0.15561678 -0.12771392 0.0038868736 0.14881119 0.06757893 0.06234711 0.10361053 0.012629537
0.19415963 -0.094588414 -0.07035863 0.18141392 -0.07197608 0.04188963 -0.023578644 0.15694143
-0.14437413 -0.05871512 -0.17393678 -0.0046628565 0.053171977 0.011940688 0.17158978 -0.034343883
0.03933738 -0.19342063 0.03118305 0.17600225 0.032374278 0.034945056 0.08468993 -0.051540017
-0.13889273 0.047048554 0.02420938 -628.28485 498.2349 -66.75248 2.506347 2.1379848
26.759531 2.7091644 -23.766012 3.4116976 1.3545082 -462.00882 410.7862 -116.65117
-0.26770708 -0.28427294 27.096521 131.9091 133.19308 -2.6489396 -1.8733665 0.009577208
-9.157819 3.8636696 3.5205925 -0.2964408 0.39211586 -6.695879 -1.5912158 2.8767314
-0.5502041 0.37306446 -10.297459 1.549985 4.7273207 -0.783472 0.84788805 -1.0601742
0.34617922 0.14895828 0.89295024 -0.71635544 -0.036381517 -0.0859582 0.09326954 -0.0045175552
0.09236328 0.19036229 -0.008165747 0.032910332 0.016801745 -0.15088367 -0.17117667 0.122755066
-0.1840592 -0.18267174 0.14597546 -0.19922541 -0.14413497 0.18134709 0.038527444 -0.15391012
-0.0943263 -0.061562777 52.35328 170.32777 -29.594444 0.89279586 -0.56983423 -127.8949
155.87823 -344.938 -5.5254683 1.4666486 -68.54883 236.37819 -288.48746 -2.9977882
0.2249606 -25.14125 -35.509914 -58.65752 -0.20559002 -0.49625227 -0.06384783 114.56231
211.10945 287.31036 -3.0483484 1.3205899 -7.981033 220.37471 60.172215 -3.3008103
1.4674015 97.59697 338.34753 282.71075 -1.3168993 0.94509614 -51.09384 -62.64405
-103.79753 3.6358614 -1.7675151 -0.0011504497 11.740916 -6.3727083 -13.267014 -0.41223723

net.0.bias f4 [512]
00000000: 9cf8 ee3e bf56 353f 50fb d03e 090d 29bf
00000010: 77c3 383f c30c d5bd f2c6 b4bd e249 e7bc
00000020: 2786 d43d 68c9 17be 6838 223f e5ed 2b3f
00000030: 276a 07bd 8983 5dbe 7600 293f 4658 b6bd
00000040: 4606 4bbe 44af 31bf 542c 80bb 6650 01be
00000050: 8ccc 9d3e 5684 4ebe 1188 153c 0001 753a
00000060: 80b3 8a3a 1570 263f 8cb1 54be 6d92 06be
00000070: 7bbb 98be fb8f 5bbe ef97 193e 48a4 7c3e
00000080: 83d1 ec3e cca6 51bd 005a a1bd 0c5b 883d
00000090: 1099 b9be 335d 19bf fa0b fa3d cdf5 41bf
000000a0: d9c6 50be 94af 1ebf 4e44 8cbb 2d89 363f
000000b0: 1a31 3bbe bc2c 44be 82db 423f 5ae1 1c3f
000000c0: 959d 17bf 7aa1 05be 0c24 4f3f 0ae6 0abe
000000d0: 82c2 34be c8f9 1abe e1f4 393f a0d2 e93d
000000e0: eafc 07be c50a d5be 04ad 02bc 90d8 343c
000000f0: e213 09be 2cc3 43be 1d09 07bd 1c8a 02bf
00000100: 6348 f73e 678a 34bf f72c fb3e da4c 8cbd
00000110: 30c1 523e e3e3 a8bd 9004 c0be 097d 8cbd
00000120: 09ba 23bd 84e0 15bd 28fd 093f 6e31 10be
00000130: 16b2 80bd 0870 96bd 8fe1 ed3e aee4 e2bd
00000140: 9945 f43e 41e1 d13e 0146 263f 882f 603f
00000150: f858 98bd a21b cfbd dc15 2b3f 459e 9c3e
00000160: e7f7 043f 50cb 3b3f 300e 74bc 5a03 253f
00000170: 0415 52bf c198 41bf a5bc 1f3f 7d72 a43d
00000180: c128 85bf 299d 50bf c73e f8bd 709b bdbd
00000190: a879 1c3d fd81 07bf 7797 f8bd 2cb7 b0be
000001a0: f13f 33be eedf 36bf 5dac 013f d2fd 0dbe
000001b0: 86a3 293f 96c1 3bbe 36a2 21be 66a3 2abe
000001c0: 3465 783e 2027 8fbe 0755 56bf 9198 bd3e
000001d0: aae6 39be 55f5 f6bd 2733 50bf 664f 1cbd
000001e0: a54c b33e f822 5bbd 9fff f33e 5f30 48be
000001f0: 6eed 41be d70b 7c3f 7082 16be 3f7f 2ebc
00000200: 8353 d4bd 1012 21be fa60 4dbe c8be 23bf
00000210: fe44 6fbf b715 cdbd 01a2 093f da65 26be
00000220: 3874 38bd 08bd e6bd 7ef2 f4bd f75b c4bd
00000230: 6f09 d33d 478f 4bbe 91ee 6e3d 3f9e 3ebe
00000240: fcf2 b53e 7310 5fbf ad56 50be 78ba 0abd
00000250: 721d c8be 64ce 313f 4a4c 46be 4d93 303f
00000260: 81b0 0d3e c88d 3e3e 4955 ef3e 6369 053f
00000270: 1dfd 29bf 60ba 1bbe dd20 edbe d0d9 253c
00000280: 7afc 293f e2ab 09be 6a10 2abe bf20 73be
00000290: a6fb 4abf c6d6 81be d05f 8bbd 32e3 ebbe
000002a0: 9529 073f 9c59 1abe ddfd 45be b221 843e
000002b0: b659 a2be cfc0 83bf 920d fbbd b11d 4bbd
000002c0: 5275 39bf 25da edbd d4d6 cbbe 4488 fcbd
000002d0: 0c2a 18be c20a 01be 22f2 3ebe f0e2 92bd
000002e0: 7ad1 f8bd 4022 9fbd 3124 233f ed62 823e
000002f0: 14d6 1e3f 3095 343f be7b 2d3f af11 3a3f
00000300: a50a 683e 4dce 5ebf 7fda 1c3f f0b1 fcbe
00000310: d571 3abe c477 5dbe 1243 9abd cea5 23be
00000320: f891 613c 6b65 213f 70ef 7c3e 64ff 113e
00000330: 0995 dfbd 42ed 263e c130 0f3f 2679 e13e
00000340: f2d7 33be 6366 04be 59aa 363f 8f4b 57be
00000350: 38b7 bcbd 362d 91bd 9fc5 8ebe 8cf6 37bf
00000360: ad88 debe b8df bebd 73e7 a53d 11d1 a53e
00000370: e62c 8cbd 8f44 97be c046 973c 2b76 c3bd
00000380: 681b 3bbe 9462 dabd b667 7d3e f966 3fbe
00000390: 897a 4a3f 745b e1bd cf2c 243f 56cb 38be
000003a0: d74d 9ebd 3b49 e23e d85f 1dbe c2c9 a1bd
000003b0: f071 263f 3caf 66be 0c86 bebd 9aa3 8c3e
000003c0: a685 163e 60bf 8fbb 8752 e93e 3e3d 2cbe
000003d0: ea9a 21be 1a9a d23e e7a4 04bd 7a49 283f
000003e0: f4d7 98bd 2b0d e5bd 96f6 613d 2ae6 c4bc
000003f0: 2b59 13bf 97cc 3abe 78a2 0cbf 135a 553f
0.4667405 0.7083549 0.40816736 -0.66035515 0.72173256 -0.10402825 -0.08827008 -0.028233472
0.1037715 -0.14822924 0.6336732 0.67159873 -0.03306022 -0.21632208 0.6601633 -0.089035556
-0.19826612 -0.6940806 -0.0039115343 -0.12628326 0.3082012 -0.2016767 0.009126679 0.00093461573
0.001058206 0.65014774 -0.20770854 -0.13141795 -0.29830536 -0.21441643 0.14999364 0.24672043
0.46253595 -0.05118446 -0.07878494 0.06657991 -0.3624959 -0.59907836 0.122093156 -0.7576569
-0.20388354 -0.6198666 -0.0042806035 0.71303064 -0.1828045 -0.1915769 0.7611619 0.6128136
-0.59224826 -0.1304988 0.8091438 -0.13564315 -0.17652324 -0.15134346 0.7263928 0.11417127
-0.13280073 -0.4160978 -0.00797582 0.011037961 -0.13386491 -0.19117421 -0.032967675 -0.5099199
0.48297414 -0.70523685 0.49057743 -0.06850596 0.20581508 -0.08246591 -0.3750348 -0.06859786
-0.03997234 -0.036591068 0.5390191 -0.14081356 -0.06283967 -0.07345587 0.4646115 -0.110787734
0.4770935 0.40992168 0.6495057 0.87572527 -0.074388444 -0.101126924 0.6683023 0.305895
0.5194077 0.73357105 -0.014895961 0.6445824 -0.8206332 -0.7562371 0.62397224 0.080296494
-1.0403062 -0.8148981 -0.12121349 -0.09258163 0.038201958 -0.5293272 -0.121382646 -0.3451475
-0.1750486 -0.7143544 0.5065363 -0.13866356 0.6626514 -0.18335566 -0.15784535 -0.16663894
0.24257356 -0.27959538 -0.8372349 0.3703046 -0.18154398 -0.12058512 -0.8132805 -0.038161658
0.35019413 -0.053500146 0.4765596 -0.19549702 -0.18938228 0.98455566 -0.14698195 -0.010650455
-0.10367491 -0.15729547 -0.20056525 -0.63962984 -0.9346465 -0.100139074 0.53762823 -0.16249791
-0.04503271 -0.112665236 -0.11960314 -0.095878534 0.10304534 -0.19878875 0.058332983 -0.18615054
0.35536945 -0.87134475 -0.20345564 -0.033869237 -0.39084965 0.6945555 -0.1936504 0.68974763
0.13836862 0.18608773 0.46744755 0.5211393 -0.66401845 -0.15207815 -0.46314135 0.010122731
0.66400874 -0.13444474 -0.16607824 -0.2374296 -0.79290235 -0.25359172 -0.06805384 -0.46071774
0.52797824 -0.15073246 -0.19335122 0.25806957 -0.3170907 -1.0293216 -0.12258448 -0.049588863
-0.7244464 -0.116138734 -0.39812338 -0.12330678 -0.1485979 -0.1260176 -0.18647054 -0.07172191
-0.121493295 -0.077702045 0.637271 0.254661 0.6204541 0.7054014 0.6776694 0.72683233
0.2266031 -0.8703354 0.612709 -0.49354506 -0.18207486 -0.21627718 -0.07532324 -0.15981218
0.013767712 0.63045377 0.24700713 0.1425758 -0.10917098 0.16301444 0.5593377 0.4403774
-0.17562845 -0.12929682 0.7135368 -0.21024917 -0.09214634 -0.070887014 -0.27885148 -0.71860576
-0.4346365 -0.09320015 0.08100786 0.32386068 -0.06844501 -0.29544494 0.018466353 -0.09544023
-0.18272173 -0.106633335 0.24746594 -0.18691625 0.79093224 -0.110037714 0.6413087 -0.18046317
-0.077296905 0.44196495 -0.15368593 -0.078998104 0.65017605 -0.22527784 -0.09302911 0.27468568
0.1469942 -0.0043868273 0.45570776 -0.16820237 -0.15781751 0.41133195 -0.032383826 0.65737116
-0.07463065 -0.11184152 0.055166803 -0.024035532 -0.57557935 -0.18242107 -0.5493541 0.8334057

net.2.weight f4 [256, 512]
00000000: 45ff 84bc 5063 6bbd 306e 1fbd 0ef8 19bc
00000010: c055 9bbd 25f5 183d 8758 2f3d 9c60 90bd
00000020: cd73 60bd 5239 d73c 2c06 14bd 178f 0fba
00000030: a590 0a3d 5c2a 0ebc 3349 28bd b898 94bc
00000040: e9ea a43b 007a af3b 2634 9ebd 58d2 f6bc
00000050: eb8a 91bd 787e 16bd 5776 7cbc 4c7e 51bc
00000060: f1bf 1c3d b0d4 0e3c 78fa 313c 6a84 5cbd
00000070: a776 a0bc ec0f 443c ee7c 87bd 2213 65bd
00000080: 44aa 15bd c87c 2fbd 3e0f 21bd 0e4c e43a
00000090: 774e a0bc 64d7 4cbd 9ff9 69bd 3094 94bd
000000a0: e8a7 f8bc 6206 79bd 2ad8 89bd c329 a5ba
000000b0: 30c9 1dbc eb1c 8dbd 1ec8 5cbd 55a7 223d
000000c0: 8d42 6bbd f020 54bc f329 8cbd 3f6c 133d
000000d0: 7e3a f83c 2402 3f3c 0e49 13bd bac1 7dbd
000000e0: 9828 9abd 328a a93c 288c 63bd e37d 09bd
000000f0: f08a 693b a0ff 273b 415b 84bd d7fb 24bd
00000100: fae1 23bd c0bf f5bb 1e7f 52bd f4c7 9abc
00000110: cc5d 153c eafc 9e3c f253 83bd 320e d03c
00000120: f20b c53c 7dc3 12bd 57ff 0dbd 93f7 0abd
00000130: 9540 18bd bbaf 31bd 8873 b8bc 10d9 293c
00000140: a1b7 1abd c7a8 9cbd e85e dcba cf09 a4bc
00000150: 12dd a63c 0424 463c ecba 8abd cec6 7bbc
00000160: b2f6 0ebd ad5a 34bd bc76 90bc 9c62 7fbd
00000170: fb36 94bd d984 47bd 9680 9fbd 546c 80bd
00000180: e7a2 15bd e751 03bc 7ea8 02bd dbb5 e63a
00000190: 3a75 50bd 9d3c 9cbc e6d1 81bd 544f 80bd
000001a0: 3bb3 92bd b607 5dbd c0d0 923b e68b 67bc
000001b0: aa45 7cbd 6380 95bd 8eb6 d83c 2980 e4bc
000001c0: 7736 97bd 7f2c 29bd 05ba b5bc 90f7 31bd
000001d0: b215 a83c efa4 01bb fb8e 5dbd d331 1f3c
000001e0: ffe8 31bd 3a6f 22bd 298c 88bd 8092 82b9
000001f0: 6623 9abd 57cc 40bb 95ef 0f3d 77da 56bd
00000200: d176 043d d6f5 073b 4ce4 7b3c df74 7b3c
00000210: f539 87bc 62e0 b3bc 29d5 64bd 5fad ffbc
00000220: 996f 83bc 9a46 7cbc 5503 1a3d c859 34bd
00000230: 8177 62bd f8e7 a5bb 352f 88bd de92 10bd
00000240: 81a2 bd3b 19e8 26bd 180b 303c 4212 c13c
00000250: 1471 07bb 9bf4 19bd 45bb adbb afa0 d6bb
00000260: 4f09 85b9 50c7 d23b df84 8ebd a01e 57bd
00000270: 6d2a 74bc c021 e43b 9335 173d 38d7 9fbb
00000280: 0575 1bbd b0f2 ed3b 1f0b 013d acbb 18bc
00000290: 3551 b7bc f5b3 90bc 70b8 2b3c 9f9b 97bd
000002a0: 9b94 e3bc 28bd 9c3b 9b5b aabc 50ca 21bd
000002b0: a284 d7bc b03f 48bd 4524 0abd c5cb 6cbd
000002c0: f4f1 e13b 1f9b cabc a410 963b 37cc 8abc
000002d0: b416 6f3c 9484 763c 87c3 97bc 2683 e23c
000002e0: 6457 47bc 1b54 f1bc 77ae dfbc 09c0 98bd
000002f0: 41d0 6d3b c232 10bd c182 3cbd 7f04 00bc
00000300: 6bfb 85bd 828d 21bd d70b 29bd 5d06 8cbd
00000310: 52f4 e13c d8b6 d83b 7420 8cbc 8c18 53bd
00000320: 4dc2 643b dafe 97bd 37fc eebc 3366 48bc
00000330: 552b 1fbc f088 5ebd bdb0 69bc 298d 243d
00000340: 5a0a be3c a692 8b3c 391e 91bd 2206 6dbc
00000350: 9e1b 8cbd 0090 6ab8 696a 95bc bfa0 a3bb
00000360: 5914 0fbd afff 2cbd b3bd 46bd d684 bbbb
00000370: 284d 0ebd 79e0 b9bc 1fc6 283d 181c c4bb
00000380: 0d53 e1bc 45e5 a2bc 2091 d7bc 563c 1abd
00000390: 1656 e0bc 6068 6cbb 5040 10bd 4348 113d
000003a0: fa0a 85bd ce0a c2bc 2e3a af3c 1e0b d33c
000003b0: 21b1 71bd 31db a1bc 607d 25bd 0a71 4bbd
000003c0: 1230 11bd e0fd a9ba abcf 7f3c 3087 11bb
000003d0: fd17 16bd ad87 96bd b920 6cbc 21f8 973a
000003e0: c009 e83a c040 51ba 8f9e 0d3b d7f9 0b3c
000003f0: 1953 f4bc 8081 7d3a 2200 033c 69a8 76bc
-0.016235003 -0.05746776 -0.038923442 -0.00939752 -0.07584715 0.037343163 0.042809036 -0.07049677
-0.054797936 0.02627245 -0.0361387 -0.0005476339 0.03382935 -0.008677091 -0.041085433 -0.018139228
0.0050328863 0.0053551197 -0.0772479 -0.030129597 -0.071065746 -0.036741704 -0.015409074 -0.012786459
0.038268987 0.008717701 0.010862939 -0.053837217 -0.019587828 0.011966687 -0.06615625 -0.05592645
-0.03653933 -0.04284361 -0.039321177 0.0017417686 -0.019568665 -0.0500101 -0.057122823 -0.07254827
-0.030353501 -0.060797103 -0.06730683 -0.0012600947 -0.009630486 -0.06890281 -0.053901784 0.03971036
-0.057436515 -0.012947306 -0.06843939 0.035991903 0.030301329 0.011658225 -0.035958342 -0.06195233
-0.07527274 0.02069578 -0.055553585 -0.03356732 0.0035635792 0.0025634542 -0.06462718 -0.040279236
-0.04001043 -0.007499665 -0.05139076 -0.018894173 0.009116601 0.019407708 -0.06412496 0.025397394
0.024053548 -0.035830963 -0.03466734 -0.03392751 -0.037170965 -0.04338048 -0.022516027 0.010366693
-0.03777278 -0.07649379 -0.0016812952 -0.020024208 0.020369086 0.012093548 -0.06773934 -0.015367223
-0.034903236 -0.044031788 -0.017634742 -0.0623499 -0.07237049 -0.048710678 -0.07788198 -0.06270662
-0.03653231 -0.0080151325 -0.031898968 0.0017601805 -0.050893046 -0.019071871 -0.06338863 -0.06265131
-0.07163092 -0.05396243 0.0044804513 -0.0141324755 -0.061589874 -0.072998784 0.026454236 -0.027893143
-0.07383435 -0.0413022 -0.022183428 -0.043448985 0.020518158 -0.0019782146 -0.054091435 0.009716469
-0.043435093 -0.039656855 -0.066673584 -0.00024904683 -0.07526283 -0.002941867 0.035140593 -0.052454438
0.032339875 0.0020745895 0.015374254 0.015347688 -0.016507128 -0.02195758 -0.055867348 -0.0312106
-0.016044425 -0.015397692 0.037600834 -0.044030935 -0.05528975 -0.005063053 -0.06649629 -0.035296313
0.0057871942 -0.04074869 0.010744832 0.023568276 -0.0020666765 -0.03758679 -0.0053018653 -0.0065499167
-0.00025374672 0.0064324513 -0.06958937 -0.05251944 -0.014902693 0.006962031 0.036916327 -0.004877951
-0.037953395 0.0072615966 0.031504747 -0.009322088 -0.02237759 -0.017663935 0.010480985 -0.07402729
-0.027780822 0.0047832914 -0.020795634 -0.03949958 -0.026308361 -0.048888862 -0.033725996 -0.057811517
0.006895298 -0.02473217 0.0045796204 -0.01694308 0.014592815 0.0150462575 -0.018525852 0.027650427
-0.012166832 -0.02945905 -0.027304871 -0.07458503 0.003628746 -0.035204656 -0.046023134 -0.007813572
-0.06542095 -0.039441593 -0.041271057 -0.06837151 0.027582321 0.0066135935 -0.017105319 -0.05153708
0.0034905851 -0.07421656 -0.029173 -0.012231397 -0.009714921 -0.054329813 -0.014263329 0.040173683
0.023198295 0.0170377 -0.07085843 -0.014466794 -0.06841205 -5.5924058e-05 -0.018239217 -0.0049935277
-0.034931514 -0.042236026 -0.048520755 -0.0057226224 -0.03474155 -0.022690045 0.041204568 -0.0059847943
-0.027505422 -0.019884715 -0.026314318 -0.037655197 -0.027384799 -0.0036072955 -0.035217583 0.035469305
-0.06496234 -0.023686793 0.021390047 0.025762137 -0.059006814 -0.019757839 -0.04040277 -0.04966835
-0.035446234 -0.0012969337 0.015613477 -0.0022205822 -0.03664397 -0.07350097 -0.014412099 0.0011594334
0.0017703101 -0.0007982366 0.00216094 0.008543453 -0.02982478 0.0009670481 0.007995637 -0.015054801

net.2.bias f4 [256]
00000000: c740 6ebd 385b 133c 8dbe 3cbd e115 20bf
00000010: 6a63 63bd da46 31bd aab7 b4bf efaa 243f
00000020: 13c6 63bd 5265 80bd 34eb a7be 308f 5ebd
00000030: f4d4 843f 9774 7dbd 2889 78bd ec9c 1cbd
00000040: 7c96 56bc ec40 0abe d2de ba3e d65c 2abd
00000050: 7911 9e3d 1e6c 4abd dbf1 42bd e2b4 69bf
00000060: cca5 893d a919 a7bc 49cf 303f 5366 37bd
00000070: e274 68bd 23ea 84bd 1d31 aebe bc1d a4bc
00000080: d73c 6bbf bef0 ae3e a1e8 8abc 3060 afbc
00000090: a945 93bd 5b53 3abd dd20 d7bb b0b5 97bd
000000a0: 117a a23f 8f22 3d3f 8bc2 843e fc58 f63e
000000b0: 593d 9e3b a54d 8ebd 29fe ee3e fad8 e4bc
000000c0: c952 873e d903 99be d1ae 5dbf 84ab 7cbd
000000d0: 8894 02bf aafc c23f d9ea 46bf 15df 023e
000000e0: 489c 74bd 7cf6 b63a 4299 f6be 29d8 263f
000000f0: e61b 0b3e 4293 96bc 197a 40bf ba7f fcbc
00000100: 6c08 6dbe d87d 2e3f a09c 953d 7534 263e
00000110: a82b 92bc 9412 6a3a 5342 b33b 575f 9e3e
00000120: 4343 e1bb cbc8 d3be 5732 72bd 712e d3be
00000130: c7da b9bc a0fe 573f 534f 123f 6601 44bd
00000140: 5cec 853f 78d4 79bd f097 4abd 28d6 ffbc
00000150: 54fc 49bd c908 213f 056a 33bd 10e7 3b3f
00000160: 365b fb3e da4f 7cbd e5c8 21bd 6644 2dbd
00000170: 5172 88bc 58b1 36bd 537b 86bd 53bd 88bb
00000180: a2d8 55bd 5636 ca3e ffd4 50be f8dd 10bc
00000190: 6e39 63bd 7f25 20bf 0b0f 9dbb d86d 80bd
000001a0: 0756 7cbf c151 59bd 5e7c c9be f41b cebd
000001b0: 8615 84ba 3e59 bebf 8926 4fbf a0be 683e
000001c0: d041 13bc 4fc8 c4be af41 94bf 202f a43b
000001d0: b045 9cba 2f4a 1bbc c9be 88bc 3957 48bd
000001e0: 89c4 c23c 14c9 87bc 7908 5abc a030 7e3d
000001f0: 02b3 8dbc 9190 3c3f 328b 24bd 5908 1abf
00000200: 4480 cdbe 2837 64bd c882 d0bc a211 a6bc
00000210: 186f b93e 25ff 763d 44f3 ca3b da68 1f3f
00000220: fda2 7dbf 0082 4fbd c68f 023f f0c4 0e3b
00000230: c95f eabd 0499 19bc c2c3 46bd 7247 cf3e
00000240: 2dfd 84bc b40f 43be d478 68bd 14e4 6fbd
00000250: b351 b0bd 6e55 e2bc 8489 22bc fad8 80bb
00000260: 364f 90be 3a21 29bd 35bf 34bd 763e 34bd
00000270: 2125 14bc 8b78 6dbe 5c44 c23d f25c a6bd
00000280: 54ad 9bbd 7c30 4bbd 3c8f 53bd 5f53 abbd
00000290: fdc4 26be e872 c2be 3f3a 0dbd 1d24 35bd
000002a0: 855e 813f 70c5 7fbd 7207 eb3e e62c edbb
000002b0: dde4 5fbc ce54 71be c611 803f c3b7 1fbb
000002c0: d0e9 aabd 3355 d53c 043d 0bbd d963 76bd
000002d0: 7a71 66bf 95a8 d9bd 4157 babc ebab 72bd
000002e0: 9d35 b23c fb6a 27bf 3b19 0c3f 0639 61bd
000002f0: ec36 113f 96f6 84bd 870b 8bbd 7747 06bd
00000300: 835d 39bd 8236 cd3d efa2 2cbf 5afa 27bd
00000310: 3782 00bc bd24 9fbf b7da 03be b082 26bd
00000320: 34c1 26bf 798e 42bd 7185 7abd 8138 82bf
00000330: 30aa d73b b779 32bd 44b9 c8bc dbe0 bfbc
00000340: af17 0e3f ab6d 64bd 68c4 b3bc 0240 2fbf
00000350: 3c5d e8bc 2b8d 52bd 6cf8 35bd 340e 8dbd
00000360: 3927 60bf 44bf 2ebf 222c 6bbd 114c d3bb
00000370: 6f36 16bc e66e 7e3f e364 8abc b340 93be
00000380: 718e ffbc 416c 3ebf 4daa 5bbd e30e 80bd
00000390: 072c 44bd 69fa 7cbd 71a4 c93d 797d b0bb
000003a0: 1247 3d3f 229e 693c 7817 90bf a975 c0be
000003b0: 9ddf afbc 2a68 e1bc c2dc 96bc 8afd 18bd
000003c0: bbdd a4bf 7c29 aebc 6e2d 7c3e e70b 40bd
000003d0: 2b98 533f 74ed 5e3f a863 0abe 836e 72bd
000003e0: 87d7 2cbd c9f8 68bc 6490 a9bd 5af8 90bf
000003f0: d5db 08bd c464 31be 9b52 77bd d05c 5cbd
-0.058167245 0.008993916 -0.04608016 -0.62533385 -0.05551473 -0.04328046 -1.411855 0.64323324
-0.05560882 -0.06269325 -0.32796633 -0.054335773 1.0377488 -0.061878767 -0.060677677 -0.03823559
-0.013097402 -0.13501328 0.36498123 -0.04159244 0.077181764 -0.049419515 -0.047593933 -0.9129163
0.06721076 -0.020397978 0.6906629 -0.04477532 -0.056752093 -0.064899705 -0.34021845 -0.02003371
-0.9188971 0.34168047 -0.01695663 -0.02140817 -0.07191021 -0.04548965 -0.006565197 -0.07407701
1.2693502 0.7388086 0.25929675 0.48114765 0.0048290906 -0.06948403 0.46678284 -0.027935494
0.26430348 -0.29885748 -0.86594874 -0.061687008 -0.5100789 1.5233357 -0.777021 0.12780412
-0.059719354 0.0013958956 -0.481638 0.65173584 0.13584861 -0.018380765 -0.75186306 -0.030822624
-0.23147744 0.6816077 0.073052645 0.16230948 -0.017843083 0.000892916 0.005470553 0.30932114
-0.0068744733 -0.4136413 -0.05913004 -0.4124637 -0.022687329 0.843729 0.5715229 -0.047852896
1.0462756 -0.06099364 -0.049461305 -0.031230047 -0.049312904 0.6290403 -0.04380228 0.7339945
0.49093026 -0.06159959 -0.03949823 -0.042301558 -0.016656073 -0.044602722 -0.06566491 -0.00417296
-0.05220855 0.3949458 -0.20393752 -0.008841984 -0.05547469 -0.62557214 -0.004793053 -0.06270951
-0.9856877 -0.053056482 -0.39352697 -0.100639254 -0.0010077215 -1.4870985 -0.80918175 0.22728968
-0.008987859 -0.38434073 -1.1582545 0.0050105006 -0.0011922624 -0.009478136 -0.016692536 -0.048911307
0.023775356 -0.016575374 -0.013307684 0.06205809 -0.017297272 0.7365809 -0.04017181 -0.6016899
-0.4013692 -0.055716664 -0.025452986 -0.02027208 0.3621757 0.06030192 0.0061935503 0.62269366
-0.99076825 -0.050661087 0.5100063 0.0021784864 -0.11444051 -0.009374861 -0.048526533 0.40484196
-0.016234005 -0.19048959 -0.056755856 -0.05856712 -0.08609333 -0.027628627 -0.009920482 -0.0039321156
-0.28185433 -0.041291453 -0.04412766 -0.04400488 -0.009042055 -0.23190515 0.09485695 -0.08123197
-0.07601419 -0.049606785 -0.05165027 -0.08365511 -0.16286083 -0.37978292 -0.034479376 -0.044223893
1.010697 -0.06244415 0.45904118 -0.0072380183 -0.013665405 -0.23567507 1.0005424 -0.0024371005
-0.083453774 0.026041603 -0.033993736 -0.060153816 -0.900169 -0.106278576 -0.022746684 -0.059245985
0.02175408 -0.65397614 0.54726 -0.054986022 0.5672443 -0.06492345 -0.06789308 -0.032782998
-0.045255195 0.10020162 -0.67436117 -0.04101024 -0.007843546 -1.2433087 -0.12876402 -0.040651977
-0.65138555 -0.047499154 -0.061162416 -1.0173494 0.006581567 -0.043573108 -0.024502404 -0.02342265
0.5550489 -0.05576865 -0.02194424 -0.68457043 -0.02836477 -0.05140416 -0.044426367 -0.06887475
-0.8755985 -0.682606 -0.057415135 -0.006448277 -0.009168251 0.9938797 -0.01689381 -0.287603
-0.031195851 -0.7438393 -0.05362921 -0.062528394 -0.04789355 -0.061762247 0.09845818 -0.0053860513
0.7393657 0.014258893 -1.1257162 -0.37589768 -0.021468932 -0.02751549 -0.018415812 -0.03735117
-1.2880167 -0.021260016 0.24626705 -0.04688635 0.82654065 0.87081075 -0.13514578 -0.059187423
-0.04219773 -0.014219471 -0.082794935 -1.1325791 -0.033412773 -0.17323595 -0.060381513 -0.05379945

net.4.weight f4 [13, 256]
00000000: 0287 3f3c e709 a03d 43e9 7b3d b2a7 9440
00000010: 6d48 31bd 1007 00bc 05c8 e13f a897 8ebf
00000020: 1004 173d 8f57 953c 8b5b 003f 6530 183d
00000030: f0f8 0bbf fc94 55bc f5e0 6cbb 5a6e b3bb
00000040: 460f 7abd 8319 c3bf 3765 893f 2750 f5bc
00000050: ec44 b73f a6bc 0bbd 1203 21bd a380 2abf
00000060: e363 b53e bbbc 113d 233b 1b3f 62e9 1ebd
00000070: 0531 e53b 5b7d bebc a590 71be c72c 45bd
00000080: dd6b 33c0 f615 5d3f bf79 893d 007b b93d
00000090: 579d 90bd 84da 053b 67b9 90ba 4f6d 823d
000000a0: 27f5 22bf 5160 afbf cbd2 b13f 8260 653e
000000b0: c8bc 243d 112c ed3c 5e79 303f 23cd 343d
000000c0: 9d51 0e3f dc71 cf3e 52aa 2a40 6ba7 2e3d
000000d0: 7a84 17be 6015 5e3f 0476 2dc0 fca2 af3c
000000e0: 4243 8ebd e529 253b 933b f8bf 0754 bbbf
000000f0: f67d 0040 37a3 29bd 48f1 5f3e 54ac 44bd
00000100: 2828 84bf ab55 0ebb e5b1 72bf c121 6abf
00000110: 96e3 ccbc f8d8 9bbc 4a89 5ebd 8c85 2ac0
00000120: a682 9b3c cf56 debf bc35 903c c6ea f93f
00000130: e756 12bd 772a 073f badb 30bf d183 973c
00000140: 7391 a0bc 6061 683a 469e 71bd c4c7 0b3c
00000150: 31cb 8abc b6e0 4cbf 5c39 e9bc e0f5 85bf
00000160: ba51 823e 54c2 683c 3e21 2b3c 8a81 17bd
00000170: 0e4d 5d3c a081 223d ec75 9e3c ce82 183d
00000180: 9b29 633d f1a7 a53f 2794 bbbe 7dd4 b4bc
00000190: ee63 9a3c 7568 0340 08e7 dbba 619f 7e3c
000001a0: 1fe6 1b40 1bd6 c0bc 67d1 e7be 66a1 4cbf
000001b0: 604e e9bb 5242 a4bf a78b 81bf 9ffe bfbd
000001c0: b925 613c c70f 373f 4cd1 2740 7e40 003c
000001d0: 282a ab3c 923c 1eba b9dd 72bd 05ca 323d
000001e0: c26c 7c3d e1c4 223d ba91 adbd 18b1 93be
000001f0: dba3 89bb ef08 8dbf 8461 4d3d 8c0b 24c0
00000200: 0abf 36c0 0aba 153d 97f6 bdbb 92d0 1ebb
00000210: 3466 6b3e ffa7 573f 72c7 ce3c 609b 07bf
00000220: 034b 123f f4dc 533d 1e1d 463e 2e75 7a38
00000230: 275b 68bd 017d 66bc c3ce 28bc a98e 82be
00000240: 0090 7c3d ee4d aebf ad14 413d a8d9 21bd
00000250: af97 af3c 5bde e5bc a0b2 3abb 4d58 253d
00000260: e78f 1cbf 332f cf3c 7950 41bd 0369 2d3d
00000270: 2057 ddbc bb0c c3bf cf5a ad3d 2d4e febd
00000280: 3704 943d 055e 5839 dc27 db3c 3dfc 83bc
00000290: 339e 4d3f 36e0 b83f 92ab 3c3d 199b 3e3d
000002a0: e648 873f 3190 513d 89aa 84bd ab6a 3e3d
000002b0: c111 423d 1d2a 0ac0 01a0 c7be 725d 6cbd
000002c0: 1dff 10bf b643 0dbf 8020 283d dd80 a7bc
000002d0: 0c1b 833f efb1 f93e 7452 dcbc e991 d5bc
000002e0: 668d ac3c e116 e2bf 2a52 b9bf af61 89bc
000002f0: 3027 193f 0c0c a63a 4714 393d a5d7 71bc
00000300: 9f6d 38bb 9ad1 04be 4814 8bbf 8e40 73bd
00000310: 26a6 393d 0876 83bf 1a4f 0840 ec80 883c
00000320: 4664 a63f 07ae 613d 3e6c b63c 5d16 a4bd
00000330: 9b63 aa3c 439f 0fbd f0e5 40bd c1bc 41bd
00000340: 5f5d 2540 2f99 72bc 8221 3abd 6982 dd3f
00000350: 0d44 db3c bcd0 183d 8649 713d fa01 d1bc
00000360: 776c cbbf 98be 693e 4c31 4fbd ead2 963c
00000370: e514 333c ea63 9abe bd89 c93c cf8e 57bf
00000380: 40b2 4a3d 4f02 90bf 6ce4 dd3c 9a5a 113d
00000390: a485 40bb 4b5d 553b d24e 1f3f 0f29 043d
000003a0: cc31 14bf 1297 64bd f457 c0bf 5b54 273f
000003b0: 22c9 07bc d174 8b3c 3822 ac3d 796a 2d3c
000003c0: b694 44bd 4ca6 e0bc ad0d ef3e 35a5 63bc
000003d0: 9c5e 413f f891 6b3f 5b3e 63bf 3258 233d
000003e0: adef 36bd 3f7c 0b3c 1c0a 23bc 01a7 94bf
000003f0: f606 f93a dbf3 49bf 91ee 2abd f7ca ac3b
0.011689903 0.07814389 0.061501753 4.6454706 -0.04328196 -0.007814184 1.7639166 -1.1140032
0.03686911 0.018230228 0.50139683 0.037155528 -0.54676723 -0.013036009 -0.0036144827 -0.0054758014
-0.061049722 -1.524216 1.0734013 -0.029945446 1.4317908 -0.034115456 -0.03930957 -0.66602534
0.3542777 0.035580378 0.6063711 -0.03879679 0.006994369 -0.023253134 -0.23590334 -0.048138406
-2.8034585 0.86361635 0.06712674 0.090566635 -0.0706126 0.0020424435 -0.0011041582 0.06368505
-0.6365532 -1.3701268 1.3892454 0.22400096 0.0402191 0.028951677 0.6893519 0.044140946
0.5559328 0.40516555 2.6666455 0.04264013 -0.1479663 0.86751366 -2.710328 0.021440022
-0.06946422 0.0025201973 -1.9393181 -1.4635018 2.007688 -0.04141542 0.21869385 -0.048015907
-1.0324755 -0.0021718543 -0.94802696 -0.91457754 -0.025010865 -0.019024357 -0.054330148 -2.664401
0.018983196 -1.7370242 0.017603748 1.9524772 -0.035727408 0.5279917 -0.69085276 0.018495472
-0.019600606 0.00088646077 -0.058988832 0.008531515 -0.016942592 -0.8003038 -0.028469734 -1.046566
0.25452977 0.014206488 0.010444937 -0.036988772 0.013507141 0.0396744 0.019343339 0.03723412
0.0554596 1.2941877 -0.3663647 -0.022073979 0.018846478 2.0532506 -0.0016777227 0.015540929
2.4359205 -0.023539593 -0.4527695 -0.79933774 -0.0071199387 -1.2832739 -1.0120744 -0.09374737
0.013741904 0.7150845 2.6221495 0.007827876 0.020894125 -0.00060362474 -0.059293482 0.043649692
0.061627157 0.03973854 -0.08475061 -0.2884605 -0.0042004413 -1.1018351 0.050141826 -2.5632048
-2.85541 0.036554374 -0.005797218 -0.0024233204 0.22988206 0.84240717 0.025241587 -0.5297146
0.5714571 0.05172439 0.19347045 5.9713777e-05 -0.056727555 -0.014067889 -0.010303202 -0.25499466
0.061660767 -1.3617532 0.04713886 -0.039514214 0.021434633 -0.028060129 -0.0028487816 0.040367413
-0.6115708 0.025291061 -0.047195885 0.042336475 -0.027019083 -1.523826 0.08464586 -0.124172546
0.072273664 0.0002063439 0.026752405 -0.016111488 0.8031952 1.4443424 0.04606206 0.04653463
1.0569122 0.051162902 -0.064778395 0.046488445 0.047380213 -2.1588204 -0.3898926 -0.057706304
-0.5663927 -0.55181444 0.04104662 -0.020447189 1.0242629 0.48768565 -0.026894785 -0.026070552
0.021063518 -1.7663232 -1.44782 -0.016770212 0.5982542 0.0012668385 0.045185354 -0.014760886
-0.002814151 -0.12970582 -1.0865564 -0.059387736 0.045324467 -1.0270395 2.129828 0.016663037
1.2999351 0.055097606 0.02226841 -0.08012078 0.020799449 -0.035063993 -0.047094285 -0.04729915
2.583824 -0.01480703 -0.04544211 1.7305423 0.026765848 0.03730844 0.058908008 -0.025513638
-1.5892476 0.22826612 -0.050584123 0.018411119 0.010930275 -0.30154353 0.024601812 -0.84202284
0.0494864 -1.1250705 0.02708646 0.035486795 -0.002937653 0.0032556828 0.62229645 0.03226572
-0.57888484 -0.055808134 -1.5026841 0.6536309 -0.0082877 0.017023476 0.08404964 0.010584467
-0.047993384 -0.027423047 0.4669012 -0.013894369 0.7553499 0.92019606 -0.8876702 0.03987903
-0.044662166 0.008513509 -0.009951141 -1.1613466 0.0018999267 -0.7888772 -0.04173142 0.0052732187

net.4.bias f4 [13]
00000000: 42a9 b33e be3e d63c f0a6 ee3e 343b 1dbf
00000010: fc44 27bf 5b17 b9be 58dd 653e 7cb1 cf3d
00000020: 23da 97bc e0f2 dd3d 8279 5e3d f96e 263c
00000030: d8ae 3c3d
0.3509007 0.026152965 0.46611738 -0.6141846 -0.65339637 -0.3615063 0.22447717 0.10141274
-0.018536633 0.1083734 0.054315098 0.010158294 0.04606518

log_vars f4 [13]
00000000: ae8a 8abf 6433 8cbf 88eb 66bf abc7 7cbf
00000010: 543e 78bf e4f7 5cbf 542d 3ebf 8f96 fabf
00000020: b8f8 bbbf cc65 a2bf 43f2 debf 99d5 dfbf
00000030: bd09 b9bf
-1.0823572 -1.0953183 -0.9020314 -0.9874217 -0.96970105 -0.8631575 -0.74287915 -1.9577197
-1.4685278 -1.2687316 -1.7417682 -1.748706 -1.4456097
