mixture_mlp.pt (torch, 587248 bytes, 7 tensors)

net.0.weight f4 [512, 21]
143.47678 -129.49242 121.37584 -2.5542727 -0.51320046 -32.620525 67.39316 -59.4995
-2.9461334 -0.19066481 82.75589 -47.765404 78.67918 -0.76309866 0.5089996 1.2358397
-53.762363 -75.32042 3.2848458 -0.052758884 -0.008063904 -17.323599 52.925278 42.489914
-1.6791852 1.25056 0.9260355 0.04095429 -1.405126 -3.0240073 2.387137 -15.6096325
44.609722 41.094795 -1.92048 1.8370552 -15.325819 -12.212331 -3.9751542 -0.17867675
-0.0034106239 0.18726493 257.0894 -219.438 105.445335 -4.8122587 -1.159232 -6.017508
-7.4232583 17.31432 -1.7029716 -0.22447658 196.96286 -167.44687 109.209816 -1.1621356
0.6426615 -33.765823 -61.05906 -66.79951 2.0580006 0.06045897 -0.006066739 23.52569
-22.42882 -67.74486 3.0310931 -0.94641113 -18.927687 -38.2367 -58.628407 2.1416388
-0.10797969 -14.259194 -46.963985 -108.81554 1.1642258 -1.3610365 9.345437 31.499031
24.217728 -2.9222996 0.98708373 -0.0033446352 -22.01289 7.147408 14.757527 -2.115915
1.7034025 3.6361587 35.32375 13.584958 -1.5471915 1.2481297 0.119070694 39.457355
31.574692 -2.9353907 0.19186243 2.4157875 -5.3620625 -13.866451 0.9147063 -0.359423
-0.021492753 0.13500315 0.07449562 0.121724956 0.07498771 0.20550083 0.15570742 -0.049116313
0.15561678 -0.12771392 0.0038868736 0.14881119 0.06757893 0.06234711 0.10361053 0.012629537
0.19415963 -0.094588414 -0.07035863 0.18141392 -0.07197608 0.04188963 -0.023578644 0.15694143
-0.14437413 -0.05871512 -0.17393678 -0.0046628565 0.053171977 0.011940688 0.17158978 -0.034343883
0.03933738 -0.19342063 0.03118305 0.17600225 0.032374278 0.034945056 0.08468993 -0.051540017
-0.13889273 0.047048554 0.02420938 -346.08807 251.1063 21.12532 1.9561945 1.961426
29.999882 -5.85778 -15.656676 2.7958333 1.0354211 -234.54362 194.21884 -16.66381
-0.13320938 -0.060292922 23.59985 58.235107 60.42909 -2.3975015 -1.347661 0.017079506
-9.157819 3.8636696 3.5205925 -0.2964408 0.39211586 -6.695879 -1.5912158 2.8767314
-0.5502041 0.37306446 -10.297459 1.549985 4.7273207 -0.783472 0.84788805 -1.0601742
0.34617922 0.14895828 0.89295024 -0.71635544 -0.036381517 -0.0859582 0.09326954 -0.0045175552
0.09236328 0.19036229 -0.008165747 0.032910332 0.016801745 -0.15088367 -0.17117667 0.122755066
-0.1840592 -0.18267174 0.14597546 -0.19922541 -0.14413497 0.18134709 0.038527444 -0.15391012
-0.0943263 -0.061562777 17.076586 67.008224 1.3840923 1.038441 -0.3943954 -98.68058
52.27721 -136.00725 -4.2780323 1.6090049 -68.77628 82.187004 -110.43501 -2.170738
0.834489 -1.8270531 0.7436239 -27.780563 -0.0305895 -0.46510378 -0.07850547 43.096012
59.762707 141.45876 -2.1217144 0.8288 -54.974392 82.55777 8.730978 -2.3631723
1.0161462 -3.7560863 109.843864 121.66465 -1.3477242 0.98414963 -33.136486 -33.058693
-34.72284 2.7343943 -1.3072315 -0.0035935333 2.2893167 1.797058 -5.4582925 -0.21133329
00000000: 0e7a 0f43 0f7e 01c3 6ec0 f242 3479 23c0
00000010: 1b61 03bf 6b7b 02c2 4cc9 8642 7dff 6dc2
00000020: 738d 3cc0 a33d 43be 0483 a542 c60f 3fc2
00000030: bd5b 9d42 6f5a 43bf cc4d 023f ff2f 9e3f
00000040: a90c 57c2 0ea4 96c2 ea3a 5240 b319 58bd
00000050: 771e 04bc bb96 8ac1 7cb3 5342 acf5 2942
00000060: 8aef d6bf 5a12 a03f aa10 6d3f b0bf 273d
00000070: 2bdb b3bf 5689 41c0 dac6 1840 0ec1 79c1
00000080: 5b70 3242 1261 2442 4ad2 f5bf a024 eb3f
00000090: 8e36 75c1 b565 43c1 ed68 7ec0 0af7 36be
000000a0: c684 5fbb 61c2 3f3e 718b 8043 2170 5bc3
000000b0: 03e4 d242 06fe 99c0 b761 94bf 6d8f c0c0
000000c0: 558b edc0 ba83 8a41 f9fa d9bf 30dd 65be
000000d0: 7ef6 4443 6672 27c3 6d6b da42 dcc0 94bf
000000e0: 7785 243f 3410 07c2 7a3c 74c2 5999 85c2
000000f0: 48b6 0340 d3a3 773d 7fcb c6bb 9d34 bc41
00000100: 396e b3c1 5e7d 87c2 6efd 4140 0048 72bf
00000110: e76b 97c1 61f2 18c2 7d83 6ac2 9c10 0940
00000120: 7524 ddbd a925 64c1 1fdb 3bc2 8ea1 d9c2
00000130: 5a05 953f 7236 aebf e986 1541 04fe fb41
00000140: e8bd c141 f506 3bc0 85b1 7c3f ab31 5bbb
00000150: 661a b0c1 91b7 e440 d51e 6c41 276b 07c0
00000160: 1809 da3f d3b6 6840 854b 0d42 fd5b 5941
00000170: 5f0a c6bf b7c2 9f3f 56db f33d 55d4 1d42
00000180: f898 fc41 71dd 3bc0 9677 443e 439c 1a40
00000190: 0496 abc0 fcdc 5dc1 312a 6a3f 4b06 b8be
000001a0: 9211 b0bc 443e 0a3e 2991 983d ef4a f93d
000001b0: 2893 993d cf6e 523e c471 1f3e 302e 49bd
000001c0: 015a 1f3e 70c7 02be ebba 7e3b f661 183e
000001d0: d266 8a3d af5f 7f3d c231 d43d 1eec 4e3c
000001e0: c8d1 463e 92b7 c1bd 2f18 90bd 92c4 393e
000001f0: 3268 93bd 7694 2b3d 0028 c1bc 41b5 203e
00000200: d0d6 13be 447f 70bd 7c1c 32be e0ca 98bb
00000210: dcca 593d e0a2 433c 3bb5 2f3e 2cac 0cbd
00000220: 3c20 213d 0f10 46be 9873 ff3c ef39 343e
00000230: e49a 043d 8c22 0f3d ea71 ad3d a01b 53bd
00000240: e539 0ebe fcb5 403d c052 c63c 460b adc3
00000250: 361b 7b43 a800 a941 9564 fa3f 0210 fb3f
00000260: c2ff ef41 ef72 bbc0 bf81 7ac1 efee 3240
00000270: ae88 843f 2b8b 6ac3 0638 4243 7c4f 85c1
00000280: 0a68 08be b6f5 76bd 7ecc bc41 c0f0 6842
00000290: 63b7 7142 aa70 19c0 2880 acbf 52ea 8b3c
000002a0: 6d86 12c1 5d46 7740 6351 6140 17c7 97be
000002b0: 69c3 c83e a444 d6c0 f6ac cbbf 5e1c 3840
000002c0: 2dda 0cbf 4e02 bf3e 64c2 24c1 e965 c63f
000002d0: 3646 9740 9f91 48bf 310f 593f cab3 87bf
000002e0: 673e b13e 8588 183e 6398 643f 1263 37bf
000002f0: c904 15bd da0a b0bd 1a04 bf3d 0008 94bb
00000300: f628 bd3d 55ee 423e a0c9 05bc fccc 063d
00000310: d0a3 893c 4081 1abe f048 2fbe 0267 fb3d
00000320: 047a 3cbe 4d0e 3bbe 977a 153e bf01 4cbe
00000330: 1e98 13be 0db3 393e f4ce 1d3d 9d9a 1dbe
00000340: 262e c1bd 4029 7cbd d99c 8841 3604 8642
00000350: f029 b13f a2eb 843f 32ee c9be 755c c5c2
00000360: dd1b 5142 db01 08c3 a4e5 88c0 dff3 cd3f
00000370: 758d 89c2 bf5f a442 bade dcc2 5fed 0ac0
00000380: 12a1 553f e0dc e9bf 235e 3e3f 983e dec1
00000390: d596 fabc 1522 eebe 7ac7 a0bd 5162 2c42
000003a0: 030d 6f42 7175 0d43 2bca 07c0 3d2c 543f
000003b0: c7e5 5bc2 941d a542 16b2 0b41 373e 17c0
000003c0: 1411 823f b863 70c0 0fb0 db42 4d54 f342
000003d0: 3a82 acbf 3bf1 7b3f c38b 04c2 1a3c 04c2
000003e0: 30e4 0ac2 5100 2f40 5d53 a7bf 7c81 6bbb
000003f0: 2a84 1240 ff05 e63f 55aa aec0 c167 58be

net.0.bias f4 [512]
0.3542514 0.561594 0.33596602 -0.48811918 0.56827426 -0.10402825 -0.08827008 -0.0014033495
0.1037715 -0.14822924 0.52149975 0.5107557 -0.0663332 -0.21632208 0.47424346 -0.089035556
-0.11726732 -0.70092934 0.028031094 -0.08845686 0.24835059 -0.2016767 0.048609216 0.00093461573
0.001058206 0.5163203 -0.20770854 -0.13141795 -0.31403992 -0.21441643 0.12744871 0.20097148
0.38015285 -0.05118446 -0.07878494 0.032982152 -0.2560777 -0.4449837 0.11131033 -0.5657251
-0.20388354 -0.53570175 -0.029420257 0.64387316 -0.1828045 -0.12019919 0.57959175 0.5025549
-0.48229587 -0.1304988 0.6647783 -0.13564315 -0.17652324 -0.15134346 0.5876948 0.14392278
-0.07716809 -0.37685797 0.07178561 0.011037961 -0.13386491 -0.19117421 -0.032967675 -0.3967935
0.36271554 -0.56067353 0.36193043 -0.06850596 0.17526549 -0.08246591 -0.4622005 -0.06859786
-0.03997234 -0.036591068 0.4305364 -0.14081356 -0.03991316 -0.07345587 0.35837522 -0.110787734
0.36657393 0.36959904 0.5004566 0.7106707 -0.074388444 -0.052373987 0.53595823 0.27611098
0.41109523 0.5296375 -0.014895961 0.51846933 -0.68639946 -0.6021745 0.49928084 0.026770467
-0.90207064 -0.6875528 -0.12121349 -0.09258163 0.0513194 -0.449372 -0.118703626 -0.32205877
-0.19677377 -0.53158087 0.39193523 -0.13866356 0.52088267 -0.18335566 -0.15784535 -0.16663894
0.18696733 -0.30085152 -0.66694903 0.3257775 -0.18154398 -0.12058512 -0.63482815 -0.038161658
0.27579334 -0.053500146 0.37961096 -0.19549702 -0.28289628 0.7702635 -0.1288575 0.0013975166
-0.10367491 -0.09564205 -0.20056525 -0.56393343 -0.73375493 0.01704621 0.40001535 -0.16249791
-0.04503271 -0.112665236 -0.11960314 -0.095878534 0.122674935 -0.19878875 0.058332983 -0.18615054
0.31864932 -0.764211 -0.20345564 -0.033869237 -0.44315702 0.5456841 -0.122500055 0.55438554
0.13836862 0.18608773 0.37892383 0.42722717 -0.539777 -0.15207815 -0.33151007 0.0328244
0.5356307 -0.13444474 -0.16607824 -0.18695126 -0.64351475 -0.23411529 -0.06805384 -0.32151034
0.39454094 -0.15073246 -0.19335122 0.2069865 -0.21696359 -0.8425571 -0.052000836 -0.049588863
-0.5312476 -0.116138734 -0.2891672 -0.12330678 -0.1485979 -0.1260176 -0.18647054 -0.07172191
-0.121493295 -0.077702045 0.53104043 0.254661 0.49670205 0.23844774 0.54562396 0.55574274
0.2266031 -0.6888596 0.46643203 -0.4448103 -0.18207486 -0.21627718 -0.07532324 -0.1618598
0.013767712 0.48772243 0.21182172 0.0051394757 -0.05864141 0.19229643 0.42458367 0.37748352
-0.17562845 -0.12929682 0.52150667 -0.21024917 -0.05791214 -0.070887014 -0.17103751 -0.56486803
-0.30264375 -0.09320015 0.08100786 0.32386068 -0.06844501 -0.24316303 0.018466353 -0.09544023
-0.18272173 -0.106633335 0.18834792 -0.18691625 0.6343829 -0.110037714 0.49209765 -0.18046317
-0.077296905 0.34021458 -0.15368593 -0.078998104 0.5177307 -0.19373126 -0.09302911 0.186435
0.1469942 -0.0043868273 0.3474656 -0.16820237 -0.15781751 0.27869365 0.01318081 0.29789844
-0.07463065 -0.11184152 0.055166803 -0.024035532 -0.46720228 -0.18242107 -0.42397833 0.6865867
00000000: 7160 b53e a0c4 0f3f bd03 ac3e c2ea f9be
00000010: 6c7a 113f c30c d5bd f2c6 b4bd 98f0 b7ba
00000020: 2786 d43d 68c9 17be 0281 053f e3c0 023f
00000030: b3d9 87bd 8983 5dbe 0ad0 f23e 4658 b6bd
00000040: d929 f0bd 1b70 33bf 77a1 e53c df28 b5bd
00000050: 9e4f 7e3e 5684 4ebe 751a 473d 0001 753a
00000060: 80b3 8a3a 912d 043f 8cb1 54be 6d92 06be
00000070: d7c9 a0be fb8f 5bbe ea81 023e 78cb 4d3e
00000080: 65a3 c23e cca6 51bd 005a a1bd 4b18 073d
00000090: 9e1c 83be e7d4 e3be acf6 e33d 5cd3 10bf
000000a0: d9c6 50be c023 09bf c002 f1bc dfd4 243f
000000b0: 1a31 3bbe fe2a f6bd 2060 143f 70a7 003f
000000c0: 7cef f6be 7aa1 05be e92e 2a3f 0ae6 0abe
000000d0: 82c2 34be c8f9 1abe 2b73 163f 7e60 133e
000000e0: 4e0a 9ebd 87f3 c0be 5504 933d 90d8 343c
000000f0: e213 09be 2cc3 43be 1d09 07bd 8528 cbbe
00000100: dab5 b93e 4d88 0fbf f24e b93e da4c 8cbd
00000110: cc78 333e e3e3 a8bd 8ba5 ecbe 097d 8cbd
00000120: 09ba 23bd 84e0 15bd 446f dc3e 6e31 10be
00000130: fb7b 23bd 0870 96bd f57c b73e aee4 e2bd
00000140: 94af bb3e 163c bd3e ec1d 003f 84ee 353f
00000150: f858 98bd 1b86 56bd 8f34 093f 6b5e 8d3e
00000160: 137b d23e 5396 073f 300e 74bc 68ba 043f
00000170: e0b7 2fbf 1c28 1abf bda1 ff3e bd4d db3c
00000180: 1aee 66bf 7603 30bf c73e f8bd 709b bdbd
00000190: 4b34 523d 1614 e6be e31a f3bd e3e4 a4be
000001a0: 107f 49be af15 08bf bcab c83e d2fd 0dbe
000001b0: 9158 053f 96c1 3bbe 36a2 21be 66a3 2abe
000001c0: 5d74 3f3e 3609 9abe 2cbd 2abf 4fcc a63e
000001d0: aae6 39be 55f5 f6bd 1984 22bf 664f 1cbd
000001e0: c934 8d3e f822 5bbd 5e5c c23e 5f30 48be
000001f0: c8d7 90be fd2f 453f 38f3 03be e02c b73a
00000200: 8353 d4bd fbdf c3bd fa60 4dbe f15d 10bf
00000210: 5dd7 3bbf 7ea4 8b3c d0ce cc3e da65 26be
00000220: 3874 38bd 08bd e6bd 7ef2 f4bd f75b c4bd
00000230: ff3c fb3d 478f 4bbe 91ee 6e3d 3f9e 3ebe
00000240: 0126 a33e 55a3 43bf ad56 50be 78ba 0abd
00000250: 7ae5 e2be f4b1 0b3f 4fe1 fabd 36ec 0d3f
00000260: 81b0 0d3e c88d 3e3e 4e02 c23e 85bd da3e
00000270: d32e 0abf 60ba 1bbe b0bb a9be e172 063d
00000280: 181f 093f e2ab 09be 6a10 2abe 2770 3fbe
00000290: 62bd 24bf ebbb 6fbe d05f 8bbd 019d a4be
000002a0: 4501 ca3e 9c59 1abe ddfd 45be 45f4 533e
000002b0: b42b 5ebe d2b1 57bf d4fe 54bd b11d 4bbd
000002c0: d8ff 07bf 25da edbd b90d 94be 4488 fcbd
000002d0: 0c2a 18be c20a 01be 22f2 3ebe f0e2 92bd
000002e0: 7ad1 f8bd 4022 9fbd 44f2 073f ed62 823e
000002f0: bb4f fe3e a52b 743e 03ae 0b3f 2845 0e3f
00000300: a50a 683e 1a59 30bf 2ed0 ee3e 2dbe e3be
00000310: d571 3abe c477 5dbe 1243 9abd 93be 25be
00000320: f891 613c c1b6 f93e cbe7 583e 0c69 a83b
00000330: fa31 70bd 5be9 443e 0863 d93e 8545 c13e
00000340: f2d7 33be 6366 04be 7681 053f 8f4b 57be
00000350: 4835 6dbd 362d 91bd 7524 2fbe 319b 10bf
00000360: 1ff4 9abe b8df bebd 73e7 a53d 11d1 a53e
00000370: e62c 8cbd bbff 78be c046 973c 2b76 c3bd
00000380: 681b 3bbe 9462 dabd 47de 403e f966 3fbe
00000390: eb66 223f 745b e1bd 39f4 fb3e 56cb 38be
000003a0: d74d 9ebd 9b30 ae3e d85f 1dbe c2c9 a1bd
000003b0: 008a 043f 7d61 46be 0c86 bebd d1e8 3e3e
000003c0: a685 163e 60bf 8fbb 03e7 b13e 3e3d 2cbe
000003d0: ea9a 21be efb0 8e3e 53f4 573c 2586 983e
000003e0: f4d7 98bd 2b0d e5bd 96f6 613d 2ae6 c4bc
000003f0: 2335 efbe 97cc 3abe b013 d9be 25c4 2f3f

net.2.weight f4 [256, 512]
-0.016235003 -0.05746776 -0.038923442 -0.00939752 -0.07584715 0.037343163 0.042809036 -0.07049677
-0.054797936 0.02627245 -0.0361387 -0.0005476339 0.03382935 -0.008677091 -0.041085433 -0.018139228
0.0050328863 0.0053551197 -0.0772479 -0.030129597 -0.071065746 -0.036741704 -0.015409074 -0.012786459
0.038268987 0.008717701 0.010862939 -0.053837217 -0.019587828 0.011966687 -0.06615625 -0.05592645
-0.03653933 -0.04284361 -0.039321177 0.0017417686 -0.019568665 -0.0500101 -0.057122823 -0.07254827
-0.030353501 -0.060797103 -0.06730683 -0.0012600947 -0.009630486 -0.06890281 -0.053901784 0.03971036
-0.057436515 -0.012947306 -0.06843939 0.035991903 0.030301329 0.011658225 -0.035958342 -0.06195233
-0.07527274 0.02069578 -0.055553585 -0.03356732 0.0035635792 0.0025634542 -0.06462718 -0.040279236
-0.04001043 -0.007499665 -0.05139076 -0.018894173 0.009116601 0.019407708 -0.06412496 0.025397394
0.024053548 -0.035830963 -0.03466734 -0.03392751 -0.037170965 -0.04338048 -0.022516027 0.010366693
-0.03777278 -0.07649379 -0.0016812952 -0.020024208 0.020369086 0.012093548 -0.06773934 -0.015367223
-0.034903236 -0.044031788 -0.017634742 -0.0623499 -0.07237049 -0.048710678 -0.07788198 -0.06270662
-0.03653231 -0.0080151325 -0.031898968 0.0017601805 -0.050893046 -0.019071871 -0.06338863 -0.06265131
-0.07163092 -0.05396243 0.0044804513 -0.0141324755 -0.061589874 -0.072998784 0.026454236 -0.027893143
-0.07383435 -0.0413022 -0.022183428 -0.043448985 0.020518158 -0.0019782146 -0.054091435 0.009716469
-0.043435093 -0.039656855 -0.066673584 -0.00024904683 -0.07526283 -0.002941867 0.035140593 -0.052454438
0.032339875 0.0020745895 0.015374254 0.015347688 -0.016507128 -0.02195758 -0.055867348 -0.0312106
-0.016044425 -0.015397692 0.037600834 -0.044030935 -0.05528975 -0.005063053 -0.06649629 -0.035296313
0.0057871942 -0.04074869 0.010744832 0.023568276 -0.0020666765 -0.03758679 -0.0053018653 -0.0065499167
-0.00025374672 0.0064324513 -0.06958937 -0.05251944 -0.014902693 0.006962031 0.036916327 -0.004877951
-0.037953395 0.0072615966 0.031504747 -0.009322088 -0.02237759 -0.017663935 0.010480985 -0.07402729
-0.027780822 0.0047832914 -0.020795634 -0.03949958 -0.026308361 -0.048888862 -0.033725996 -0.057811517
0.006895298 -0.02473217 0.0045796204 -0.01694308 0.014592815 0.0150462575 -0.018525852 0.027650427
-0.012166832 -0.02945905 -0.027304871 -0.07458503 0.003628746 -0.035204656 -0.046023134 -0.007813572
-0.06542095 -0.039441593 -0.041271057 -0.06837151 0.027582321 0.0066135935 -0.017105319 -0.05153708
0.0034905851 -0.07421656 -0.029173 -0.012231397 -0.009714921 -0.054329813 -0.014263329 0.040173683
0.023198295 0.0170377 -0.07085843 -0.014466794 -0.06841205 -5.5924058e-05 -0.018239217 -0.0049935277
-0.034931514 -0.042236026 -0.048520755 -0.0057226224 -0.03474155 -0.022690045 0.041204568 -0.0059847943
-0.027505422 -0.019884715 -0.026314318 -0.037655197 -0.027384799 -0.0036072955 -0.035217583 0.035469305
-0.06496234 -0.023686793 0.021390047 0.025762137 -0.059006814 -0.019757839 -0.04040277 -0.04966835
-0.035446234 -0.0012969337 0.015613477 -0.0022205822 -0.03664397 -0.07350097 -0.014412099 0.0011594334
0.0017703101 -0.0007982366 0.00216094 0.008543453 -0.02982478 0.0009670481 0.007995637 -0.015054801
00000000: 45ff 84bc 5063 6bbd 306e 1fbd 0ef8 19bc
00000010: c055 9bbd 25f5 183d 8758 2f3d 9c60 90bd
00000020: cd73 60bd 5239 d73c 2c06 14bd 178f 0fba
00000030: a590 0a3d 5c2a 0ebc 3349 28bd b898 94bc
00000040: e9ea a43b 007a af3b 2634 9ebd 58d2 f6bc
00000050: eb8a 91bd 787e 16bd 5776 7cbc 4c7e 51bc
00000060: f1bf 1c3d b0d4 0e3c 78fa 313c 6a84 5cbd
00000070: a776 a0bc ec0f 443c ee7c 87bd 2213 65bd
00000080: 44aa 15bd c87c 2fbd 3e0f 21bd 0e4c e43a
00000090: 774e a0bc 64d7 4cbd 9ff9 69bd 3094 94bd
000000a0: e8a7 f8bc 6206 79bd 2ad8 89bd c329 a5ba
000000b0: 30c9 1dbc eb1c 8dbd 1ec8 5cbd 55a7 223d
000000c0: 8d42 6bbd f020 54bc f329 8cbd 3f6c 133d
000000d0: 7e3a f83c 2402 3f3c 0e49 13bd bac1 7dbd
000000e0: 9828 9abd 328a a93c 288c 63bd e37d 09bd
000000f0: f08a 693b a0ff 273b 415b 84bd d7fb 24bd
00000100: fae1 23bd c0bf f5bb 1e7f 52bd f4c7 9abc
00000110: cc5d 153c eafc 9e3c f253 83bd 320e d03c
00000120: f20b c53c 7dc3 12bd 57ff 0dbd 93f7 0abd
00000130: 9540 18bd bbaf 31bd 8873 b8bc 10d9 293c
00000140: a1b7 1abd c7a8 9cbd e85e dcba cf09 a4bc
00000150: 12dd a63c 0424 463c ecba 8abd cec6 7bbc
00000160: b2f6 0ebd ad5a 34bd bc76 90bc 9c62 7fbd
00000170: fb36 94bd d984 47bd 9680 9fbd 546c 80bd
00000180: e7a2 15bd e751 03bc 7ea8 02bd dbb5 e63a
00000190: 3a75 50bd 9d3c 9cbc e6d1 81bd 544f 80bd
000001a0: 3bb3 92bd b607 5dbd c0d0 923b e68b 67bc
000001b0: aa45 7cbd 6380 95bd 8eb6 d83c 2980 e4bc
000001c0: 7736 97bd 7f2c 29bd 05ba b5bc 90f7 31bd
000001d0: b215 a83c efa4 01bb fb8e 5dbd d331 1f3c
000001e0: ffe8 31bd 3a6f 22bd 298c 88bd 8092 82b9
000001f0: 6623 9abd 57cc 40bb 95ef 0f3d 77da 56bd
00000200: d176 043d d6f5 073b 4ce4 7b3c df74 7b3c
00000210: f539 87bc 62e0 b3bc 29d5 64bd 5fad ffbc
00000220: 996f 83bc 9a46 7cbc 5503 1a3d c859 34bd
00000230: 8177 62bd f8e7 a5bb 352f 88bd de92 10bd
00000240: 81a2 bd3b 19e8 26bd 180b 303c 4212 c13c
00000250: 1471 07bb 9bf4 19bd 45bb adbb afa0 d6bb
00000260: 4f09 85b9 50c7 d23b df84 8ebd a01e 57bd
00000270: 6d2a 74bc c021 e43b 9335 173d 38d7 9fbb
00000280: 0575 1bbd b0f2 ed3b 1f0b 013d acbb 18bc
00000290: 3551 b7bc f5b3 90bc 70b8 2b3c 9f9b 97bd
000002a0: 9b94 e3bc 28bd 9c3b 9b5b aabc 50ca 21bd
000002b0: a284 d7bc b03f 48bd 4524 0abd c5cb 6cbd
000002c0: f4f1 e13b 1f9b cabc a410 963b 37cc 8abc
000002d0: b416 6f3c 9484 763c 87c3 97bc 2683 e23c
000002e0: 6457 47bc 1b54 f1bc 77ae dfbc 09c0 98bd
000002f0: 41d0 6d3b c232 10bd c182 3cbd 7f04 00bc
00000300: 6bfb 85bd 828d 21bd d70b 29bd 5d06 8cbd
00000310: 52f4 e13c d8b6 d83b 7420 8cbc 8c18 53bd
00000320: 4dc2 643b dafe 97bd 37fc eebc 3366 48bc
00000330: 552b 1fbc f088 5ebd bdb0 69bc 298d 243d
00000340: 5a0a be3c a692 8b3c 391e 91bd 2206 6dbc
00000350: 9e1b 8cbd 0090 6ab8 696a 95bc bfa0 a3bb
00000360: 5914 0fbd afff 2cbd b3bd 46bd d684 bbbb
00000370: 284d 0ebd 79e0 b9bc 1fc6 283d 181c c4bb
00000380: 0d53 e1bc 45e5 a2bc 2091 d7bc 563c 1abd
00000390: 1656 e0bc 6068 6cbb 5040 10bd 4348 113d
000003a0: fa0a 85bd ce0a c2bc 2e3a af3c 1e0b d33c
000003b0: 21b1 71bd 31db a1bc 607d 25bd 0a71 4bbd
000003c0: 1230 11bd e0fd a9ba abcf 7f3c 3087 11bb
000003d0: fd17 16bd ad87 96bd b920 6cbc 21f8 973a
000003e0: c009 e83a c040 51ba 8f9e 0d3b d7f9 0b3c
000003f0: 1953 f4bc 8081 7d3a 2200 033c 69a8 76bc

net.2.bias f4 [256]
-0.058167245 0.008993916 -0.04608016 -0.5611261 -0.025890322 -0.04328046 -0.9872818 0.39052543
-0.05560882 -0.06269325 -0.2631453 -0.023564335 0.9211563 -0.061878767 -0.060677677 -0.03823559
-0.013097402 -0.024364665 0.33325404 -0.04159244 0.065484814 -0.049419515 -0.047593933 -0.57268614
0.014416852 -0.020397978 0.5000683 -0.04477532 -0.056752093 -0.033152543 -0.14192763 -0.02003371
-0.7881982 0.34186283 -0.01695663 -0.02140817 -0.07191021 -0.04548965 -0.006565197 -0.051989827
0.9242924 0.52140427 0.19818558 0.40781862 0.0048290906 -0.06948403 0.52118725 -0.027935494
0.21048193 -0.3008564 -0.61791193 -0.061687008 -0.2620704 1.0541266 -0.6904014 0.24147356
-0.059719354 0.0013958956 -0.24889122 0.5208773 0.015531153 -0.018380765 -0.6310236 -0.030822624
-0.2666395 0.5712019 0.17368966 0.29372025 -0.017843083 0.000892916 0.005470553 0.27589512
-0.0068744733 -0.31211615 -0.05913004 -0.11667979 -0.022687329 0.5158065 0.41075206 -0.047852896
0.69828856 -0.06099364 -0.049461305 -0.031230047 -0.049312904 0.5724625 -0.04380228 0.58034086
0.29288632 -0.06159959 -0.03949823 -0.042301558 -0.016656073 -0.044602722 -0.06566491 -0.00417296
-0.05220855 0.3544316 -0.117892385 -0.008841984 -0.05547469 -0.4016164 -0.004793053 -0.06270951
-0.6672536 -0.053056482 -0.28323922 -0.051127087 -0.0010077215 -0.9673741 -0.4985448 0.39528516
-0.008987859 -0.35568497 -0.85344285 0.0050105006 -0.0011922624 -0.009478136 -0.016692536 -0.048911307
0.030973352 -0.016575374 -0.013307684 0.04215682 -0.017297272 0.5613079 -0.04017181 -0.49012777
-0.31985947 -0.055716664 -0.025452986 -0.02027208 0.26528177 -0.00043281508 0.0061935503 0.31143564
-0.7575895 -0.050661087 0.365638 0.0021784864 -0.11444051 -0.009374861 -0.048526533 0.3985296
-0.016234005 -0.08514555 -0.056755856 -0.05856712 -0.08609333 -0.027628627 -0.009920482 -0.0039321156
-0.18726647 -0.041291453 -0.04412766 -0.04400488 -0.009042055 -0.20710896 0.10777694 -0.08123197
-0.08801104 -0.049606785 -0.05165027 0.08381693 -0.14190517 -0.26249745 -0.034479376 -0.044223893
0.72814935 -0.06244415 0.44241804 -0.0072380183 -0.013665405 -0.16863923 0.9232464 -0.0024371005
-0.024009988 0.0160245 -0.033993736 -0.060153816 -0.57730615 -0.13682401 -0.022746684 -0.059245985
0.02175408 -0.45796558 0.53620684 -0.054986022 0.3692418 -0.06492345 -0.06789308 -0.032782998
-0.045255195 0.14276905 -0.57524645 -0.04101024 -0.007843546 -1.0267099 -0.05317183 -0.040651977
-0.49884406 -0.047499154 -0.061162416 -0.80707276 0.006581567 -0.043573108 -0.024502404 -0.02342265
0.5204673 -0.05576865 -0.02194424 -0.36911878 -0.02836477 -0.05140416 -0.044426367 -0.06887475
-0.5662477 -0.6051533 -0.057415135 -0.006448277 -0.009168251 0.8807967 -0.01689381 -0.13134341
-0.031195851 -0.50445443 -0.05362921 -0.062528394 -0.04789355 -0.061762247 0.2159638 -0.0053860513
0.5542249 0.014258893 -0.74658024 -0.21894856 -0.021468932 -0.02751549 -0.018415812 -0.03735117
-1.0535012 -0.021260016 0.169284 -0.04688635 0.6825425 0.6381874 -0.077241726 -0.059187423
-0.04219773 -0.014219471 -0.049655337 -0.741878 -0.033412773 -0.03726524 -0.060381513 -0.05379945
00000000: c740 6ebd 385b 133c 8dbe 3cbd f6a5 0fbf
00000010: f117 d4bc da46 31bd 80be 7cbf f3f2 c73e
00000020: 13c6 63bd 5265 80bd fbba 86be fe09 c1bc
00000030: e6d0 6b3f 9774 7dbd 2889 78bd ec9c 1cbd
00000040: 7c96 56bc 6898 c7bc 46a0 aa3e d65c 2abd
00000050: e71c 863d 1e6c 4abd dbf1 42bd 8f9b 12bf
00000060: a934 6c3c a919 a7bc 7a04 003f 5366 37bd
00000070: e274 68bd f6ca 07bd 7a55 11be bc1d a4bc
00000080: 5bc7 49bf a508 af3e a1e8 8abc 3060 afbc
00000090: a945 93bd 5b53 3abd dd20 d7bb 49f3 54bd
000000a0: 6d9e 6c3f c07a 053f 29f1 4a3e 9acd d03e
000000b0: 593d 9e3b a54d 8ebd 876c 053f fad8 e4bc
000000c0: 9388 573e da09 9abe 7a2f 1ebf 84ab 7cbd
000000d0: 172e 86be 9fed 863f 25be 30bf d844 773e
000000e0: 489c 74bd 7cf6 b63a 57dd 7ebe 3758 053f
000000f0: 6176 7e3c 4293 96bc c38a 21bf ba7f fcbc
00000100: f984 88be 4a3a 123f b4db 313e 8062 963e
00000110: a82b 92bc 9412 6a3a 5342 b33b 2042 8d3e
00000120: 4343 e1bb b0cd 9fbe 5732 72bd d0f5 eebd
00000130: c7da b9bc e50b 043f 184e d23e 6601 44bd
00000140: 0ac3 323f 78d4 79bd f097 4abd 28d6 ffbc
00000150: 54fc 49bd e78c 123f 056a 33bd 3891 143f
00000160: 32f5 953e da4f 7cbd e5c8 21bd 6644 2dbd
00000170: 5172 88bc 58b1 36bd 537b 86bd 53bd 88bb
00000180: a2d8 55bd 0f78 b53e 9071 f1bd f8dd 10bc
00000190: 6e39 63bd aaa0 cdbe 0b0f 9dbb d86d 80bd
000001a0: 22d1 2abf c151 59bd bb04 91be a36a 51bd
000001b0: 8615 84ba d4a5 77bf 4441 ffbe d162 ca3e
000001c0: d041 13bc 571c b6be 3b7b 5abf 202f a43b
000001d0: b045 9cba 2f4a 1bbc c9be 88bc 3957 48bd
000001e0: d4bb fd3c 14c9 87bc 7908 5abc a1ac 2c3d
000001f0: 02b3 8dbc e0b1 0f3f 328b 24bd 07f2 fabe
00000200: 9fc4 a3be 2837 64bd c882 d0bc a211 a6bc
00000210: 03d3 873e 75eb e2b9 44f3 ca3b 7e74 9f3e
00000220: 63f1 41bf 0082 4fbd e734 bb3e f0c4 0e3b
00000230: c95f eabd 0499 19bc c2c3 46bd 120c cc3e
00000240: 2dfd 84bc ca60 aebd d478 68bd 14e4 6fbd
00000250: b351 b0bd 6e55 e2bc 8489 22bc fad8 80bb
00000260: c8c2 3fbe 3a21 29bd 35bf 34bd 763e 34bd
00000270: 2125 14bc 5f14 54be 28ba dc3d f25c a6bd
00000280: 223f b4bd 7c30 4bbd 3c8f 53bd 36a8 ab3d
00000290: 974f 11be 1166 86be 3f3a 0dbd 1d24 35bd
000002a0: ff67 3a3f 70c5 7fbd 9e84 e23e e62c edbb
000002b0: dde4 5fbc c3af 2cbe e059 6c3f c3b7 1fbb
000002c0: 98b0 c4bc d045 833c 043d 0bbd d963 76bd
000002d0: 56ca 13bf 981b 0cbe 4157 babc ebab 72bd
000002e0: 9d35 b23c 777a eabe da44 093f 0639 61bd
000002f0: 430d bd3e 96f6 84bd 870b 8bbd 7747 06bd
00000300: 835d 39bd 0d32 123e 5a43 13bf 5afa 27bd
00000310: 3782 00bc 3b6b 83bf b4ca 59bd b082 26bd
00000320: 7d68 ffbe 798e 42bd 7185 7abd 529c 4ebf
00000330: 30aa d73b b779 32bd 44b9 c8bc dbe0 bfbc
00000340: 583d 053f ab6d 64bd 68c4 b3bc 23fd bcbe
00000350: 3c5d e8bc 2b8d 52bd 6cf8 35bd 340e 8dbd
00000360: 9cf5 10bf 54eb 1abf 222c 6bbd 114c d3bb
00000370: 6f36 16bc e47b 613f e364 8abc e37e 06be
00000380: 718e ffbc ed23 01bf 4daa 5bbd e30e 80bd
00000390: 072c 44bd 69fa 7cbd 9d25 5d3e 797d b0bb
000003a0: afe1 0d3f 229e 693c e21f 3fbf 0d34 60be
000003b0: 9ddf afbc 2a68 e1bc c2dc 96bc 8afd 18bd
000003c0: 21d9 86bf 7c29 aebc c958 2d3e e70b 40bd
000003d0: 1bbb 2e3f 4060 233f e930 9ebd 836e 72bd
000003e0: 87d7 2cbd c9f8 68bc 6563 4bbd b7eb 3dbf
000003f0: d5db 08bd 70a3 18bd 9b52 77bd d05c 5cbd

net.4.weight f4 [13, 256]
0.011689903 0.07814389 0.061501753 4.959626 -0.04288296 -0.007814184 2.0614786 -0.9722566
0.03686911 0.018230228 0.20786688 0.062247895 -0.630623 -0.013036009 -0.0036144827 -0.0054758014
-0.061049722 -1.2442292 1.2429806 -0.029945446 1.4293003 -0.034115456 -0.03930957 -0.7655889
0.19657078 0.035580378 0.45422044 -0.03879679 0.006994369 0.0064559057 -0.40220365 -0.048138406
-3.2657514 0.84496075 0.06712674 0.090566635 -0.0706126 0.0020424435 -0.0011041582 0.03682233
-0.3265536 -1.1105429 1.3355069 0.35525483 0.0402191 0.028951677 0.86318994 0.044140946
0.6484259 0.37469274 3.1433163 0.04264013 -0.17626338 0.3432281 -2.9638512 0.08549595
-0.06946422 0.0025201973 -1.5504977 -1.1512065 1.4609666 -0.04141542 0.41441596 -0.048015907
-1.1421187 -0.022223463 -0.6585672 -0.77840155 -0.025010865 -0.019024357 -0.054330148 -2.6820016
0.018983196 -1.9055556 0.017603748 2.1912634 -0.035727408 0.5443587 -0.8453869 0.018495472
0.1674094 0.00088646077 -0.058988832 0.008531515 -0.016942592 -0.8703522 -0.028469734 -0.16537037
0.3011083 0.014206488 0.010444937 -0.036988772 0.013507141 0.0396744 0.019343339 0.03723412
0.0554596 1.1955514 -0.5419691 -0.022073979 0.018846478 2.2937593 -0.0016777227 0.015540929
2.6076038 -0.023539593 -0.122726604 -1.0290962 -0.0071199387 -2.029419 -1.0285157 -0.18311822
0.013741904 0.6678029 3.1998367 0.007827876 0.020894125 -0.00060362474 -0.059293482 0.043649692
-0.0982895 0.03973854 -0.08475061 -0.18592387 -0.0042004413 -1.1880633 0.050141826 -3.5164645
-3.2137408 0.036554374 -0.005797218 -0.0024233204 0.014547505 0.38690498 0.025241587 -0.46997634
0.4961398 0.05172439 -0.02402594 5.9713777e-05 -0.056727555 -0.014067889 -0.010303202 -0.24846128
0.061660767 -1.3387325 0.04713886 -0.039514214 0.021434633 -0.028060129 -0.0028487816 0.040367413
-0.908409 0.025291061 -0.047195885 0.042336475 -0.027019083 -1.4427166 0.18267938 -0.124172546
0.26701468 0.0002063439 0.026752405 -0.2071311 0.8212138 1.1748967 0.04606206 0.04653463
1.2271769 0.051162902 -0.12665635 0.046488445 0.047380213 -1.6211336 -0.31196776 -0.057706304
-0.63807935 -0.6714932 0.04104662 -0.020447189 1.100697 0.5530089 -0.026894785 -0.026070552
0.021063518 -2.0341446 -1.5486382 -0.016770212 0.7271076 0.0012668385 0.045185354 -0.014760886
-0.002814151 -0.20074974 -0.7686392 -0.059387736 0.045324467 -1.2648991 2.1264255 0.016663037
1.374759 0.055097606 0.02226841 -0.5921908 0.020799449 -0.035063993 -0.047094285 -0.04729915
2.6251557 -0.01480703 -0.04544211 1.6762425 0.026765848 0.03730844 0.058908008 -0.025513638
-1.768493 0.24317782 -0.050584123 0.018411119 0.010930275 -0.053757817 0.024601812 -0.52089345
0.0494864 -1.1201451 0.02708646 0.035486795 -0.002937653 0.0032556828 0.5149842 0.03226572
-0.41436645 -0.055808134 -1.9208602 0.8124415 -0.0082877 0.017023476 0.08404964 0.010584467
0.68251145 -0.027423047 0.6238811 -0.013894369 0.7604728 0.6236651 -0.8537404 0.03987903
-0.044662166 0.008513509 0.02854163 -1.2897625 0.0018999267 -1.0213845 -0.04173142 0.0052732187
00000000: 0287 3f3c e709 a03d 43e9 7b3d 42b5 9e40
00000010: 0ba6 2fbd 1007 00bc 44ef 0340 cfe5 78bf
00000020: 1004 173d 8f57 953c 0edb 543e a6f7 7e3d
00000030: 8270 21bf fc94 55bc f5e0 6cbb 5a6e b3bb
00000040: 460f 7abd e742 9fbf fd19 9f3f 2750 f5bc
00000050: 50f3 b63f a6bc 0bbd 1203 21bd a2fd 43bf
00000060: da49 493e bbbc 113d 958f e83e 62e9 1ebd
00000070: 0531 e53b 108c d33b a3ed cdbe c72c 45bd
00000080: 1202 51c0 594f 583f bf79 893d 007b b93d
00000090: 579d 90bd 84da 053b 67b9 90ba 03d3 163d
000000a0: 0932 a7be 4526 8ebf e4f1 aa3f f6e3 b53e
000000b0: c8bc 243d 112c ed3c 04fa 5c3f 23cd 343d
000000c0: 3dff 253f bad7 bf3e 182c 4940 6ba7 2e3d
000000d0: 637e 34be 98bb af3e bdaf 3dc0 8018 af3d
000000e0: 4243 8ebd e529 253b b576 c6bf bc5a 93bf
000000f0: f400 bb3f 37a3 29bd 542e d43e 54ac 44bd
00000100: f230 92bf fb0d b6bc dc97 28bf 5345 47bf
00000110: 96e3 ccbc f8d8 9bbc 4a89 5ebd eaa5 2bc0
00000120: a682 9b3c 3fe9 f3bf bc35 903c a93d 0c40
00000130: e756 12bd 175b 0b3f 476b 58bf d183 973c
00000140: 5f6d 2b3e 6061 683a 469e 71bd c4c7 0b3c
00000150: 31cb 8abc 67cf 5ebf 5c39 e9bc da56 29be
00000160: de2a 9a3e 54c2 683c 3e21 2b3c 8a81 17bd
00000170: 0e4d 5d3c a081 223d ec75 9e3c ce82 183d
00000180: 9b29 633d d407 993f 7dbe 0abf 7dd4 b4bc
00000190: ee63 9a3c f4cc 1240 08e7 dbba 619f 7e3c
000001a0: fbe2 2640 1bd6 c0bc 1658 fbbd 6db9 83bf
000001b0: 604e e9bb 00e2 01c0 67a6 83bf 5883 3bbe
000001c0: b925 613c 21f5 2a3f 20ca 4c40 7e40 003c
000001d0: 282a ab3c 923c 1eba b9dd 72bd 05ca 323d
000001e0: 014c c9bd e1c4 223d ba91 adbd d462 3ebe
000001f0: dba3 89bb 7512 98bf 8461 4d3d c10d 61c0
00000200: eead 4dc0 0aba 153d 97f6 bdbb 92d0 1ebb
00000210: a958 6e3c 6918 c63e 72c7 ce3c bda0 f0be
00000220: 0906 fe3e f4dc 533d 0cd2 c4bc 2e75 7a38
00000230: 275b 68bd 017d 66bc c3ce 28bc a26c 7ebe
00000240: 0090 7c3d 965b abbf ad14 413d a8d9 21bd
00000250: af97 af3c 5bde e5bc a0b2 3abb 4d58 253d
00000260: 7e8d 68bf 332f cf3c 7950 41bd 0369 2d3d
00000270: 2057 ddbc f0aa b8bf 4e10 3b3e 2d4e febd
00000280: 26b6 883e 055e 5839 dc27 db3c 2d1a 54be
00000290: 113b 523f 0463 963f 92ab 3c3d 199b 3e3d
000002a0: 2214 9d3f 3190 513d 34b2 01be ab6a 3e3d
000002b0: c111 423d 4e81 cfbf 3dba 9fbe 725d 6cbd
000002c0: 2b59 23bf fae6 2bbf 8020 283d dd80 a7bc
000002d0: a4e3 8c3f fe91 0d3f 7452 dcbc e991 d5bc
000002e0: 668d ac3c 6d2f 02c0 c739 c6bf af61 89bc
000002f0: b923 3a3f 0c0c a63a 4714 393d a5d7 71bc
00000300: 9f6d 38bb 5791 4dbe 8ac5 44bf 8e40 73bd
00000310: 26a6 393d 37e8 a1bf 5b17 0840 ec80 883c
00000320: 1af8 af3f 07ae 613d 3e6c b63c d199 17bf
00000330: 9b63 aa3c 439f 0fbd f0e5 40bd c1bc 41bd
00000340: 8d02 2840 2f99 72bc 8221 3abd 1d8f d63f
00000350: 0d44 db3c bcd0 183d 8649 713d fa01 d1bc
00000360: fb5d e2bf 9b03 793e 4c31 4fbd ead2 963c
00000370: e514 333c 2831 5cbd bd89 c93c 4659 05bf
00000380: 40b2 4a3d ea60 8fbf 6ce4 dd3c 9a5a 113d
00000390: a485 40bb 4b5d 553b 01d6 033f 0f29 043d
000003a0: d727 d4be 1297 64bd bfde f5bf 2bfc 4f3f
000003b0: 22c9 07bc d174 8b3c 3822 ac3d 796a 2d3c
000003c0: 12b9 2e3f 4ca6 e0bc acb6 1f3f 35a5 63bc
000003d0: 58ae 423f 84a8 1f3f bb8e 5abf 3258 233d
000003e0: adef 36bd 3f7c 0b3c 23d0 e93c f016 a5bf
000003f0: f606 f93a babc 82bf 91ee 2abd f7ca ac3b

net.4.bias f4 [13]
0.090801224 -0.1735511 0.30306867 -0.3755757 -0.54310113 -0.24998072 0.3402111 0.06235461
-0.054714497 0.11308011 -0.00562676 -0.033715677 0.058074247
00000000: fef5 b93d 61b7 31be d12b 9b3e 754b c0be
00000010: ad08 0bbf f2fa 7fbe 2630 ae3e 8c67 7f3d
00000020: 4f1c 60bd 8b96 e73d af60 b8bb 7319 0abd
00000030: 43df 6d3d

log_vars f4 [13]
-1.0110697 -1.0186723 -0.8599467 -0.8995685 -0.87122494 -0.77045923 -0.6706457 -1.9077255
-1.4207325 -1.2057935 -1.6918397 -1.6986853 -1.3818891
00000000: bb6a 81bf db63 82bf 7825 5cbf 1f4a 66bf
00000010: 9908 5fbf d13c 45bf 70af 2bbf 5930 f4bf
00000020: 90da b5bf 7157 9abf 348e d8bf 856e d9bf
00000030: bee1 b0bf
