results1/mixture_mlp.pt (torch, 587248 bytes, 7 tensors)

net.0.weight f4 [512, 21]
0	0x432c7dcc	172.4914
1	0xc3487a78	-200.4784
2	0x43483227	200.1959
3	0xc044ee7d	-3.0770562
4	0xbebe28a6	-0.37140387
5	0xc20c8350	-35.128235
6	0x42de0319	111.00605
7	0xc2bbef9a	-93.96797
8	0xc0557869	-3.3354743
9	0xbe11b7be	-0.14230248
10	0x42d6e22e	107.44176
11	0xc287d1a3	-67.90945
12	0x43070a84	135.04108
13	0xbf36071b	-0.7110459
14	0x3ef163aa	0.4714635
15	0x41306292	11.024065
16	0xc2b1c590	-88.885864
17	0xc2ec7f56	-118.2487
18	0x406bb695	3.683019
19	0xbd9a0509	-0.07520492
20	0xbc2e6eba	-0.010646516
21	0xc17ff14f	-15.996413
22	0x42883f40	68.123535
23	0x4284695c	66.20578
24	0xbfeb7c9c	-1.8397403
25	0x3faf38ef	1.368925
26	0x40805bcf	4.011207
27	0x3fc706e2	1.5548975
28	0xc0410048	-3.0156422
29	0xc05eb0cf	-3.4795415
30	0x4031aa2d	2.7760117
31	0xc15c1af8	-13.756584
32	0x426b5415	58.83211
33	0x427d6ef0	63.358337
34	0xc004c740	-2.0746613
35	0x3fff6d9e	1.9955328
36	0xc161b614	-14.106953
37	0xc1b67e44	-22.811653
38	0xc0ecdbbb	-7.4018226
39	0xbec3c55c	-0.3823651
40	0x3e0ea6b9	0.13930787
41	0x3e43168c	0.1905157
42	0x43d1715a	418.88556
43	0xc3b35ea3	-358.73935
44	0x433a1180	186.06836
45	0xc0bebd49	-5.960606
46	0xbfc04444	-1.5020833
47	0xc031cfb3	-2.778302
48	0xc1d05f2d	-26.046473
49	0x40e8ab08	7.270878
50	0xbff1b74a	-1.888406
51	0xbea763a9	-0.32693222
52	0x43a054a4	320.66125
53	0xc38ff6dc	-287.9286
54	0x4333aaa1	179.66652
55	0xbf87c3e9	-1.0606662
56	0x3f316cb1	0.69306475
57	0xc27c342b	-63.050945
58	0xc2b216b0	-89.04431
59	0xc2d3ffe7	-105.99981
60	0x400fc0d4	2.2461443
61	0x3daa4223	0.08313396
62	0xbbb2da54	-0.0054581556
63	0x42740a8a	61.010292
64	0xc19dadfa	-19.70995
65	0xc2ae6f3a	-87.21724
66	0x405d5694	3.4584093
67	0xbf8de643	-1.1085895
68	0xc2748cf7	-61.13766
69	0xc28d7241	-70.72315
70	0xc2c45985	-98.17484
71	0x402b5d95	2.6775868
72	0xbec48db4	-0.3838936
73	0xc218d875	-38.211384
74	0xc2916065	-72.68827
75	0xc320d667	-160.83751
76	0x3fa33963	1.2751888
77	0xbfabe17d	-1.3428189
78	0x3e81a35a	0.2531994
79	0x424162e5	48.346577
80	0x42184e78	38.07663
81	0xc063e823	-3.5610435
82	0x3fa9bacc	1.3260131
83	0xba201a9f	-0.00061074825
84	0xc201cb54	-32.448563
85	0xbf8b49e0	-1.088192
86	0x41f800ac	31.000328
87	0xc01bf26d	-2.4366715
88	0x3ff023f9	1.8760978
89	0x420a4d99	34.57578
90	0x4254e058	53.219086
91	0x422f795f	43.868526
92	0xbfeae514	-1.8351159
93	0x3fba1a3a	1.4539254
94	0x41bfb7c7	23.964735
95	0x42577462	53.863655
96	0x428ce9a6	70.456345
97	0xc0528e29	-3.2899268
98	0x3e0b5665	0.13607176
99	0x414228e2	12.134981
100	0xc13742de	-11.453825
101	0xc2040f84	-33.015152
102	0x3fa53ce0	1.2909203
103	0xbf07d104	-0.5305331
104	0xbd4e7b94	-0.050410822
105	0x3e0a3e44	0.13500315
106	0x3d989129	0.07449562
107	0x3df94aef	0.121724956
108	0x3d999328	0.07498771
109	0x3e526ecf	0.20550083
110	0x3e1f71c4	0.15570742
111	0xbd492e30	-0.049116313
112	0x3e1f5a01	0.15561678
113	0xbe02c770	-0.12771392
114	0x3b7ebaeb	0.0038868736
115	0x3e1861f6	0.14881119
116	0x3d8a66d2	0.06757893
117	0x3d7f5faf	0.06234711
118	0x3dd431c2	0.10361053
119	0x3c4eec1e	0.012629537
120	0x3e46d1c8	0.19415963
121	0xbdc1b792	-0.094588414
122	0xbd90182f	-0.07035863
123	0x3e39c492	0.18141392
124	0xbd936832	-0.07197608
125	0x3d2b9476	0.04188963
126	0xbcc12800	-0.023578644
127	0x3e20b541	0.15694143
128	0xbe13d6d0	-0.14437413
129	0xbd707f44	-0.05871512
130	0xbe321c7c	-0.17393678
131	0xbb98cae0	-0.0046628565
132	0x3d59cadc	0.053171977
133	0x3c43a2e0	0.011940688
134	0x3e2fb53b	0.17158978
135	0xbd0cac2c	-0.034343883
136	0x3d21203c	0.03933738
137	0xbe46100f	-0.19342063
138	0x3cff7398	0.03118305
139	0x3e3439ef	0.17600225
140	0x3d049ae4	0.032374278
141	0x3d0f228c	0.034945056
142	0x3dad71ea	0.08468993
143	0xbd531ba0	-0.051540017
144	0xbe0e39e5	-0.13889273
145	0x3d40b5fc	0.047048554
146	0x3cc652c0	0.02420938
147	0xc3ef689d	-478.8173
148	0x43b53c1e	362.46967
149	0xc105c7bc	-8.361263
150	0x400d2bfd	2.2058098
151	0x4003e7cc	2.0610228
152	0x41f61414	30.759804
153	0xc0c7d835	-6.2451425
154	0xc1c64764	-24.784859
155	0x40472570	3.11166
156	0x3f99c41a	1.201297
157	0xc3a95963	-338.69833
158	0x4390c2f1	289.52298
159	0xc2659728	-57.397614
160	0xbe6c81de	-0.23096415
161	0xbe1aec54	-0.15129215
162	0x41daabd5	27.333902
163	0x42b42451	90.07093
164	0x42ba48a2	93.14186
165	0xc023d531	-2.5598872
166	0xbfccdf64	-1.6005673
167	0x3c4587c3	0.012056294
168	0xc112866d	-9.157819
169	0x4077465d	3.8636696
170	0x40615163	3.5205925
171	0xbe97c717	-0.2964408
172	0x3ec8c369	0.39211586
173	0xc0d644a4	-6.695879
174	0xbfcbacf6	-1.5912158
175	0x40381c5e	2.8767314
176	0xbf0cda2d	-0.5502041
177	0x3ebf024e	0.37306446
178	0xc124c264	-10.297459
179	0x3fc665e9	1.549985
180	0x40974636	4.7273207
181	0xbf48919f	-0.783472
182	0x3f590f31	0.84788805
183	0xbf87b3ca	-1.0601742
184	0x3eb13e67	0.34617922
185	0x3e188885	0.14895828
186	0x3f649863	0.89295024
187	0xbf376312	-0.71635544
188	0xbd1504c9	-0.036381517
189	0xbdb00ada	-0.0859582
190	0x3dbf041a	0.09326954
191	0xbb940800	-0.0045175552
192	0x3dbd28f6	0.09236328
193	0x3e42ee55	0.19036229
194	0xbc05c9a0	-0.008165747
195	0x3d06ccfc	0.032910332
196	0x3c89a3d0	0.016801745
197	0xbe1a8140	-0.15088367
198	0xbe2f48f0	-0.17117667
199	0x3dfb6702	0.122755066
200	0xbe3c7a04	-0.1840592
201	0xbe3b0e4d	-0.18267174
202	0x3e157a97	0.14597546
203	0xbe4c01bf	-0.19922541
204	0xbe13981e	-0.14413497
205	0x3e39b30d	0.18134709
206	0x3d1dcef4	0.038527444
207	0xbe1d9a9d	-0.15391012
208	0xbdc12e26	-0.0943263
209	0xbd7c2940	-0.061562777
210	0x421fd5e6	39.958885
211	0x42ddbab0	110.864624
212	0xc1478ac6	-12.47138
213	0x3f71714a	0.9431349
214	0xbefe8b82	-0.4971581
215	0xc2f511a4	-122.534454
216	0x42c6fdda	99.495804
217	0xc364a5ac	-228.64716
218	0xc09d6b8e	-4.919379
219	0x3fc101fa	1.5078728
220	0xc2914d93	-72.65151
221	0x43165868	150.34534
222	0xc33f8d2d	-191.55147
223	0xc0229b5c	-2.5407324
224	0x3f146376	0.57964265
225	0xc13a891b	-11.658473
226	0xc133e461	-11.243257
227	0xc2296c43	-42.355724
228	0xbd2d5879	-0.042320702
229	0xbed14e52	-0.40880066
230	0xbd930e44	-0.07180455
231	0x4293b58f	73.85461
232	0x42fb999e	125.80003
233	0x4352e362	210.88821
234	0xc02428bf	-2.564987
235	0x3f89f49d	1.0777775
236	0xc216c53d	-37.692616
237	0x43129032	146.56326
238	0x41d30a1c	26.379936
239	0xc033e470	-2.8108177
240	0x3f9ea60e	1.2394426
241	0x42172eaa	37.79557
242	0x43546917	212.4105
243	0x43417897	193.47105
244	0xbfad46c3	-1.353722
245	0x3f7b4952	0.9815875
246	0xc22be210	-42.970764
247	0xc23231ff	-44.548824
248	0xc281054e	-64.51036
249	0x404c2bba	3.1901689
250	0xbfc4ef5a	-1.5385544
251	0xbb0ca8bc	-0.0021462878
252	0x40b7f8aa	5.7491045
253	0xbe540a7f	-0.20707129
254	0xc10a01e8	-8.625465
255	0xbe95823f	-0.29200932

net.0.bias f4 [512]
0	0x3ed3492d	0.41266766
1	0x3f22fa90	0.6366358
2	0x3ec09fdc	0.37621963
3	0xbf13c834	-0.5772736
4	0x3f22b5be	0.63558567
5	0xbdd50cc3	-0.10402825
6	0xbdb4c6f2	-0.08827008
7	0xbc3c1c41	-0.011481346
8	0x3dd48627	0.1037715
9	0xbe17c968	-0.14822924
10	0x3f1183d3	0.5684177
11	0x3f174350	0.59087086
12	0xbd8016a5	-0.06254319
13	0xbe5d8389	-0.21632208
14	0x3f12bb7b	0.5731732
15	0xbdb65846	-0.089035556
16	0xbe310ed3	-0.17290811
17	0xbf37e46d	-0.71832925
18	0x3c571d9f	0.013129621
19	0xbdd86a51	-0.10567153
20	0x3e86ffbf	0.26366994
21	0xbe4e8456	-0.2016767
22	0x3d0a841b	0.03381739
23	0x3a750100	0.00093461573
24	0x3a8ab380	0.001058206
25	0x3f135026	0.5754417
26	0xbe54b18c	-0.20770854
27	0xbe06926d	-0.13141795
28	0xbea90144	-0.33008778
29	0xbe5b8ffb	-0.21441643
30	0x3e0ee90e	0.13956091
31	0x3e66fd22	0.225575
32	0x3ed215aa	0.41032153
33	0xbd51a6cc	-0.05118446
34	0xbda15a00	-0.07878494
35	0x3d8d6dab	0.06905683
36	0xbe9d0174	-0.3066517
37	0xbf058d32	-0.5216857
38	0x3de72678	0.11286634
39	0xbf28e98b	-0.6598136
40	0xbe50c6d9	-0.20388354
41	0xbf15474c	-0.58311915
42	0xbbc7e32a	-0.006100078
43	0x3f3309d9	0.699369
44	0xbe3b311a	-0.1828045
45	0xbe2025f2	-0.15639475
46	0x3f2cad54	0.6745198
47	0x3f0e1e41	0.55514914
48	0xbf09760c	-0.5369575
49	0xbe05a17a	-0.1304988
50	0x3f3e56e1	0.74351317
51	0xbe0ae60a	-0.13564315
52	0xbe34c282	-0.17652324
53	0xbe1af9c8	-0.15134346
54	0x3f26a872	0.6510078
55	0x3e01dda0	0.126822
56	0xbdd60e33	-0.10451927
57	0xbed0cca7	-0.40781137
58	0x3b824107	0.003975037
59	0x3c34d890	0.011037961
60	0xbe0913e2	-0.13386491
61	0xbe43c32c	-0.19117421
62	0xbd07091d	-0.032967675
63	0xbee822c8	-0.45339036
64	0x3ed62563	0.418254
65	0xbf235d93	-0.6381466
66	0x3ed64ae1	0.41854003
67	0xbd8c4cda	-0.06850596
68	0x3e45369d	0.19259115
69	0xbda8e3e3	-0.08246591
70	0xbee5e349	-0.44899967
71	0xbd8c7d09	-0.06859786
72	0xbd23ba09	-0.03997234
73	0xbd15e084	-0.036591068
74	0x3efb1291	0.49037603
75	0xbe10316e	-0.14081356
76	0xbd498cc1	-0.0492065
77	0xbd967008	-0.07345587
78	0x3ed25fcf	0.4108872
79	0xbde2e4ae	-0.110787734
80	0x3ed63a75	0.41841474
81	0x3ec0a0c9	0.3762267
82	0x3f122c1b	0.5709855
83	0x3f4d67a0	0.80236244
84	0xbd9858f8	-0.074388444
85	0xbd8acdf3	-0.06777563
86	0x3f1eb20f	0.61990446
87	0x3e95c72c	0.2925352
88	0x3eeb811e	0.45996946
89	0x3f2393b9	0.6389728
90	0xbc740e30	-0.014895961
91	0x3f137e8d	0.57614976
92	0xbf45fc85	-0.7733844
93	0xbf2d4f4b	-0.67699116
94	0x3f0eaa05	0.5572818
95	0x3d672d58	0.056439728
96	0xbf7b7df6	-0.98239076
97	0xbf3e1d40	-0.7426338
98	0xbdf83ec7	-0.12121349
99	0xbdbd9b70	-0.09258163
100	0x3d35b001	0.044357304
101	0xbefaece9	-0.49008873
102	0xbe001cfd	-0.12511058
103	0xbea8a307	-0.3293688
104	0xbe242633	-0.16030197
105	0xbf20a779	-0.62755543
106	0x3ee416d5	0.4454867
107	0xbe0dfdd2	-0.13866356
108	0x3f176c27	0.591494
109	0xbe3bc196	-0.18335566
110	0xbe21a236	-0.15784535
111	0xbe2aa366	-0.16663894
112	0x3e5a172e	0.21297905
113	0xbe96520e	-0.29359478
114	0xbf3e7352	-0.74394715
115	0x3eb5b9f7	0.35493442
116	0xbe39e6aa	-0.18154398
117	0xbdf6f555	-0.12058512
118	0xbf37333b	-0.71562546
119	0xbd1c4f66	-0.038161658
120	0x3e9f9e5d	0.3117551
121	0xbd5b22f8	-0.053500146
122	0x3edbeb0e	0.4295277
123	0xbe48305f	-0.19549702
124	0xbe7c45d7	-0.24636017
125	0x3f607dc3	0.876919
126	0xbe1624e0	-0.14662504
127	0x3bef2a91	0.0072987755
128	0xbdd45383	-0.10367491
129	0xbe0ca657	-0.13735329
130	0xbe4d60fa	-0.20056525
131	0xbf208d46	-0.62715566
132	0xbf56bc17	-0.8388075
133	0xbcd62890	-0.026142389
134	0x3ef0a02a	0.46997195
135	0xbe2665da	-0.16249791
136	0xbd387438	-0.04503271
137	0xbde6bd08	-0.112665236
138	0xbdf4f27e	-0.11960314
139	0xbdc45bf7	-0.095878534
140	0x3dde4d7e	0.10854624
141	0xbe4b8f47	-0.19878875
142	0x3d6eee91	0.058332983
143	0xbe3e9e3f	-0.18615054
144	0x3eae49ad	0.34040585
145	0xbf51733d	-0.81816465
146	0xbe5056ad	-0.20345564
147	0xbd0aba78	-0.033869237
148	0xbecc5600	-0.39909363
149	0x3f1eaffb	0.61987275
150	0xbe2b9917	-0.16757618
151	0x3f1c72e0	0.61112785
152	0x3e0db081	0.13836862
153	0x3e3e8dc8	0.18608773
154	0x3ed6302a	0.4183362
155	0x3ef31e8a	0.47484237
156	0xbf19ceb0	-0.60081005
157	0xbe1bba60	-0.15207815
158	0xbecc49cb	-0.3990005
159	0x3c27c800	0.010240555
160	0x3f1a7db5	0.60348064
161	0xbe09abe2	-0.13444474
162	0xbe2a106a	-0.16607824
163	0xbe560154	-0.20898944
164	0xbf377d23	-0.7167532
165	0xbe844e27	-0.25840876
166	0xbd8b5fd0	-0.06805384
167	0xbec865cf	-0.39140174
168	0x3eef4c4b	0.46737894
169	0xbe1a599c	-0.15073246
170	0xbe45fddd	-0.19335122
171	0x3e7595ab	0.23982875
172	0xbe88179d	-0.26580516
173	0xbf6f4479	-0.93463856
174	0xbda445d6	-0.08021133
175	0xbd4b1db1	-0.049588863
176	0xbf1fd5eb	-0.6243579
177	0xbdedda25	-0.116138734
178	0xbebba845	-0.36651817
179	0xbdfc8844	-0.12330678
180	0xbe182a0c	-0.1485979
181	0xbe010ac2	-0.1260176
182	0xbe3ef222	-0.18647054
183	0xbd92e2f0	-0.07172191
184	0xbdf8d17a	-0.121493295
185	0xbd9f2240	-0.077702045
186	0x3f147b02	0.58000195
187	0x3e8262ed	0.254661
188	0x3f0fc920	0.5616627
189	0x3f046263	0.51712626
190	0x3f1c0a52	0.6095325
191	0x3f24d8e9	0.6439348
192	0x3e680aa5	0.2266031
193	0xbf458a7f	-0.77164453
194	0x3f09efb2	0.5388137
195	0xbef28120	-0.4736414
196	0xbe3a71d5	-0.18207486
197	0xbe5d77c4	-0.21627718
198	0xbd9a4312	-0.07532324
199	0xbe21d7f1	-0.15805031
200	0x3c6191f8	0.013767712
201	0x3f10a02a	0.5649439
202	0x3e5ebe8e	0.21752378
203	0x3d736f3c	0.059432253
204	0xbd8f1ee3	-0.06988313
205	0x3e3cbe89	0.18432058
206	0x3ef39357	0.4757335
207	0x3ed4b47b	0.41543946
208	0xbe33d7f2	-0.17562845
209	0xbe046663	-0.12929682
210	0x3f1e9f7d	0.6196211
211	0xbe574b8f	-0.21024917
212	0xbd9d7bd0	-0.07689631
213	0xbd912d36	-0.070887014
214	0xbe5c1fc6	-0.21496496
215	0xbf227ef9	-0.63474995
216	0xbec81c04	-0.39083874
217	0xbdbedfb8	-0.09320015
218	0x3da5e773	0.08100786
219	0x3ea5d111	0.32386068
220	0xbd8c2ce6	-0.06844501
221	0xbe8c2d3a	-0.27378255
222	0x3c9746c0	0.018466353
223	0xbdc3762b	-0.09544023
224	0xbe3b1b68	-0.18272173
225	0xbdda6294	-0.106633335
226	0x3e5a19cc	0.21298903
227	0xbe3f66f9	-0.18691625
228	0x3f3798b4	0.7171738
229	0xbde15b74	-0.110037714
230	0x3f11f5e4	0.57015824
231	0xbe38cb56	-0.18046317
232	0xbd9e4dd7	-0.077296905
233	0x3ec80ea7	0.3907368
234	0xbe1d5fd8	-0.15368593
235	0xbda1c9c2	-0.078998104
236	0x3f1817db	0.594114
237	0xbe52153a	-0.2051591
238	0xbdbe860c	-0.09302911
239	0x3e75b23b	0.23993771
240	0x3e1685a6	0.1469942
241	0xbb8fbf60	-0.0043868273
242	0x3ecc52a5	0.39906803
243	0xbe2c3d3e	-0.16820237
244	0xbe219aea	-0.15781751
245	0x3eae2686	0.34013766
246	0x3b6025b8	0.003420217
247	0x3eeec857	0.46637222
248	0xbd98d7f4	-0.07463065
249	0xbde50d2b	-0.11184152
250	0x3d61f696	0.055166803
251	0xbcc4e62a	-0.024035532
252	0xbf13592b	-0.57557935
253	0xbe3acc97	-0.18242107
254	0xbef86a5e	-0.48518652
255	0x3f43283b	0.7623326

net.2.weight f4 [256, 512]
0	0xbc84ff45	-0.016235003
1	0xbd6b6350	-0.05746776
2	0xbd1f6e30	-0.038923442
3	0xbc19f80e	-0.00939752
4	0xbd9b55c0	-0.07584715
5	0x3d18f525	0.037343163
6	0x3d2f5887	0.042809036
7	0xbd90609c	-0.07049677
8	0xbd6073cd	-0.054797936
9	0x3cd73952	0.02627245
10	0xbd14062c	-0.0361387
11	0xba0f8f17	-0.0005476339
12	0x3d0a90a5	0.03382935
13	0xbc0e2a5c	-0.008677091
14	0xbd284933	-0.041085433
15	0xbc9498b8	-0.018139228
16	0x3ba4eae9	0.0050328863
17	0x3baf7a00	0.0053551197
18	0xbd9e3426	-0.0772479
19	0xbcf6d258	-0.030129597
20	0xbd918aeb	-0.071065746
21	0xbd167e78	-0.036741704
22	0xbc7c7657	-0.015409074
23	0xbc517e4c	-0.012786459
24	0x3d1cbff1	0.038268987
25	0x3c0ed4b0	0.008717701
26	0x3c31fa78	0.010862939
27	0xbd5c846a	-0.053837217
28	0xbca076a7	-0.019587828
29	0x3c440fec	0.011966687
30	0xbd877cee	-0.06615625
31	0xbd651322	-0.05592645
32	0xbd15aa44	-0.03653933
33	0xbd2f7cc8	-0.04284361
34	0xbd210f3e	-0.039321177
35	0x3ae44c0e	0.0017417686
36	0xbca04e77	-0.019568665
37	0xbd4cd764	-0.0500101
38	0xbd69f99f	-0.057122823
39	0xbd949430	-0.07254827
40	0xbcf8a7e8	-0.030353501
41	0xbd790662	-0.060797103
42	0xbd89d82a	-0.06730683
43	0xbaa529c3	-0.0012600947
44	0xbc1dc930	-0.009630486
45	0xbd8d1ceb	-0.06890281
46	0xbd5cc81e	-0.053901784
47	0x3d22a755	0.03971036
48	0xbd6b428d	-0.057436515
49	0xbc5420f0	-0.012947306
50	0xbd8c29f3	-0.06843939
51	0x3d136c3f	0.035991903
52	0x3cf83a7e	0.030301329
53	0x3c3f0224	0.011658225
54	0xbd13490e	-0.035958342
55	0xbd7dc1ba	-0.06195233
56	0xbd9a2898	-0.07527274
57	0x3ca98a32	0.02069578
58	0xbd638c28	-0.055553585
59	0xbd097de3	-0.03356732
60	0x3b698af0	0.0035635792
61	0x3b27ffa0	0.0025634542
62	0xbd845b41	-0.06462718
63	0xbd24fbd7	-0.040279236
64	0xbd23e1fa	-0.04001043
65	0xbbf5bfc0	-0.007499665
66	0xbd527f1e	-0.05139076
67	0xbc9ac7f4	-0.018894173
68	0x3c155dcc	0.009116601
69	0x3c9efcea	0.019407708
70	0xbd8353f2	-0.06412496
71	0x3cd00e32	0.025397394
72	0x3cc50bf2	0.024053548
73	0xbd12c37d	-0.035830963
74	0xbd0dff57	-0.03466734
75	0xbd0af793	-0.03392751
76	0xbd184095	-0.037170965
77	0xbd31afbb	-0.04338048
78	0xbcb87388	-0.022516027
79	0x3c29d910	0.010366693
80	0xbd1ab7a1	-0.03777278
81	0xbd9ca8c7	-0.07649379
82	0xbadc5ee8	-0.0016812952
83	0xbca409cf	-0.020024208
84	0x3ca6dd12	0.020369086
85	0x3c462404	0.012093548
86	0xbd8abaec	-0.06773934
87	0xbc7bc6ce	-0.015367223
88	0xbd0ef6b2	-0.034903236
89	0xbd345aad	-0.044031788
90	0xbc9076bc	-0.017634742
91	0xbd7f629c	-0.0623499
92	0xbd9436fb	-0.07237049
93	0xbd4784d9	-0.048710678
94	0xbd9f8096	-0.07788198
95	0xbd806c54	-0.06270662
96	0xbd15a2e7	-0.03653231
97	0xbc0351e7	-0.0080151325
98	0xbd02a87e	-0.031898968
99	0x3ae6b5db	0.0017601805
100	0xbd50753a	-0.050893046
101	0xbc9c3c9d	-0.019071871
102	0xbd81d1e6	-0.06338863
103	0xbd804f54	-0.06265131
104	0xbd92b33b	-0.07163092
105	0xbd5d07b6	-0.05396243
106	0x3b92d0c0	0.0044804513
107	0xbc678be6	-0.0141324755
108	0xbd7c45aa	-0.061589874
109	0xbd958063	-0.072998784
110	0x3cd8b68e	0.026454236
111	0xbce48029	-0.027893143
112	0xbd973677	-0.07383435
113	0xbd292c7f	-0.0413022
114	0xbcb5ba05	-0.022183428
115	0xbd31f790	-0.043448985
116	0x3ca815b2	0.020518158
117	0xbb01a4ef	-0.0019782146
118	0xbd5d8efb	-0.054091435
119	0x3c1f31d3	0.009716469
120	0xbd31e8ff	-0.043435093
121	0xbd226f3a	-0.039656855
122	0xbd888c29	-0.066673584
123	0xb9829280	-0.00024904683
124	0xbd9a2366	-0.07526283
125	0xbb40cc57	-0.002941867
126	0x3d0fef95	0.035140593
127	0xbd56da77	-0.052454438
128	0x3d0476d1	0.032339875
129	0x3b07f5d6	0.0020745895
130	0x3c7be44c	0.015374254
131	0x3c7b74df	0.015347688
132	0xbc8739f5	-0.016507128
133	0xbcb3e062	-0.02195758
134	0xbd64d529	-0.055867348
135	0xbcffad5f	-0.0312106
136	0xbc836f99	-0.016044425
137	0xbc7c469a	-0.015397692
138	0x3d1a0355	0.037600834
139	0xbd3459c8	-0.044030935
140	0xbd627781	-0.05528975
141	0xbba5e7f8	-0.005063053
142	0xbd882f35	-0.06649629
143	0xbd1092de	-0.035296313
144	0x3bbda281	0.0057871942
145	0xbd26e819	-0.04074869
146	0x3c300b18	0.010744832
147	0x3cc11242	0.023568276
148	0xbb077114	-0.0020666765
149	0xbd19f49b	-0.03758679
150	0xbbadbb45	-0.0053018653
151	0xbbd6a0af	-0.0065499167
152	0xb985094f	-0.00025374672
153	0x3bd2c750	0.0064324513
154	0xbd8e84df	-0.06958937
155	0xbd571ea0	-0.05251944
156	0xbc742a6d	-0.014902693
157	0x3be421c0	0.006962031
158	0x3d173593	0.036916327
159	0xbb9fd738	-0.004877951
160	0xbd1b7505	-0.037953395
161	0x3bedf2b0	0.0072615966
162	0x3d010b1f	0.031504747
163	0xbc18bbac	-0.009322088
164	0xbcb75135	-0.02237759
165	0xbc90b3f5	-0.017663935
166	0x3c2bb870	0.010480985
167	0xbd979b9f	-0.07402729
168	0xbce3949b	-0.027780822
169	0x3b9cbd28	0.0047832914
170	0xbcaa5b9b	-0.020795634
171	0xbd21ca50	-0.03949958
172	0xbcd784a2	-0.026308361
173	0xbd483fb0	-0.048888862
174	0xbd0a2445	-0.033725996
175	0xbd6ccbc5	-0.057811517
176	0x3be1f1f4	0.006895298
177	0xbcca9b1f	-0.02473217
178	0x3b9610a4	0.0045796204
179	0xbc8acc37	-0.01694308
180	0x3c6f16b4	0.014592815
181	0x3c768494	0.0150462575
182	0xbc97c387	-0.018525852
183	0x3ce28326	0.027650427
184	0xbc475764	-0.012166832
185	0xbcf1541b	-0.02945905
186	0xbcdfae77	-0.027304871
187	0xbd98c009	-0.07458503
188	0x3b6dd041	0.003628746
189	0xbd1032c2	-0.035204656
190	0xbd3c82c1	-0.046023134
191	0xbc00047f	-0.007813572
192	0xbd85fb6b	-0.06542095
193	0xbd218d82	-0.039441593
194	0xbd290bd7	-0.041271057
195	0xbd8c065d	-0.06837151
196	0x3ce1f452	0.027582321
197	0x3bd8b6d8	0.0066135935
198	0xbc8c2074	-0.017105319
199	0xbd53188c	-0.05153708
200	0x3b64c24d	0.0034905851
201	0xbd97feda	-0.07421656
202	0xbceefc37	-0.029173
203	0xbc486633	-0.012231397
204	0xbc1f2b55	-0.009714921
205	0xbd5e88f0	-0.054329813
206	0xbc69b0bd	-0.014263329
207	0x3d248d29	0.040173683
208	0x3cbe0a5a	0.023198295
209	0x3c8b92a6	0.0170377
210	0xbd911e39	-0.07085843
211	0xbc6d0622	-0.014466794
212	0xbd8c1b9e	-0.06841205
213	0xb86a9000	-5.5924058e-05
214	0xbc956a69	-0.018239217
215	0xbba3a0bf	-0.0049935277
216	0xbd0f1459	-0.034931514
217	0xbd2cffaf	-0.042236026
218	0xbd46bdb3	-0.048520755
219	0xbbbb84d6	-0.0057226224
220	0xbd0e4d28	-0.03474155
221	0xbcb9e079	-0.022690045
222	0x3d28c61f	0.041204568
223	0xbbc41c18	-0.0059847943
224	0xbce1530d	-0.027505422
225	0xbca2e545	-0.019884715
226	0xbcd79120	-0.026314318
227	0xbd1a3c56	-0.037655197
228	0xbce05616	-0.027384799
229	0xbb6c6860	-0.0036072955
230	0xbd104050	-0.035217583
231	0x3d114843	0.035469305
232	0xbd850afa	-0.06496234
233	0xbcc20ace	-0.023686793
234	0x3caf3a2e	0.021390047
235	0x3cd30b1e	0.025762137
236	0xbd71b121	-0.059006814
237	0xbca1db31	-0.019757839
238	0xbd257d60	-0.04040277
239	0xbd4b710a	-0.04966835
240	0xbd113012	-0.035446234
241	0xbaa9fde0	-0.0012969337
242	0x3c7fcfab	0.015613477
243	0xbb118730	-0.0022205822
244	0xbd1617fd	-0.03664397
245	0xbd9687ad	-0.07350097
246	0xbc6c20b9	-0.014412099
247	0x3a97f821	0.0011594334
248	0x3ae809c0	0.0017703101
249	0xba5140c0	-0.0007982366
250	0x3b0d9e8f	0.00216094
251	0x3c0bf9d7	0.008543453
252	0xbcf45319	-0.02982478
253	0x3a7d8180	0.0009670481
254	0x3c030022	0.007995637
255	0xbc76a869	-0.015054801

net.2.bias f4 [256]
0	0xbd6e40c7	-0.058167245
1	0x3c135b38	0.008993916
2	0xbd3cbe8d	-0.04608016
3	0xbf1a2cf9	-0.6022487
4	0xbd63636a	-0.05551473
5	0xbd3146da	-0.04328046
6	0xbf9835fd	-1.1891476
7	0x3f069360	0.52568626
8	0xbd63c613	-0.05560882
9	0xbd806552	-0.06269325
10	0xbe921f28	-0.28539395
11	0xbcc109fe	-0.023564335
12	0x3f815fc9	1.0107356
13	0xbd7d7497	-0.061878767
14	0xbd788928	-0.060677677
15	0xbd1c9cec	-0.03823559
16	0xbc56967c	-0.013097402
17	0xbdaae90b	-0.08345231
18	0x3ea6862a	0.32524234
19	0xbd2a5cd6	-0.04159244
20	0x3d9f0237	0.07764094
21	0xbd4a6c1e	-0.049419515
22	0xbd42f1db	-0.047593933
23	0xbf3ca1f4	-0.7368462
24	0x3cc608e4	0.024174161
25	0xbca719a9	-0.020397978
26	0x3f17d67f	0.5931167
27	0xbd376653	-0.04477532
28	0xbd6874e2	-0.056752093
29	0xbd84ea23	-0.064899705
30	0xbe73821c	-0.23780102
31	0xbca41dbc	-0.02003371
32	0xbf5213f6	-0.8206171
33	0x3eb94520	0.3618555
34	0xbc8ae8a1	-0.01695663
35	0xbcaf6030	-0.02140817
36	0xbd9345a9	-0.07191021
37	0xbd3a535b	-0.04548965
38	0xbbd720dd	-0.006565197
39	0xbd97b5b0	-0.07407701
40	0x3f87cceb	1.0609411
41	0x3f2830c6	0.6569942
42	0x3e737b67	0.23777543
43	0x3eec5b25	0.46163288
44	0x3b9e3d59	0.0048290906
45	0xbd8e4da5	-0.06948403
46	0x3ef75f09	0.48314694
47	0xbce4d8fa	-0.027935494
48	0x3e7f486e	0.24929973
49	0xbe8fd1b3	-0.28089675
50	0xbf3aa926	-0.7291435
51	0xbd7cab84	-0.061687008
52	0xbeccece7	-0.40024492
53	0x3fa7a9b1	1.3098661
54	0xbf3e1963	-0.7425749
55	0x3e582942	0.21109489
56	0xbd749c48	-0.059719354
57	0x3ab6f67c	0.0013958956
58	0xbeb3e823	-0.35138044
59	0x3f1a9776	0.6038736
60	0x3d7e0d8b	0.062024634
61	0xbc969342	-0.018380765
62	0xbf2e17fb	-0.6800534
63	0xbcfc7fba	-0.030822624
64	0xbe828953	-0.25495395
65	0x3f1ebb89	0.62004906
66	0x3e0a9ac3	0.135356
67	0x3e47f39f	0.19526528
68	0xbc922ba8	-0.017843083
69	0x3a6a1294	0.000892916
70	0x3bb34253	0.005470553
71	0x3e9560b8	0.29175353
72	0xbbe14343	-0.0068744733
73	0xbeb824db	-0.35965618
74	0xbd723257	-0.05913004
75	0xbe7082ed	-0.23487444
76	0xbcb9dac7	-0.022687329
77	0x3f30d7b3	0.6907913
78	0x3f0400f0	0.5156393
79	0xbd440166	-0.047852896
80	0x3f5d6a8c	0.864907
81	0xbd79d478	-0.06099364
82	0xbd4a97f0	-0.049461305
83	0xbcffd628	-0.031230047
84	0xbd49fc54	-0.049312904
85	0x3f1dad3a	0.6159245
86	0xbd336a05	-0.04380228
87	0x3f26a904	0.6510165
88	0x3ebb420a	0.3657382
89	0xbd7c4fda	-0.06159959
90	0xbd21c8e5	-0.03949823
91	0xbd2d4466	-0.042301558
92	0xbc887251	-0.016656073
93	0xbd36b158	-0.044602722
94	0xbd867b53	-0.06566491
95	0xbb88bd53	-0.00417296
96	0xbd55d8a2	-0.05220855
97	0x3eade523	0.3396388
98	0xbe2ac476	-0.16676506
99	0xbc10ddf8	-0.008841984
100	0xbd63396e	-0.05547469
101	0xbeff5c0f	-0.49874923
102	0xbb9d0f0b	-0.004793053
103	0xbd806dd8	-0.06270951
104	0xbf4bdde3	-0.7963545
105	0xbd5951c1	-0.053056482
106	0xbeac9ecd	-0.33714905
107	0xbdba70e7	-0.09103566
108	0xba841586	-0.0010077215
109	0xbf9ccbb7	-1.2249669
110	0xbf2b5fc7	-0.6694302
111	0x3e994ee7	0.2994301
112	0xbc1341d0	-0.008987859
113	0xbeca31a3	-0.39490995
114	0xbf7d4b32	-0.98942864
115	0x3ba42f20	0.0050105006
116	0xba9c45b0	-0.0011922624
117	0xbc1b4a2f	-0.009478136
118	0xbc88bec9	-0.016692536
119	0xbd485739	-0.048911307
120	0x3c4670be	0.012111841
121	0xbc87c914	-0.016575374
122	0xbc5a0879	-0.013307684
123	0x3da47f97	0.08032148
124	0xbc8db302	-0.017297272
125	0x3f2a2e51	0.66476923
126	0xbd248b32	-0.04017181
127	0xbf069ccc	-0.52583003
128	0xbeb15732	-0.34636837
129	0xbd643728	-0.055716664
130	0xbcd082c8	-0.025452986
131	0xbca611a2	-0.02027208
132	0x3ea2b6d8	0.31780124
133	0x3cc29c5d	0.0237562
134	0x3bcaf344	0.0061935503
135	0x3eea6072	0.45776707
136	0xbf64c225	-0.8935874
137	0xbd4f8200	-0.050661087
138	0x3ee45452	0.4459558
139	0x3b0ec4f0	0.0021784864
140	0xbdea5fc9	-0.11444051
141	0xbc199904	-0.009374861
142	0xbd46c3c2	-0.048526533
143	0x3ecc8312	0.3994375
144	0xbc84fd2d	-0.016234005
145	0xbe06e24d	-0.13172264
146	0xbd6878d4	-0.056755856
147	0xbd6fe414	-0.05856712
148	0xbdb051b3	-0.08609333
149	0xbce2556e	-0.027628627
150	0xbc228984	-0.009920482
151	0xbb80d8fa	-0.0039321156
152	0xbe70335f	-0.23457097
153	0xbd29213a	-0.041291453
154	0xbd34bf35	-0.04412766
155	0xbd343e76	-0.04400488
156	0xbc142521	-0.009042055
157	0xbe5e0943	-0.2168322
158	0x3dd05ba5	0.1017373
159	0xbda65cf2	-0.08123197
160	0xbdbebdde	-0.09313558
161	0xbd4b307c	-0.049606785
162	0xbd538f3c	-0.05165027
163	0xbd012535	-0.031529624
164	0xbe002162	-0.12512735
165	0xbeaaa501	-0.33329013
166	0xbd0d3a3f	-0.034479376
167	0xbd35241d	-0.044223893
168	0x3f5f99b8	0.8734393
169	0xbd7fc570	-0.06244415
170	0x3ee32c6d	0.44369832
171	0xbbed2ce6	-0.0072380183
172	0xbc5fe4dd	-0.013665405
173	0xbe3ec41f	-0.18629502
174	0x3f79130d	0.97294694
175	0xbb1fb7c3	-0.0024371005
176	0xbd0bab01	-0.03409863
177	0x3b9bcac9	0.0047543985
178	0xbd0b3d04	-0.033993736
179	0xbd7663d9	-0.060153816
180	0xbf366dfd	-0.7126158
181	0xbe0295ab	-0.12752406
182	0xbcba5741	-0.022746684
183	0xbd72abeb	-0.059245985
184	0x3cb2359d	0.02175408
185	0xbf0e04ae	-0.5547589
186	0x3f0dfc02	0.5546266
187	0xbd613906	-0.054986022
188	0x3ef0da7f	0.470417
189	0xbd84f696	-0.06492345
190	0xbd8b0b87	-0.06789308
191	0xbd064777	-0.032782998
192	0xbd395d83	-0.045255195
193	0x3de05cde	0.10955213
194	0xbf1ced10	-0.6129923
195	0xbd27fa5a	-0.04101024
196	0xbc008237	-0.007843546
197	0xbf8fec9f	-1.1244086
198	0xbd93315e	-0.071871504
199	0xbd2682b0	-0.040651977
200	0xbf133f97	-0.57518905
201	0xbd428e79	-0.047499154
202	0xbd7a8571	-0.061162416
203	0xbf6c9983	-0.9242174
204	0x3bd7aa30	0.006581567
205	0xbd3279b7	-0.043573108
206	0xbcc8b944	-0.024502404
207	0xbcbfe0db	-0.02342265
208	0x3f07b9a1	0.5301762
209	0xbd646dab	-0.05576865
210	0xbcb3c468	-0.02194424
211	0xbf0670aa	-0.5251566
212	0xbce85d3c	-0.02836477
213	0xbd528d2b	-0.05140416
214	0xbd35f86c	-0.044426367
215	0xbd8d0e34	-0.06887475
216	0xbf361d8d	-0.7113884
217	0xbf2b0a6e	-0.6681279
218	0xbd6b2c22	-0.057415135
219	0xbbd34c11	-0.006448277
220	0xbc16366f	-0.009168251
221	0x3f6f8558	0.9356284
222	0xbc8a64e3	-0.01689381
223	0xbe67960e	-0.22615835
224	0xbcff8e71	-0.031195851
225	0xbf205a8b	-0.6263816
226	0xbd5baa4d	-0.05362921
227	0xbd800ee3	-0.062528394
228	0xbd442c07	-0.04789355
229	0xbd7cfa69	-0.061762247
230	0x3e22b258	0.15888345
231	0xbbb07d79	-0.0053860513
232	0x3f278e35	0.65451366
233	0x3c699e22	0.014258893
234	0xbf6d5f61	-0.9272366
235	0xbe9bbda8	-0.30418134
236	0xbcafdf9d	-0.021468932
237	0xbce1682a	-0.02751549
238	0xbc96dcc2	-0.018415812
239	0xbd18fd8a	-0.03735117
240	0xbf952a8d	-1.165361
241	0xbcae297c	-0.021260016
242	0x3e561e88	0.20910084
243	0xbd400be7	-0.04688635
244	0x3f42ebe0	0.76141167
245	0x3f432557	0.7622885
246	0xbdba26ae	-0.09089409
247	0xbd726e83	-0.059187423
248	0xbd2cd787	-0.04219773
249	0xbc68f8c9	-0.014219471
250	0xbd4b6365	-0.049655337
251	0xbf6dbd1b	-0.9286668
252	0xbd08dbd5	-0.033412773
253	0xbdb6b2a8	-0.08920795
254	0xbd77529b	-0.060381513
255	0xbd5c5cd0	-0.05379945

net.4.weight f4 [13, 256]
0	0x3c3f8702	0.011689903
1	0x3da009e7	0.07814389
2	0x3d7be943	0.061501753
3	0x4099dc5b	4.808149
4	0xbd31486d	-0.04328196
5	0xbc000710	-0.007814184
6	0x3ff4c75f	1.9123343
7	0xbf8b3035	-1.0874087
8	0x3d170410	0.03686911
9	0x3c95578f	0.018230228
10	0x3ebb22e7	0.36550066
11	0x3d7ef7a6	0.062247895
12	0xbf11407a	-0.5673901
13	0xbc5594fc	-0.013036009
14	0xbb6ce0f5	-0.0036144827
15	0xbbb36e5a	-0.0054758014
16	0xbd7a0f46	-0.061049722
17	0xbfb5a75a	-1.4191697
18	0x3f93373e	1.1501234
19	0xbcf55027	-0.029945446
20	0x3fbc340d	1.4703385
21	0xbd0bbca6	-0.034115456
22	0xbd210312	-0.03930957
23	0xbf3a72f2	-0.7283164
24	0x3ea39cd4	0.31955588
25	0x3d11bcbb	0.035580378
26	0x3f09fe87	0.53904
27	0xbd1ee962	-0.03879679
28	0x3be53105	0.006994369
29	0xbcbe7d5b	-0.023253134
30	0xbea34d56	-0.3189494
31	0xbd452cc7	-0.048138406
32	0xc04693c7	-3.1027696
33	0x3f526444	0.82184243
34	0x3d8979bf	0.06712674
35	0x3db97b00	0.090566635
36	0xbd909d57	-0.0706126
37	0x3b05da84	0.0020424435
38	0xba90b967	-0.0011041582
39	0x3d826d4f	0.06368505
40	0xbf0270aa	-0.5095316
41	0xbfa55954	-1.2917886
42	0x3fb756ad	1.4323326
43	0x3e8dc496	0.27689046
44	0x3d24bcc8	0.0402191
45	0x3ced2c11	0.028951677
46	0x3f3c9cc7	0.73676723
47	0x3d34cd23	0.044140946
48	0x3f220fb6	0.63305223
49	0x3ed0d190	0.40784883
50	0x403c2563	2.939782
51	0x3d2ea76b	0.04264013
52	0xbe3775ad	-0.17915983
53	0x3f2c2512	0.67244065
54	0xc035229c	-2.8302374
55	0x3c5c4440	0.013444006
56	0xbd8e4342	-0.06946422
57	0x3b2529e5	0.0025201973
58	0xbfe0dad4	-1.7566781
59	0xbfa73957	-1.3064374
60	0x3ff0001c	1.8750033
61	0xbd29a337	-0.04141542
62	0x3e895530	0.26822805
63	0xbd44ac54	-0.048015907
64	0xbf89510d	-1.072786
65	0xbd48b1d3	-0.04899771
66	0xbf605afc	-0.8763883
67	0xbf4e0398	-0.80474234
68	0xbccce396	-0.025010865
69	0xbc9bd8f8	-0.019024357
70	0xbd5e894a	-0.054330148
71	0xc02ead46	-2.7293258
72	0x3c9b82a6	0.018983196
73	0xbfe62c86	-1.7982337
74	0x3c9035bc	0.017603748
75	0x40096402	2.146729
76	0xbd1256e7	-0.035727408
77	0x3f042c2b	0.51629895
78	0xbf4b0dde	-0.79318035
79	0x3c9783d1	0.018495472
80	0x3d73cab7	0.059519496
81	0x3a686160	0.00088646077
82	0xbd719e46	-0.058988832
83	0x3c0bc7c4	0.008531515
84	0xbc8acb31	-0.016942592
85	0xbf5531b7	-0.83278984
86	0xbce9395c	-0.028469734
87	0xbf326447	-0.6968426
88	0x3e94195a	0.28925592
89	0x3c68c254	0.014206488
90	0x3c2b213e	0.010444937
91	0xbd17818a	-0.036988772
92	0x3c5d4d0e	0.013507141
93	0x3d2281a0	0.0396744
94	0x3c9e75ec	0.019343339
95	0x3d1882ce	0.03723412
96	0x3d63299b	0.0554596
97	0x3f97d0e0	1.1860619
98	0xbef13d7c	-0.4711722
99	0xbcb4d47d	-0.022073979
100	0x3c9a63ee	0.018846478
101	0x4007a98d	2.1197236
102	0xbadbe708	-0.0016777227
103	0x3c7e9f61	0.015540929
104	0x4020841d	2.5080636
105	0xbcc0d61b	-0.023539593
106	0xbe7801e1	-0.24219467
107	0xbf6eab6b	-0.93230313
108	0xbbe94e60	-0.0071199387
109	0xbfca8231	-1.5820981
110	0xbf7f911e	-0.99830806
111	0xbda0872f	-0.07838284
112	0x3c6125b9	0.013741904
113	0x3f478cf8	0.77949476
114	0x4039e66c	2.9046888
115	0x3c00407e	0.007827876
116	0x3cab2a28	0.020894125
117	0xba1e3c92	-0.00060362474
118	0xbd72ddb9	-0.059293482
119	0x3d32ca05	0.043649692
120	0x3d0405b7	0.032232013
121	0x3d22c4e1	0.03973854
122	0xbdad91ba	-0.08475061
123	0xbe8e3388	-0.2777369
124	0xbb89a3db	-0.0042004413
125	0xbf9aa19b	-1.2080568
126	0x3d4d6184	0.050141826
127	0xc04189fa	-3.0240464
128	0xc043a8e4	-3.0571833
129	0x3d15ba0a	0.036554374
130	0xbbbdf697	-0.005797218
131	0xbb1ed092	-0.0024233204
132	0x3e06279d	0.13101049
133	0x3f2d678f	0.6773614
134	0x3ccec772	0.025241587
135	0xbf06fd0e	-0.5272988
136	0x3f049426	0.51788557
137	0x3d53dcf4	0.05172439
138	0x3dd1233d	0.10211799
139	0x387a752e	5.9713777e-05
140	0xbd685b27	-0.056727555
141	0xbc667d01	-0.014067889
142	0xbc28cec3	-0.010303202
143	0xbe81a131	-0.25318292
144	0x3d7c9000	0.061660767
145	0xbfae920e	-1.3638322
146	0x3d4114ad	0.04713886
147	0xbd21d9a8	-0.039514214
148	0x3caf97af	0.021434633
149	0xbce5de5b	-0.028060129
150	0xbb3ab2a0	-0.0028487816
151	0x3d25584d	0.040367413
152	0xbf416425	-0.75543433
153	0x3ccf2f33	0.025291061
154	0xbd415079	-0.047195885
155	0x3d2d6903	0.042336475
156	0xbcdd5720	-0.027019083
157	0xbfbf8e3c	-1.4965281
158	0x3dded398	0.10880202
159	0xbdfe4e2d	-0.124172546
160	0x3e1686a3	0.14699797
161	0x39585e05	0.0002063439
162	0x3cdb27dc	0.026752405
163	0xbd939f38	-0.07208103
164	0x3f51cf56	0.81956995
165	0x3fac1211	1.3443013
166	0x3d3cab92	0.04606206
167	0x3d3e9b19	0.04653463
168	0x3f924a9c	1.1429019
169	0x3d519031	0.051162902
170	0xbdb016f6	-0.085981295
171	0x3d3e6aab	0.046488445
172	0x3d4211c1	0.047380213
173	0xbfff6105	-1.9951483
174	0xbeb10879	-0.34576777
175	0xbd6c5d72	-0.057706304
176	0xbf112dd2	-0.5671054
177	0xbf17ed06	-0.59346044
178	0x3d282080	0.04104662
179	0xbca780dd	-0.020447189
180	0x3f87d6ee	1.0612466
181	0x3ef89728	0.48552823
182	0xbcdc5274	-0.026894785
183	0xbcd591e9	-0.026070552
184	0x3cac8d66	0.021063518
185	0xbff31292	-1.8990042
186	0xbfc32eea	-1.5248692
187	0xbc8961af	-0.016770212
188	0x3f294c7d	0.66132337
189	0x3aa60c0c	0.0012668385
190	0x3d391447	0.045185354
191	0xbc71d7a5	-0.014760886
192	0xbb386d9f	-0.002814151
193	0xbe12040c	-0.14259356
194	0xbf7260bb	-0.9467885
195	0xbd73408e	-0.059387736
196	0x3d39a626	0.045324467
197	0xbf8ec3da	-1.1153519
198	0x40085546	2.1302047
199	0x3c8880ec	0.016663037
200	0x3fb1f891	1.3903981
201	0x3d61ae07	0.055097606
202	0x3cb66c3e	0.02226841
203	0xbec64a5b	-0.38728604
204	0x3caa639b	0.020799449
205	0xbd0f9f43	-0.035063993
206	0xbd40e5f0	-0.047094285
207	0xbd41bcc1	-0.04729915
208	0x40294ba2	2.6452413
209	0xbc72992f	-0.01480703
210	0xbd3a2182	-0.04544211
211	0x3fd60aa3	1.6721996
212	0x3cdb440d	0.026765848
213	0x3d18d0bc	0.03730844
214	0x3d714986	0.058908008
215	0xbcd101fa	-0.025513638
216	0xbfda6109	-1.7060863
217	0x3e90a75b	0.28252682
218	0xbd4f314c	-0.050584123
219	0x3c96d2ea	0.018411119
220	0x3c3314e5	0.010930275
221	0xbe5241e7	-0.20532952
222	0x3cc989bd	0.024601812
223	0xbf27efce	-0.6560029
224	0x3d4ab240	0.0494864
225	0xbf9469e6	-1.1594818
226	0x3cdde46c	0.02708646
227	0x3d115a9a	0.035486795
228	0xbb4085a4	-0.002937653
229	0x3b555d4b	0.0032556828
230	0x3f0ff499	0.562326
231	0x3d04290f	0.03226572
232	0xbef548da	-0.47907144
233	0xbd649712	-0.055808134
234	0xbfdbfda7	-1.7186784
235	0x3f398cac	0.72480273
236	0xbc07c922	-0.0082877
237	0x3c8b74d1	0.017023476
238	0x3dac2238	0.08404964
239	0x3c2d6a79	0.010584467
240	0x3eb747e2	0.3579703
241	0xbce0a64c	-0.027423047
242	0x3f03a45b	0.5142266
243	0xbc63a535	-0.013894369
244	0x3f4a740c	0.79083323
245	0x3f4e9fcf	0.807126
246	0xbf7c02e0	-0.98441887
247	0x3d235832	0.03987903
248	0xbd36efad	-0.044662166
249	0x3c0b7c3f	0.008513509
250	0x3ce9d023	0.02854163
251	0xbfa01b87	-1.2508401
252	0x3af906f6	0.0018999267
253	0xbf685e21	-0.9076863
254	0xbd2aee91	-0.04173142
255	0x3baccaf7	0.0052732187

net.4.bias f4 [13]
0	0x3e84fda7	0.2597477
1	0xbd7e51ff	-0.062089916
2	0x3eb4a67c	0.35283267
3	0xbf0dd91f	-0.55409425
4	0xbf2d2abf	-0.6764335
5	0xbec21de7	-0.3791344
6	0x3e77e0f5	0.24206908
7	0x3d75b4cf	0.059986886
8	0xbd5fe3d1	-0.054660622
9	0x3d66b1d0	0.05632192
10	0x38db060b	0.00010443859
11	0xbd2abb90	-0.04168278
12	0x3a8140e7	0.0009861261

log_vars f4 [13]
0	0xbf857401	-1.0426027
1	0xbf87498e	-1.0569322
2	0xbf628df4	-0.88497853
3	0xbf711a72	-0.9418098
4	0xbf6bdb8c	-0.92131877
5	0xbf516c57	-0.8180594
6	0xbf3437a7	-0.7039742
7	0xbff62c5e	-1.923229
8	0xbfb8845d	-1.4415394
9	0xbf9f2bc7	-1.2435235
10	0xbfd8a237	-1.6924504
11	0xbfd851b4	-1.6899934
12	0xbfb5afac	-1.4194236
